checkpoints/ddpg/112_checkpoint_actor_agents_20_solved.pth (torch_old, 541483 bytes, 6 tensors)

fc1.weight f4 [400, 33]
000000 53 5e 55 bd ca aa 07 3c 5f 81 b4 bd 6e 62 0a 3d
       -0.052091908 0.008280465 -0.08813738 0.033785276
000010 d3 4c 87 bb 95 30 d1 bc 11 4e cf bd e0 d0 12 3e
       -0.004129031 -0.025535861 -0.10122312 0.14337492
000020 c2 25 9e bd cd 9e 19 3d 96 a5 38 bd 24 64 ae 3c
       -0.077220455 0.03750496 -0.04507979 0.021287985
000030 2a a9 59 bd 19 6e eb bc 43 43 34 bc f4 d4 89 3d
       -0.053139843 -0.028739022 -0.011002365 0.06730071
000040 3e 5b d6 3a 92 59 9b bc e6 d9 31 bd 3a f8 e9 bc
       0.0016354097 -0.018963609 -0.043420695 -0.028560746
000050 0a b1 3c 3d 38 28 1a bd 0b 3c 8e bb 5b 59 f9 3c
       0.046067275 -0.03763601 -0.004340654 0.030438116
000060 e4 c3 f9 3d 40 80 65 3d 6c 49 70 bd 18 65 23 3a
       0.12195566 0.05603051 -0.05866377 0.00062330207
000070 69 7a 19 3d c9 65 4b 3d 94 a9 8c bb b7 4f ea bc
       0.037470255 0.049657617 -0.004292676 -0.028602464
000080 e5 93 09 bf a5 6b 80 bd 01 de 9f bc c4 4a 80 bc
       -0.53741294 -0.062705316 -0.01951504 -0.015660651
000090 1b c1 41 3c 8f db 4f bc 30 89 1a bc 5d c6 29 bd
       0.011825825 -0.012686624 -0.009432122 -0.04144894
0000a0 56 78 8c bb 51 af a9 3b 41 fb 2a bd 1f c7 88 bb
       -0.004286806 0.00517837 -0.04174352 -0.0041741277
0000b0 47 f3 31 3d 03 38 7c bd cc f0 aa 3d 26 93 05 bd
       0.043444898 -0.061576854 0.083467096 -0.032611035
0000c0 99 44 0a be 81 d1 a3 bd d2 4a 02 bd f3 0e 87 3d
       -0.1350273 -0.07998944 -0.031809635 0.06594648
0000d0 2e dd 64 3c 3d f7 be bc a4 f8 23 3b 5a c5 27 3d
       0.013968749 -0.023311252 0.0025020028 0.040959693
0000e0 ee e3 82 3d 0f 16 27 3d 08 21 f1 bc c7 f0 89 bb
       0.063911304 0.04079252 -0.029434696 -0.004209611
0000f0 2f 2b cc 3c 50 6a dc bd c3 af 28 bd ae d4 83 3c
       0.024922935 -0.10762465 -0.041183244 0.016092625
000100 ec 03 3b bc 9e 37 ed 3e 65 c6 9f 3c 53 ec 23 bd
       -0.011414509 0.46331495 0.019503782 -0.0400203
000110 a7 ef 04 be 94 ab 96 bd 61 c6 07 bc cb f0 bb bc
       -0.12982045 -0.07356945 -0.008287043 -0.022941967
000120 c9 82 f5 bc 20 41 8e bc 4a c5 34 bd ce 2c 21 be
       -0.02996959 -0.017365038 -0.044133462 -0.15739748
000130 a8 4c f1 3b c1 64 9b 3c 37 80 11 bc 9e fc 8e bd
       0.0073638745 0.018968942 -0.008880666 -0.06981777
000140 09 ef ce 3d c9 d6 cd 3c 72 73 4a bd ed 0d ad 3d
       0.10104186 0.025126832 -0.049426503 0.08449922
000150 e8 ae bc bc 54 3c 31 3c 72 bb 3f 3d c1 f4 bf 3d
       -0.02303262 0.010817606 0.04680962 0.09372855
000160 b6 15 98 bd a4 90 db bd ac 00 a5 3c 90 50 9d bc
       -0.07426016 -0.107209474 0.020141922 -0.019203454
000170 b7 cb 7c bd fa 30 09 3d bf bd ae bd ec d4 0b bd
       -0.061717715 0.033493973 -0.08532285 -0.034138605
000180 cc 86 c2 bd 2b b2 3c 3d 28 40 c1 bd b9 ae 84 3b
       -0.09498367 0.04606835 -0.09436065 0.004049149
000190 72 ed 82 3d c8 c2 b3 3d 21 6a 00 bd 0a 94 90 bc
       0.06392945 0.08777386 -0.031351212 -0.017648716
0001a0 cc f7 27 bc 84 4c e6 3c 98 99 99 bd 6a 75 73 bc
       -0.0102519505 0.028112657 -0.07499999 -0.014859537
0001b0 19 8c 96 bd ae e5 d1 bd 7c 31 26 bb 82 3e 17 bd
       -0.0735094 -0.10248886 -0.0025359085 -0.036924846
0001c0 69 66 2b 3c f1 5f c3 bd ae 6c 8e bd 16 03 77 3d
       0.010461428 -0.09539784 -0.06954323 0.060305677
0001d0 10 a6 56 3a e3 90 91 bd 47 b8 25 bd 02 7e 65 bd
       0.00081881974 -0.07107713 -0.040458944 -0.056028374
0001e0 56 f5 04 3e 39 63 fd 3c 76 4c e1 bd 39 b7 a3 bc
       0.12984213 0.030931102 -0.11000912 -0.019984828
0001f0 f4 fe ed 3c 96 e7 15 bd 49 c4 06 3d 80 aa ce 3d
       0.029052235 -0.03659781 0.032902036 0.10091114
000200 00 58 54 b8 82 ee 92 bd 80 03 08 ba a8 0d fa 3d
       -5.0626695e-05 -0.07174398 -0.000518851 0.12209636
000210 f5 84 03 be 5a d4 ec 3d f4 cd 86 bd 22 ad 7d 3a
       -0.12843688 0.1156394 -0.06582251 0.0009676983
000220 13 c7 85 bd 9c f9 fa 3c fa 20 8d 3d 1d c4 5f 3d
       -0.06532111 0.030636601 0.068910554 0.054630388
000230 fc 0b a1 bd 97 f8 a6 3d 86 08 47 3d 47 0b 24 3d
       -0.07863614 0.081528835 0.048592113 0.040049817
000240 7c b4 b4 3a e2 55 86 bb e4 fa 0d be 94 8f b8 bd
       0.0013786699 -0.0040995935 -0.13865238 -0.0901176
000250 1e b6 9d 3d 99 3f 5b 3d 61 2f c6 3d 97 51 40 3c
       0.07700752 0.05352745 0.096770056 0.011738203
000260 45 1f 26 bd 49 10 ac bd 1b 5c 59 bc 6a 73 d1 3d
       -0.040557165 -0.08401544 -0.013266589 0.102270916
000270 c9 0b 14 3c c4 cd 1d bc e2 d1 85 3d dc 61 84 3d
       0.009036013 -0.009631578 0.065341726 0.06463978
000280 c5 ab 05 3c e0 80 1b bd 15 7c b8 bd 68 c4 19 bc
       0.008158629 -0.0379647 -0.09008042 -0.009385206
000290 f6 20 83 3e 2e 24 3a bd a7 1e cc 3c c1 7b d4 3b
       0.25611085 -0.04544466 0.02491696 0.006484479
0002a0 97 b3 a2 bd c1 f7 ac bc c6 54 e0 bc 87 73 4c 3d
       -0.0794441 -0.021114232 -0.027384173 0.049914863
0002b0 4c b1 3a bd a5 02 01 be 8d 97 5c bd 59 86 ad bd
       -0.04557924 -0.12598665 -0.053855468 -0.084728904
0002c0 cf b4 ab bc e0 27 f3 bd f5 5a b4 3c 9c 1e c0 3d
       -0.02096024 -0.1187284 0.022016028 0.09380838
0002d0 a5 8f 4f ba a2 9d f1 3c 8d 68 eb 3c 06 6b 3a 3b
       -0.0007917828 0.02949411 0.028736377 0.0028445139
0002e0 3c 1a 8f 3b 84 d5 18 3e 82 27 b2 bc 3f b6 c1 bd
       0.004367141 0.149252 -0.021747354 -0.09458589
0002f0 04 f9 b9 bd e2 6d c5 3c 52 46 95 bc 4f 71 2e bd
       -0.09080699 0.024100248 -0.018222008 -0.04258853
000300 6a b6 aa 3d 49 14 7f bd 89 27 40 3d 85 16 1a bd
       0.08335574 -0.062275205 0.046912704 -0.037619133
000310 c0 3e 71 3a 45 68 e3 be 90 5c a0 3d cd 97 49 3e
       0.0009202771 -0.4441549 0.07830155 0.19686814
000320 cb fa ea 3d 80 9c ea 3c db f9 41 bd 4d b7 24 bd
       0.11473616 0.028639078 -0.04735742 -0.04021387
000330 a6 86 d6 3b b5 cf 55 bc 58 1d e8 3c 8c 6b cc 3b
       0.006546813 -0.0130500095 0.028334305 0.0062384065
000340 d1 0f 36 3d 16 a7 ce 3d 7f d1 db 3d 1f e1 1f 3e
       0.044448677 0.10090463 0.107333176 0.1561322
000350 9e 8e f9 3d 52 31 cd 3c 1d 56 bd bd 2f f0 e5 3d
       0.12185405 0.025047932 -0.092449404 0.11227452
000360 0c 20 d6 bb 4a 61 59 3c d6 fe b0 bd 3f 7e 49 3d
       -0.006534582 0.013267824 -0.08642356 0.049192663
000370 16 0f 39 bc b8 3f 0a 3a 03 d8 1a bd 44 13 e4 bc
       -0.011295101 0.0005273777 -0.03780366 -0.027841218
000380 f0 d0 08 bc 5a ca 9a 3c 0b 54 9b 3d 7f 70 2f bd
       -0.008350596 0.018895317 0.07584389 -0.042831894
000390 60 f0 22 bd ac e8 2c 3c 1d 1b 85 be 2a a3 ac bd
       -0.03978002 0.01055352 -0.25997248 -0.084295586
0003a0 79 f3 be 3d 83 10 07 bd a4 79 3a bd 94 8d 08 bd
       0.093237825 -0.03297473 -0.04552616 -0.033338144
0003b0 d4 57 22 bd 6f 78 21 bd ca 4f 09 bd dc 5a 6b 3d
       -0.03963454 -0.039421495 -0.03352336 0.057459697
0003c0 fa ee fa bc 97 0e 47 bd b4 82 db 3a e3 b0 25 3d
       -0.030631531 -0.0485979 0.0016747327 0.040451895
0003d0 72 9b aa bb 8f 7f 51 3a 0a 16 32 3e b4 f3 95 bd
       -0.005206519 0.0007991725 0.1739122 -0.07321873
0003e0 4d 8c 05 bd 35 c7 94 3a 2a d7 9b bc 65 51 0e bd
       -0.032604504 0.0011350872 -0.019023497 -0.034745593
0003f0 ec 07 2b bd ea 80 c5 3c a6 b3 e6 3a c9 be 2d 3c
       -0.0417556 0.024109323 0.0017601147 0.010604569

fc1.bias f4 [400]
000000 bc 03 cc bd bd a4 9a bd 8b 36 d0 3d 93 41 ef bc
       -0.0996165 -0.075509526 0.10166653 -0.029206073
000010 83 1c 4c be d8 ff 5d be c5 0f 14 be cf 96 32 be
       -0.19932751 -0.21679628 -0.1445914 -0.17440341
000020 b9 5f a7 3b 25 34 ba bd d8 6a 05 3e 34 62 52 bd
       0.0051078466 -0.09091977 0.13029039 -0.051363185
000030 57 b5 2a 3e c7 51 c5 bc 2c 6e 46 be 65 f7 c6 bc
       0.16670738 -0.024086846 -0.19377965 -0.024287889
000040 9d 44 d5 bd 28 8f 84 bd 87 b3 3e be 60 4d 5b 3d
       -0.104134776 -0.064726174 -0.18623172 0.053540587
000050 b4 6c 4e be 2f e4 bc bd b8 cd 5a bd c2 64 84 bd
       -0.20158654 -0.0922321 -0.053418845 -0.064645305
000060 88 73 a6 3d af 64 40 be 12 d5 cb bc f9 be 42 3e
       0.081275046 -0.18788408 -0.024881873 0.19018163
000070 5a 2e 36 3e 41 0a 2e bc af ba 67 3d 1b 36 8d 3d
       0.17791119 -0.010622562 0.05657452 0.068950854
000080 e8 71 69 3e b7 b5 8d bd b6 85 11 3d cd 7b 0b bd
       0.22797358 -0.06919425 0.035527907 -0.034053613
000090 b3 a5 c0 bd 18 6d 22 3e 2b d4 f3 3d 1e b4 08 3d
       -0.094066046 0.15861928 0.11905702 0.033374898
0000a0 04 9f 3f 3e 5f 70 cc 3d 17 a6 b4 3d 40 75 81 3d
       0.18713003 0.099823706 0.088207416 0.06321192
0000b0 ed 6f 08 3d 7c f8 c6 3d a5 db 02 3e 2c 89 f2 3d
       0.033309866 0.097153634 0.127791 0.1184257
0000c0 a2 c2 d3 3d 07 64 25 be 1d 9d 4a 3d 3e 44 07 3e
       0.10339858 -0.16151439 0.04946624 0.13209626
0000d0 df 4c 3a 3e 75 17 21 3e f2 83 81 bc 1b 39 4b 3e
       0.18193386 0.15731604 -0.015809987 0.19846003
0000e0 7a 3c c6 3d d3 a0 f9 bd 4e 53 44 3c 55 c4 12 3e
       0.09679504 -0.12188878 0.011982752 0.14332707
0000f0 dc 6a 06 be 81 64 bd bc 18 84 e5 3d e7 64 b5 bd
       -0.13126701 -0.023119213 0.112068355 -0.08857136
000100 3b fc 1d bd 14 1d 22 bd 33 84 89 bb a8 ca 3b be
       -0.038570624 -0.039578512 -0.0041966676 -0.18339026
000110 35 0e 6f 3c 19 03 ff 3c 95 3a d1 3d a6 1f 5d 3d
       0.01459079 0.031129407 0.10216252 0.05398526
000120 87 30 f4 3c 45 9b 96 bc bd 6a 9d 3d 65 dc f1 3d
       0.029808296 -0.018384585 0.07686374 0.11809615
000130 e4 1a f4 bd 97 d9 b5 bd 42 0e 1f 3e 67 6c 22 bd
       -0.119191915 -0.088793926 0.15532783 -0.03965416
000140 92 c5 1d bd 70 32 dc 3c f6 72 8c bd bc 78 0b be
       -0.038518496 0.02687952 -0.068578646 -0.13620275
000150 25 40 50 3d fc 06 0d 3e c8 e1 ec 3c 0f 93 30 3e
       0.050842423 0.13772196 0.028916255 0.17243598
000160 d5 db 35 3d a9 ae f2 bd a6 db 27 be ff ad 8c 3d
       0.0443991 -0.1184972 -0.16392383 0.068691246
000170 a7 fb e5 3c 40 57 86 3c 9e 98 85 bd ee 8b 1a be
       0.028074099 0.016399026 -0.0652325 -0.15092441
000180 a4 39 cb bd 6b 95 d6 3d af 03 8f 3d 18 20 30 3e
       -0.099231035 0.10477718 0.069831245 0.17199743
000190 30 c0 01 be 2a 9f 3f 3e a5 0b 86 bd 62 b3 32 3e
       -0.1267097 0.1871306 -0.0654519 0.17451242
0001a0 b1 86 cd 3c c3 af 74 3e e7 66 8b 3d 9b f8 9c bd
       0.02508864 0.23895173 0.068067364 -0.07664605
0001b0 5c ab 40 3d c1 49 8d bd 38 c2 88 3d a0 b3 d3 bd
       0.04703842 -0.06898833 0.06677669 -0.10336995
0001c0 7c e3 cf bd 5d a2 96 bd 8c 53 f7 3d aa 82 e7 3d
       -0.10150811 -0.07355187 0.12076482 0.11304219
0001d0 85 9a e3 3c 49 93 ab bc 4f 0c 06 be 2b fe 66 bd
       0.027783642 -0.020944254 -0.13090633 -0.056394737
0001e0 13 eb 2a be 68 c7 12 be 14 b4 0e be 41 bc 5a 3d
       -0.16691236 -0.1433388 -0.13935882 0.05340219
0001f0 69 da 37 be f3 10 c8 3d fe 7e e1 3d 15 c9 1d bd
       -0.1795441 0.09768858 0.1101055 -0.038521845
000200 92 45 88 3b a9 3d df 3d 1d 86 32 be 5d 1f 23 3e
       0.004158684 0.109004326 -0.17433973 0.15929933
000210 68 70 b7 3d 9a 5e 00 3e 55 29 bb bd 11 c3 bf 3c
       0.08956987 0.12536088 -0.09138743 0.023408445
000220 5f 8e c9 3c d5 62 38 bd 29 87 40 3e 52 14 0f bd
       0.02460402 -0.04501613 0.1880156 -0.03493149
000230 38 17 24 3d 13 8e aa b9 14 d8 a5 bd cb d1 56 3d
       0.040061206 -0.0003253078 -0.08097854 0.052446168
000240 b2 ed 5f be 18 91 d0 3d aa 8a 66 bd 21 2c 9a bd
       -0.21868017 0.101839244 -0.056284584 -0.07527948
000250 92 49 0e be 3e 0f 73 be eb 8e 26 bd d3 d4 9c 3d
       -0.13895252 -0.23736283 -0.04066364 0.076577805
000260 02 e2 2d 3d fa a5 13 be 20 f8 f3 bd 95 b3 00 be
       0.042451866 -0.14418784 -0.119125605 -0.12568505
000270 e2 ef 44 3e 80 b3 2e be 2e cf 7a bd 59 71 00 be
       0.19232133 -0.17060661 -0.06123274 -0.12543239
000280 a5 23 d6 bd aa db dc 3d d4 40 cb 3d 94 f7 bc 3d
       -0.104560174 0.10784085 0.09924474 0.09226909
000290 59 b3 42 3d 6b 0f ce bd 99 57 6d 3d 0e 6a 81 3d
       0.04753432 -0.100615345 0.057944868 0.063190565
0002a0 fb 49 ed bd d7 7d 96 bd c2 7b 37 3d 19 54 07 be
       -0.11586376 -0.07348221 0.04479576 -0.13215674
0002b0 98 5e ad bc 9c c4 6f bd 71 cd bf bd fd fc e5 3d
       -0.02116327 -0.05853711 -0.09365357 0.11229894
0002c0 3c f5 4c be e2 e9 0f bd 23 ab 7b 3d f3 1c 75 bc
       -0.20015424 -0.035135157 0.061442506 -0.014960515
0002d0 4a 59 8a 3d 43 21 dd 3d 18 23 8b be 43 4a a0 bd
       0.06755312 0.1079736 -0.27175212 -0.07826664
0002e0 30 ac d6 bc 4c e8 4a be 41 a6 f3 bd 04 de 19 be
       -0.026205152 -0.19815177 -0.11896945 -0.15026098
0002f0 d1 b7 2f 3e 4a 85 60 3e fc 36 7d 3d 8e f5 0a be
       0.17159964 0.21925846 0.061820015 -0.13570234
000300 7b 5e fe bd 48 f1 32 3e fb 9c 9b 3d af 38 0c bd
       -0.124203645 0.17474854 0.07598301 -0.034233745
000310 98 91 eb bd 00 b7 95 bc 7c ff 7b 3d 0d 2a 48 3d
       -0.11502379 -0.018275738 0.061522946 0.048868228
000320 e6 30 cb bd 69 9b 0e be 68 07 40 be b4 61 b3 bc
       -0.09921436 -0.13926472 -0.18752825 -0.021897174
000330 46 fc 51 be 29 e9 03 3e 1a 70 15 3d a9 60 e0 bc
       -0.20506391 0.12881912 0.03648386 -0.027389841
000340 81 ca c1 3d b9 cf 84 3d d1 cf 1e 3d e7 d8 ff 3d
       0.09462453 0.064849325 0.038772408 0.12492543
000350 b7 71 42 3b 43 cb 3f be e0 f7 ec 3d c9 45 f1 bd
       0.002966983 -0.18729882 0.11570716 -0.117808886
000360 40 5e 55 be 8d 9d c2 bd b9 fb bd 3d 09 fb df 3d
       -0.20836735 -0.09502707 0.09276528 0.10936553
000370 ad aa 38 be 14 41 6d be 58 e9 2b be ec 20 57 be
       -0.18033858 -0.23169357 -0.16788232 -0.21008652
000380 e4 2d 0f 3e e8 1a b4 3c ba a1 da 3b b3 98 d8 3d
       0.1398235 0.021985486 0.0066721113 0.10576
000390 f0 db b7 3d f0 e9 f3 bd 4f 9f d4 3d cb e2 69 3c
       0.089774966 -0.119098544 0.10381948 0.014275263
0003a0 02 b3 8c 3d ec 21 2e be 99 ff 42 bd f5 2d 20 3e
       0.068700805 -0.17005128 -0.04760704 0.15642531
0003b0 be 0f 6f bd 4c 9f e3 bd 7f 04 b6 be a8 1c 59 bd
       -0.058364622 -0.11114368 -0.35550305 -0.053005844
0003c0 1b 00 99 3d c9 6b b0 bd db 48 10 3e c9 3f b4 bd
       0.07470723 -0.086143084 0.14090292 -0.088012286
0003d0 41 df 49 bd 07 8b 43 bd 66 30 24 3e 79 68 10 3e
       -0.049285177 -0.04774001 0.16034088 0.14102353
0003e0 49 72 d7 bd 30 23 0d be 98 73 98 3d 66 41 87 3d
       -0.10519845 -0.13782954 0.07443923 0.06604271
0003f0 6c 6b fb bd 69 d1 28 be 68 83 39 3e 41 65 a3 3d
       -0.122763485 -0.16486134 0.18116534 0.07978297

fc2.weight f4 [300, 400]
000000 ad 37 c2 3c d6 a4 71 3d 34 a4 87 3d 88 d7 b6 bc
       0.023708189 0.05899509 0.06623116 -0.02231957
000010 f0 62 1a bc ba 4e b2 3c a3 b9 f3 3c 3f 0f 51 bd
       -0.009423003 0.021766055 0.029751604 -0.05103993
000020 4e 0c 14 3e a4 da d3 bd 0e ad ed bc cf 5b 73 3b
       0.14457819 -0.10344437 -0.029013183 0.003713358
000030 f9 45 09 3d 8b 49 c4 bb 31 f7 d6 bd 80 d0 94 3c
       0.033513997 -0.0059902123 -0.10496367 0.018165827
000040 1a 65 94 bc 6c 4f 9a 3c 95 23 22 3d 92 15 bd 3b
       -0.018114615 0.0188367 0.039584715 0.0057703936
000050 5e b8 58 bd 5d 51 99 3c 19 aa 56 bd b8 93 37 bd
       -0.0529102 0.018715555 -0.05240831 -0.04481861
000060 a0 00 22 3c e6 65 8c bd 29 9a c6 bc 08 f2 ac bd
       0.009887844 -0.06855373 -0.024243431 -0.08444601
000070 09 f1 3b 3d d5 bb cc bc 55 e7 9e 3d 4d 7b 22 3a
       0.045884166 -0.024991909 0.07758967 0.0006198183
000080 77 83 53 3c d5 9c 22 be 4c b8 0a 3d 9b 72 10 bb
       0.012909762 -0.15880139 0.033867165 -0.0022040966
000090 31 f0 eb 3d 04 65 be bd 8c ff 4c bc c5 af 8d 3c
       0.11520422 -0.09296611 -0.012512099 0.017295728
0000a0 8b a5 cb 3d 19 e6 bd 3d 80 1d 7f 3d 64 e7 a6 3d
       0.09943684 0.09272403 0.062283993 0.08149603
0000b0 24 ac e9 3d 96 c8 44 3d fd 03 91 3d ef d5 f4 3b
       0.11409786 0.048042856 0.07080839 0.007471792
0000c0 b2 77 e1 bc 55 8c 05 3e 39 f3 18 3d ff f6 9a 3d
       -0.027522895 0.13041814 0.03734133 0.07566642
0000d0 7e 18 a8 bb d6 4a a3 bd 3d f9 b5 3d 33 57 ad bc
       -0.005129873 -0.07973258 0.08885429 -0.021159744
0000e0 81 83 ad 3d 80 4e 6a 3d d5 f2 0c 3d e4 9c 4e 3d
       0.08472348 0.05720377 0.03441127 0.05044259
0000f0 42 31 99 bd 0e 2e de bd a4 f3 59 bd 20 24 b7 3d
       -0.07480098 -0.10848628 -0.05321087 0.08942437
000100 63 e3 18 bd 88 d0 60 3d 5c 7f 83 3c 51 f2 23 bd
       -0.037326228 0.05488637 0.01605194 -0.040026013
000110 fe d6 cd 3d 17 4c 4b 3d c9 93 03 bc 41 6f c7 3a
       0.10050772 0.04963311 -0.00803084 0.0015215651
000120 68 3b a8 3c 3e 6f 1a 3d 09 67 92 bc d1 86 52 3d
       0.02053614 0.037703745 -0.017871397 0.051398102
000130 48 7f 09 bd 42 2e bf bd 1e b2 a4 3d be 72 db bc
       -0.03356865 -0.09334995 0.08041786 -0.026788112
000140 1c f9 19 bd f8 b2 8b bd 2a 16 40 3c 6c 84 e5 3d
       -0.037591085 -0.06821245 0.011724034 0.11206898
000150 6e 3f 59 bd b7 42 ad 3d 37 8c 89 3d 1e 3f 68 3c
       -0.053039007 0.084599905 0.06716197 0.014175205
000160 95 3c 6f bc 40 39 7c 3d a2 70 8b 3d 7a f7 b6 bd
       -0.014601846 0.061578035 0.068085924 -0.08933921
000170 b9 97 91 3d 7b a5 8b bd 7d 13 42 3b 41 b1 e7 3d
       0.07109017 -0.06818672 0.0029613667 0.113131054
000180 22 7c e6 3d 17 5a e7 3c 26 f3 55 3c ef f7 85 3d
       0.11254145 0.0282412 0.013058459 0.0654143
000190 1c c7 50 3d 13 4c 11 3d a3 7e 26 bd 00 aa 28 3e
       0.050971135 0.03547294 -0.040648114 0.164711
0001a0 8f 15 83 bc f2 37 3e bd cc 4f c5 3d 9c 6a a7 3d
       -0.01600149 -0.046440072 0.09634361 0.08174631
0001b0 94 b9 08 3e 3d 25 6b bd 12 79 0d bc 32 2f c7 3d
       0.13352042 -0.05740856 -0.008634822 0.09725799
0001c0 e7 7d 18 bd da 8e 8e 3d 5a 9c 4c bc 93 9c 0f bd
       -0.037229445 0.069608405 -0.012488449 -0.03506143
0001d0 80 1d 97 3c e3 e5 06 3d 64 b6 d8 3d 48 9e 98 bc
       0.018446684 0.03293408 0.10581663 -0.018630162
0001e0 93 b3 b6 ba d2 0b 65 bd ab e6 f5 3c 57 66 8b 3d
       -0.0013939015 -0.055919476 0.030017218 0.06806629
0001f0 2d b7 29 bd 74 72 73 3d 3d c3 91 3d 9e 5b 1e 3c
       -0.041434456 0.059435323 0.07117317 0.009665398
000200 5b 0e 1c 3d 0a ab fd bc cd 40 99 3d bd 43 d9 3d
       0.038099628 -0.030965347 0.07483063 0.10608623
000210 bd ca 29 bd 6b 6a 18 3d 5b 85 34 bd b3 6c 77 bd
       -0.041453112 0.037210863 -0.04407249 -0.060406398
000220 85 9f 7b 3c aa b1 09 3e ef 1a 09 3e 86 74 1e 3d
       0.015357857 0.1344668 0.1338918 0.038685344
000230 32 19 dc 3c e8 b6 00 3e 90 ca 92 bd e9 8a 73 3d
       0.026867483 0.12569773 -0.07167542 0.059458647
000240 1e d4 e6 3b bc cf 9f bd 8c e5 69 3d 72 f7 b8 bc
       0.0070443293 -0.07803294 0.05710368 -0.022578929
000250 9f e9 26 3d 0d d1 f1 3d 80 51 20 3d 0a 22 d2 3c
       0.040750142 0.118074514 0.039140224 0.025650997
000260 41 b4 b5 bc 31 d7 0d bc 43 5e 1a 3d 98 98 34 bd
       -0.022180678 -0.008657263 0.03768755 -0.044090837
000270 55 61 a8 bb 6b 26 46 3b 95 5b 56 3d 78 c7 d6 3a
       -0.005138556 0.0030235301 0.052333433 0.0016386351
000280 7e 2b e9 37 14 d9 12 3c 68 6b d5 bc 51 87 28 3c
       2.7796017e-05 0.008962888 -0.026052192 0.010286168
000290 2e 8a 47 bd a3 53 21 3d 04 c0 32 bb 0f 57 fa 3b
       -0.048715763 0.039386403 -0.0027275095 0.0076397727
0002a0 be b2 98 3d 4b cc aa 3c 3d dc 73 3d 97 fb 71 3d
       0.07455967 0.020849368 0.059536207 0.059077825
0002b0 03 93 7c 3d 5c 1b e0 3c 69 5d da bd 4e 35 42 bd
       0.06166364 0.027356796 -0.10662348 -0.047414117
0002c0 70 2e 5c bc e4 26 7d bd 60 d6 3b bd b5 f8 ab 3d
       -0.013438806 -0.061804667 -0.04585874 0.083970465
0002d0 7e bf 15 bd 42 ad 55 3c 3b 2f 18 be 05 11 4c bd
       -0.036559574 0.013041796 -0.14861767 -0.04982092
0002e0 7e 05 91 bc 66 36 3d 3d e8 4e 96 3c e7 36 04 bc
       -0.017702814 0.046194457 0.018348172 -0.00806973
0002f0 a2 05 be 3c 1b c5 f4 3c 6e ea 5f 3d c4 be ae bd
       0.023196045 0.029879143 0.05466693 -0.085324794
000300 fa 39 9b 3d 07 f5 60 3d 24 58 04 bd d5 9e 0f be
       0.075794175 0.054921176 -0.03231062 -0.14025433
000310 93 e7 00 bd dc fb f8 3d 77 5f f3 bc de b1 e4 3c
       -0.031470846 0.12157413 -0.029708607 0.027916845
000320 38 1d fd 3c 48 61 a0 3d b9 fe 24 bd c4 9a d7 bd
       0.030897722 0.07831055 -0.040281985 -0.10527566
000330 9c 59 09 3d e6 16 29 bd 0d 2e 0e 3d 0c e3 bf bc
       0.033532724 -0.041281603 0.034711886 -0.023423694
000340 22 8c b4 bc e6 96 85 bb 46 25 88 bc f4 e6 a0 3d
       -0.022039477 -0.0040768264 -0.016619336 0.07856551
000350 f4 3e 8f ba a2 8d b9 bb 99 4a 99 bd 69 38 23 3e
       -0.0010928796 -0.005662636 -0.074849315 0.15939488
000360 c3 89 2d 3e 3d 18 d5 3c 3a 96 03 bd bc ff 6c 3b
       0.16947083 0.026012534 -0.03212569 0.0036163172
000370 5a 8b a0 bc 6b 21 2b 3d b4 bd 22 be 51 a5 26 3d
       -0.019597698 0.041779917 -0.15892678 0.040685
000380 f6 d0 f6 3d 1e 11 d3 3d 36 40 c6 3d 32 c4 44 3d
       0.12051575 0.10305999 0.09680216 0.04803867
000390 b9 4f 6a 3d 73 58 c1 3d ff 8a 59 3d 87 65 c7 3c
       0.057204936 0.094406985 0.053111073 0.024340404
0003a0 cd 93 f6 3d 18 84 8c bd 7b 1a 1d 3d a5 c7 8e 3c
       0.120399095 -0.068611324 0.038355332 0.017429182
0003b0 84 96 3e bd 18 77 b4 bc 38 54 96 3e 0a c5 97 3d
       -0.04653026 -0.022029445 0.2936113 0.07410629
0003c0 c8 29 a9 bd 8d 89 42 bd 92 f5 80 3d ea 21 47 3d
       -0.08259922 -0.04749446 0.06296839 0.048616327
0003d0 d4 3d 21 bd 4c 26 14 bd 4e be dd 3d 0c 7e d3 3d
       -0.039365605 -0.036169335 0.10827313 0.10326776
0003e0 85 d7 85 3d 9a 7e a4 3d 52 a2 0e 3d 02 7d 1c 3d
       0.06535248 0.0803196 0.03482277 0.038205154
0003f0 78 b8 ef 3d ee 91 01 3a 8c 2d 8e 3d 8c ac cb bc
       0.117051065 0.00049427047 0.06942281 -0.02486255

fc2.bias f4 [300]
000000 f5 eb 63 3d 6f e6 27 3c e7 ff 60 bc e6 53 a0 3d
       0.055644948 0.010247811 -0.013732887 0.07828502
000010 d5 d8 2c bd 68 f7 ea 3c fe 00 5c bd 3c 78 84 3d
       -0.042198975 0.028682426 -0.053711884 0.064682454
000020 ff 90 30 3d b7 c9 65 3c 15 97 7b bd 10 e0 47 bd
       0.04310703 0.014025143 -0.06142338 -0.048797667
000030 48 50 05 bb c9 9c 17 ba 93 b2 ca 3c d2 35 95 bc
       -0.002034204 -0.00057835557 0.024743354 -0.01821414
000040 93 85 7f 3d 1a 03 16 3d 1c eb 8f 3d a7 53 36 bd
       0.062383246 0.03662405 0.070272654 -0.04451337
000050 34 20 54 3d ba c5 47 3d 20 c0 c7 bc f1 64 19 3d
       0.051788524 0.04877255 -0.024383605 0.03744978
000060 c0 b5 45 3d 59 0e 4b bd c9 49 dd 3c f8 86 10 bd
       0.048269033 -0.04957423 0.027012723 -0.035284966
000070 3b f2 34 3d cc 25 8d 3d 13 5d 0e bc db 9f d2 3c
       0.04417632 0.06891975 -0.008689183 0.02571099
000080 6c 5d 39 3d 6e aa fc 3c 11 43 f4 bc 54 b4 ce 3c
       0.04525511 0.030842986 -0.029817136 0.025232472
000090 57 a4 8a 3c b0 b0 92 bb 55 e6 ee bc 70 f3 27 bc
       0.016924066 -0.004476629 -0.029162565 -0.010250911
0000a0 fe 3d f7 3c b3 50 22 bc 6b ad 1d bd b2 c3 e1 3c
       0.030180927 -0.0099069355 -0.038495462 0.027559135
0000b0 b8 60 6b 3d b7 41 c4 3c d1 1b 19 bd 7e 24 35 bd
       0.057465285 0.023957117 -0.037380043 -0.044224255
0000c0 2c 3e 18 3d c0 8d 6a bd ff 58 2e bd 2b f6 7e 3b
       0.037168667 -0.05726409 -0.042565342 0.0038904052
0000d0 7c 52 a6 bc bd bd 17 bd dc 81 a3 3c ce bf 8b bd
       -0.020303003 -0.037046183 0.019959383 -0.06823693
0000e0 15 1e c4 bc 38 0a 05 bd 27 66 97 bc a9 4b c1 bd
       -0.023940125 -0.03248045 -0.018481327 -0.09438259
0000f0 11 d1 8f 3b fe 9a 38 3c d6 42 ed ba 9e d5 88 bb
       0.0043889363 0.011267422 -0.0018101584 -0.004175856
000100 53 79 56 3d 3e c1 14 3d a4 88 71 3d 48 59 52 3d
       0.052361798 0.036317103 0.0589682 0.051354676
000110 41 c6 0c 3c ec b8 39 bc a3 df 83 3d 35 c6 06 bd
       0.008592189 -0.011335593 0.0643914 -0.03290387
000120 58 62 ca 39 05 f4 de ba b7 df 9b 3d 0e 9a 23 bd
       0.00038601714 -0.0017009979 0.076110296 -0.03994184
000130 fe 0c 29 bc dc f5 a4 3c 2d 2d 81 bb 15 d7 be bd
       -0.010318039 0.020136766 -0.003942153 -0.093183674
000140 d6 fc f3 bc bc 6f de bc 76 13 a3 bb c0 78 af 3b
       -0.029783648 -0.027152888 -0.004976685 0.0053549707
000150 89 d2 0f bc 95 78 bc 3a a1 97 c0 3c 6c ba bc 3b
       -0.008778223 0.0014379198 0.023509802 0.005759528
000160 85 12 49 bc 87 3a 73 3d 85 37 aa bb 4a 71 a3 3b
       -0.012272482 0.059381988 -0.0051946067 0.0049878703
000170 bb d7 06 3d 1c 28 2a 3c 82 f0 86 3c 91 9a f9 3c
       0.03292058 0.010385539 0.016472105 0.03046921
000180 42 75 93 bc 84 5e 45 3d 88 12 bf bc 2b 2e b0 3c
       -0.018000249 0.04818584 -0.023324266 0.02150639
000190 ad 3e 4a 3d ef 9e 1e 3d 3c 66 41 3b bb c3 1f bd
       0.04937618 0.03872579 0.00295104 -0.039005022
0001a0 c4 f8 8f 3d 10 16 da bc 87 07 00 3d 9c 6b cf 3b
       0.0702987 -0.026621848 0.03125718 0.0063299667
0001b0 24 14 02 3d 75 a9 8a 3c ff 14 a5 3c 76 14 64 3d
       0.03175749 0.016926507 0.020151613 0.055683576
0001c0 b5 5d ad 3d 42 c2 3b bb 1f c7 ba bd 66 f4 e4 3c
       0.08465139 -0.0028649722 -0.091200106 0.02794857
0001d0 fb 85 aa 3b 8a 3c 49 3d 7a 77 77 3c 4a 75 b3 3d
       0.00520396 0.04913 0.015104169 0.087626055
0001e0 18 42 4d 3c 88 b1 ce bb 6e 08 11 3d 9d 97 7c 3d
       0.012527965 -0.0063077845 0.03540843 0.061668027
0001f0 8f f7 46 3d 29 20 6d 3c cc a7 0e 3d cf 6b 96 3d
       0.048575934 0.014473 0.034827992 0.073447816
000200 95 a8 08 3c e7 34 ac 3c 02 8e 1d 3d 54 03 22 bd
       0.008340974 0.02102132 0.038465507 -0.039553955
000210 4a e2 f2 3b c0 78 58 bd 72 e1 31 3d 31 cb 57 ba
       0.0074122297 -0.05284953 0.043427892 -0.0008231877
000220 8d 6f 00 3c bf 98 3c 3d 8c 8e 38 3d 0a 02 1c 3d
       0.007839096 0.046044108 0.04505782 0.038087882
000230 cb eb e2 bc bc 7c 5a bd 22 6b e0 bc 9a c7 00 bd
       -0.027700325 -0.053341612 -0.027394835 -0.031440355
000240 af 30 44 bd a7 cd d4 3c b7 2f 9b bc 06 b1 d9 bb
       -0.04789799 0.025976969 -0.01894365 -0.0066434173
000250 0b 86 5c 3c 91 c7 47 bc 3a 43 60 bd 23 ef 01 3d
       0.013459693 -0.012193576 -0.054751612 0.0317222
000260 37 9c b4 3c 30 39 f0 3a 87 36 37 bc 5b c8 f6 bc
       0.022047145 0.001832759 -0.011182434 -0.030124834
000270 a3 7e 27 bd b8 f6 5f 3d 4c 2c ab bd 50 02 46 3d
       -0.040892255 0.05467865 -0.08358058 0.04834205
000280 82 99 f7 bb 06 f6 87 3d 2a f8 66 bd 6d 95 80 bc
       -0.0075561414 0.06638722 -0.05638901 -0.015696252
000290 74 85 0a bd 1d 0a 1b bd e9 52 1e 3d 4e d1 4b 3d
       -0.033818677 -0.03785144 0.038653288 0.049760155
0002a0 c1 a2 0e bb 15 7a f5 ba 40 75 ff 3c 80 83 2c bd
       -0.002176449 -0.00187284 0.031183839 -0.042117596
0002b0 b5 23 72 bd 15 fb eb bb 5d 10 87 3d 23 07 10 bb
       -0.059116084 -0.007201562 0.06594918 -0.002197691
0002c0 ca 51 36 bc 66 3c 77 3c 95 a3 fc 3b 07 4b ea 3c
       -0.0111278985 0.015090084 0.00770993 0.028600229
0002d0 aa 3b 20 3d 3c f5 81 bc 32 cf 79 3d b7 bc 77 bb
       0.0391194 -0.015864007 0.060988612 -0.0037801692
0002e0 64 6f 32 3d de d1 6a bc 75 dd 20 3d 96 e7 a2 3b
       0.04356326 -0.014332263 0.039273698 0.004971455
0002f0 a5 d0 1c bd 9c b4 04 3d 3e ed 02 3c 11 c9 4f 3d
       -0.038284916 0.032398805 0.007991133 0.05072886
000300 5b 4c ab 3b 27 09 12 3d a4 43 90 3b 39 9f 2a 3d
       0.005227608 0.03565326 0.0044025946 0.041655753
000310 68 d6 53 bb 8f 1f 0e 3c f7 46 83 bc 23 5d 9f 3d
       -0.003232384 0.008674516 -0.01602505 0.07781436
000320 12 d6 12 3d 74 fe 0c bd cc 4b a4 bd 93 30 2b 3c
       0.035848685 -0.034422353 -0.080222696 0.010448593
000330 ca e4 95 3c 66 90 43 3d a1 98 47 3d 38 b0 b5 bc
       0.018297572 0.04774513 0.048729543 -0.022178754
000340 ee be d6 bc fd 82 53 3c 1c 30 5c 3b 1b aa 80 3d
       -0.02621409 0.012909648 0.0033598011 0.06282445
000350 14 fa 09 bd 85 63 6a 3d b3 9c 16 bd 79 e5 07 3d
       -0.03368576 0.057223815 -0.036770534 0.033177827
000360 7f 05 fe bc 64 23 28 bc ce fe 17 3c 0d 39 23 3c
       -0.03100848 -0.010262344 0.009277059 0.009962332
000370 58 52 09 bd ea b3 c6 3c b9 e4 32 3c 80 f6 1b bd
       -0.033525795 0.024255712 0.01091879 -0.038076878
000380 1e 20 6d 3d bc eb c1 3c 1f 76 37 3c 5b 97 10 3d
       0.057891957 0.023671977 0.011197596 0.035300594
000390 c7 08 a7 bc 04 bf 02 3d 26 29 26 3d 60 c1 39 3d
       -0.020389928 0.031920448 0.040566586 0.045350432
0003a0 45 ed 6c bc ff 4c 80 3d 51 f6 3c 3d 6a 51 9e bb
       -0.014460866 0.06264686 0.046133343 -0.0048314827
0003b0 26 a5 ed bc 87 35 a2 bb 5e 35 e4 3b 3c 0f 88 bc
       -0.029009413 -0.0049502286 0.0069643697 -0.016608827
0003c0 64 26 ba 3b cd 32 7d 3d 40 57 a7 bc 98 c0 98 bd
       0.005680846 0.061816026 -0.020427346 -0.07458609
0003d0 83 05 3a 3d 15 de 0e bb 22 cc 26 3d d1 2c 3d bd
       0.045415413 -0.0021799852 0.04072202 -0.04618532
0003e0 4b 20 cc 3c 92 1c 14 bd 0f 06 b0 bb d9 3e 09 3d
       0.024917742 -0.03616006 -0.005371816 0.0335072
0003f0 09 b9 33 3a 60 3f 12 3d 4a 17 6d 3c f4 89 1e bd
       0.00068558805 0.03570497 0.014470885 -0.03870578

fc3.weight f4 [4, 300]
000000 e0 29 b8 bd 02 8c 8d 3e 5c 94 13 3e 63 6b ce 3c
       -0.08992362 0.2764588 0.14412063 0.02519769
000010 dd 19 82 3e 2c 79 c5 3d 93 df 7f 3e 3a b8 f6 bd
       0.25410357 0.09642252 0.2498763 -0.12046857
000020 ba f1 4a 3e ef f5 17 3e 8b 06 b8 bd dc cb c6 3d
       0.19818774 0.1483991 -0.08985623 0.09706852
000030 9d 61 c5 bb f4 7a aa 3e 17 b7 3e be 42 0b cf 3d
       -0.0060235993 0.3329693 -0.1862453 0.10109569
000040 1d 90 c1 bc 0d aa 42 3d b6 da 6b bd 67 6b 1c bd
       -0.023628289 0.047525454 -0.057581626 -0.038188364
000050 fa f3 a5 bd 5f 01 8c 3e f2 11 80 bd 23 c0 40 3e
       -0.081031755 0.27344796 -0.06253423 0.18823294
000060 6b 59 a3 bd 5c 08 42 3d 43 b3 1e 3e 80 78 95 3e
       -0.079760395 0.047371253 0.1549807 0.29193497
000070 52 74 28 bd 7e d7 d3 3c 86 97 bd bc 33 2b 37 3e
       -0.041126557 0.02585959 -0.023143541 0.17887573
000080 b5 b7 9b bc 86 9d d9 bd 8f 52 a1 3d 6c 42 76 bd
       -0.019008497 -0.10625748 0.07877075 -0.06012194
000090 c5 4d f7 bd c4 ef 9a be db d2 be 3d de 4e 1b be
       -0.1207538 -0.30261052 0.09317561 -0.15166804
0000a0 64 93 e0 3e e8 10 15 3e 37 c4 88 3d 4f 64 f2 bc
       0.4386245 0.1455723 0.0667805 -0.029588846
0000b0 30 ec 26 3d de 82 a7 3e 79 4d e2 3d 42 b5 4d be
       0.04075259 0.3271703 0.11049933 -0.20088676
0000c0 a6 a5 77 bd 24 a4 bf 3d 42 4a 02 bd 7d 2d 44 bd
       -0.06046071 0.09357479 -0.0318091 -0.047894944
0000d0 34 e8 91 3d 66 6f 6f bd ec 7d 44 3e d9 09 24 be
       0.07124367 -0.058455847 0.1918866 -0.16019382
0000e0 53 15 9e bc 53 3c 1f bd 95 e7 11 3e 6a ae 40 3d
       -0.019297278 -0.03887589 0.14248498 0.047041334
0000f0 be fd c0 3d ec 33 79 bd 94 e1 54 bd 5d 29 8c 3e
       0.094233975 -0.060840532 -0.05197294 0.27375308
000100 34 44 3a be b5 ca a7 bd bc e5 5d bd 26 87 7d 3d
       -0.1819008 -0.0819296 -0.05417417 0.061896466
000110 22 f9 2d 3d f7 b2 4f 3e 19 44 02 be ab e4 98 3e
       0.04247392 0.20283113 -0.1272129 0.2986196
000120 90 d4 f5 bd 95 27 ff bd 5b 7d 9b 3a 2e 3d 40 3e
       -0.12003434 -0.124587215 0.001186292 0.18773338
000130 27 b0 a5 bd 14 3a fe bc 68 08 5c 3e 58 da 95 3e
       -0.08090239 -0.031033553 0.21487582 0.29268146
000140 8f 48 3c bd 7b 42 54 bc 01 67 27 be d4 a6 49 bd
       -0.045967635 -0.012955303 -0.16347887 -0.049231365
000150 27 22 28 3d 9e 9a 83 3d 6c f6 93 3d 78 62 a4 3e
       0.041048195 0.06425975 0.072247356 0.32106376
000160 af 93 d2 bd 18 14 1b 3d 61 a6 01 3f 98 e8 d2 bd
       -0.10282075 0.03786096 0.506445 -0.1029827
000170 2e 1a 26 be fe 6a 0a bd b2 20 ba bd b5 5b dc bd
       -0.16220924 -0.033793442 -0.090882674 -0.10759679
000180 96 33 3e bd cc 94 04 be 3f 3b 8b bd 23 96 b0 bd
       -0.046435915 -0.12947387 -0.0679841 -0.08622386
000190 db 9f b8 bc 7d d4 67 bb d9 98 ae 3b 96 5d 86 3e
       -0.022537163 -0.0035374456 0.0053282795 0.26243275
0001a0 43 15 12 be a1 7e 0e be 41 19 c4 bd 42 94 22 bd
       -0.14265923 -0.13915493 -0.09575129 -0.03969217
0001b0 1e 41 38 3e 24 73 d9 3d 41 b4 7e bb 2a e9 0d 3d
       0.1799359 0.106176645 -0.0038864764 0.03464619
0001c0 c3 bd 05 be 69 09 e5 3c a8 73 23 bb 53 b3 a3 3d
       -0.1306067 0.027958589 -0.0024940763 0.07993188
0001d0 b6 a2 26 3d d7 9d cc bd da 31 08 3d f2 b0 9d 3d
       0.040682517 -0.09991043 0.033250667 0.07699765
0001e0 30 6c b7 be 02 44 fa bd 3a a7 d1 bd 44 4c 77 bd
       -0.35824728 -0.12220003 -0.10236974 -0.060375467
0001f0 37 e0 ae 3b f6 c7 e1 3e 58 a4 57 3d ff 52 f4 bd
       0.005336787 0.4409787 0.052646965 -0.11929893
000200 17 6c 1d bd 28 b1 85 3e 33 c0 39 be 64 bf 96 be
       -0.03843316 0.26111722 -0.18139724 -0.29442894
000210 33 fd b6 bd 82 1a a9 be 75 bf 2c bd 71 fc 20 bd
       -0.08935013 -0.33028036 -0.042174775 -0.039303247
000220 d6 5d ec 3d b9 88 3e be 8c 1d 8d 3c 7c 86 2b be
       0.11541335 -0.18606843 0.017226003 -0.1675052
000230 23 1c 2b 3d 67 ba e1 3d d9 68 c1 bd 8a 0d 04 3e
       0.04177488 0.110218816 -0.09443826 0.1289579
000240 e1 33 b5 3e 9b 04 9c bd 01 f3 71 3e b7 56 d3 bd
       0.35391143 -0.07618066 0.23627855 -0.10319274
000250 2e 10 2d be e4 2e 52 3d c3 c8 50 bd ce e1 10 bd
       -0.16900703 0.05131425 -0.05097271 -0.035371594
000260 30 58 be 3e 12 34 01 3f 11 49 94 ba 86 3f 28 3d
       0.37176657 0.5047008 -0.0011313279 0.041076206
000270 69 a5 68 3c 44 9a 20 be b7 c4 dc 3c 63 3b 54 be
       0.014199593 -0.15683848 0.02694927 -0.20725779
000280 ae 7e 8e be 09 ce 8a be 95 3d 57 3d d5 27 52 3e
       -0.27831024 -0.27110317 0.052548964 0.20523007
000290 18 7d 96 3d e7 7b 45 3b ac 2a a9 bd 85 5a 2c be
       0.073480785 0.0030133666 -0.08260092 -0.16831405
0002a0 05 f0 a8 bd e3 b3 2e be 54 a1 0e 3d bd 3b 2e be
       -0.08248905 -0.17060809 0.034821823 -0.17014976
0002b0 1d b1 54 3d 8d 27 a2 3c 14 db d3 bd 0d 2f 7d be
       0.05192672 0.01979425 -0.1034452 -0.2472498
0002c0 00 70 b5 3d 7d a6 84 3e fd 40 27 bd 9e a3 72 bd
       0.08859253 0.2590827 -0.040833462 -0.05923807
0002d0 fa 3b df 3d fe e7 2d 3e cb 43 68 bd c2 06 20 bc
       0.109001115 0.16983029 -0.056705277 -0.009767236
0002e0 52 02 08 3e e0 79 a9 3e 56 f7 10 3e 00 0d df be
       0.13282135 0.33100796 0.14156851 -0.43564606
0002f0 bb d6 17 3e 0e a6 bb 3e 5b 8f 32 3e 00 92 ac 3a
       0.14828007 0.36650127 0.17437498 0.001316607
000300 63 30 93 bd 0d df f6 bd bf 2a 3f 3d 5e 8e 60 bd
       -0.071869634 -0.12054262 0.046671625 -0.054823272
000310 e6 b8 16 3d c8 bc e6 bd 8a 21 63 be 8b e9 28 be
       0.036797427 -0.11266476 -0.22180763 -0.1649534
000320 0b 4e 7d 3e 2d 13 0b be 83 db ff 3c 9f 0f 33 3d
       0.24736802 -0.13581534 0.031232601 0.04371607
000330 34 64 0e 3e aa 4d c6 3d b0 93 1a 3e 81 67 ef 3d
       0.13905412 0.09682782 0.15095401 0.11689664
000340 51 d3 0e 3f 81 57 67 bb 0e e4 a9 bc ec dd 11 3d
       0.55791193 -0.003529996 -0.020738628 0.03561203
000350 57 07 f8 3b a6 57 fb bd dc fc a8 3c 72 e1 2c 3e
       0.0075692344 -0.12272577 0.020628385 0.16882876
000360 b8 4d ec bd ed e5 f4 bd b8 57 71 3e f1 13 f1 3d
       -0.11538261 -0.11957917 0.23568618 0.11771382
000370 a7 02 17 be 36 fb f3 bd 87 eb 25 bd 4b 0d 99 bd
       -0.14747106 -0.11913149 -0.04050782 -0.074732386
000380 7c 53 1c 3e a6 a0 51 bd a8 ad 2c 3e 86 64 db 3e
       0.15266222 -0.051178597 0.1686312 0.4285013
000390 71 f3 9b bd e2 08 23 bd b7 4d 50 be e7 ca 36 be
       -0.07614792 -0.039803393 -0.20342146 -0.17850839
0003a0 67 98 34 be 8e 2a 2f bd d4 5d a6 3d 7a 48 0f be
       -0.17636262 -0.042765193 0.08123365 -0.13992491
0003b0 c8 91 1a bd f3 1f 76 3e 13 3a 3f 3e b2 d9 d6 bc
       -0.037736684 0.24035625 0.18674497 -0.026226852
0003c0 e8 5a c7 3c 73 32 60 bd c6 9d a9 3e 5f 4a e2 3d
       0.02433534 -0.054735612 0.33128184 0.110493414
0003d0 bd a6 8b bc a7 2c f7 bd a1 1d 6f bd 3a f4 60 3e
       -0.01704728 -0.12069064 -0.058377866 0.21968165
0003e0 b5 fd f0 3c 1b 06 76 3e 83 fb fc 3d f2 71 eb bd
       0.029417852 0.24025767 0.123526596 -0.11496343
0003f0 a2 64 34 be f3 32 88 bd cc 6d 0d be 61 c7 9c 3d
       -0.17616513 -0.06650343 -0.13811415 0.07655216

fc3.bias f4 [4]
000000 f7 83 85 bd 9e 50 74 3c 19 65 52 3d c7 f7 49 3d
       -0.06519311 0.014911799 0.051365945 0.049308565
