checkpoints/ddpg/112_checkpoint_critic_agents_20_solved.pth (torch_old, 435500 bytes, 7 tensors)

fcs1.weight f4 [256, 33]
000000 7b 6f fa bc 52 5d 9f 3d 7e 2e 8b bc c0 64 96 bd
       -0.030570736 0.07781471 -0.016989943 -0.07343435
000010 ce a4 c7 bd d9 4b 3b bb 8b 4f 3b 3d bb ee 17 3c
       -0.09748231 -0.0028579144 0.045730155 0.009273226
000020 15 48 83 bc d3 fc 91 3d 7e 60 65 ba 54 55 a0 3c
       -0.016025582 0.071283005 -0.0008750035 0.019571938
000030 09 02 a6 bc 26 39 e4 bd 12 ef ed 3d a8 da 2a 3c
       -0.020264642 -0.11143713 0.11617865 0.010428108
000040 82 ea 06 3c 0f d0 ee 3c ec f9 2a bd b7 ec 87 bc
       0.008234622 0.029151944 -0.04174225 -0.016592367
000050 28 e0 14 bd cc dd b7 3c 35 aa c6 3b 3d df 2e 3b
       -0.036346585 0.022444628 0.0060627707 0.0026683353
000060 60 38 45 3d 38 51 6b bc 1f 1a ac 3d 8c 2b b2 3c
       0.048149467 -0.014362626 0.0840342 0.02174928
000070 69 e0 26 bd 4e bf 33 3d 2b e5 e2 bb cc 83 71 bd
       -0.040741358 0.043883614 -0.0069242916 -0.058963582
000080 83 c3 21 3e d7 ce e2 3d 0e dc c5 3a d3 5a 67 bc
       0.15797238 0.11074608 0.0015095489 -0.014120775
000090 29 d3 e9 ba a7 bf b0 bc 3b 17 93 bc 9c 0c 08 bd
       -0.001783942 -0.021575762 -0.017955413 -0.03321515
0000a0 8c 17 ea bc d1 90 c0 bd ac 79 11 bd 59 ac 1c 3c
       -0.028575681 -0.094026215 -0.035516426 0.009562575
0000b0 eb 79 7d 3d f5 81 de bb 0b f3 10 3d 7b 75 d0 bc
       0.06188385 -0.0067903944 0.035388034 -0.025446644
0000c0 7a a0 ff 3b a0 46 91 bc af dd 3f bb 87 9f 87 bb
       0.0078011127 -0.017733872 -0.002927642 -0.00413889
0000d0 28 60 70 ba 54 49 70 3d 00 0d 9e 3d 18 fd 5b 3d
       -0.0009169602 0.05866368 0.07717323 0.053708166
0000e0 34 a1 f2 bb b3 f9 14 bd 75 e5 a7 3c 69 7c 99 bd
       -0.007404471 -0.036370944 0.020495156 -0.074944325
0000f0 72 f3 61 bb 93 c4 fa 3c b2 d6 35 3d 31 4c c7 bc
       -0.003447738 0.030611312 0.044394203 -0.024328323
000100 f4 46 19 bd bd 70 0f 3b 5f 95 05 3d 0e ff 51 3c
       -0.03742118 0.0021887266 0.032613155 0.012817157
000110 23 3d 92 bd 77 fa c2 bc c6 ee b9 bc 84 37 0b ba
       -0.07140567 -0.023801072 -0.022696864 -0.00053107017
000120 61 ed 96 3c 79 b0 93 3c 60 84 74 3c f9 a7 6b 3d
       0.018423738 0.018028485 0.014924139 0.057533238
000130 75 06 1f 3d c3 8b 92 bb 2a a6 d7 3c 43 01 64 3d
       0.038824517 -0.0044722273 0.02632435 0.055665266
000140 87 4a 2d bc 3b f9 b5 3c 4a 73 83 bc cd 42 80 3d
       -0.010576851 0.022213569 -0.016046185 0.06262741
000150 9c 11 bf 3d 3a 43 4f 3b bf f9 0d bc fa 5e df 3b
       0.093295306 0.0031625764 -0.008665501 0.006816742
000160 7f 50 ef bb d3 4d 58 3d e3 2f 25 3c 7b 49 78 3c
       -0.007303297 0.052808594 0.010082218 0.015154238
000170 ef 4e 8f 3d c3 b8 12 bd 90 ad d1 bc d6 05 09 3d
       0.06997477 -0.035820734 -0.025595456 0.03345283
000180 21 54 d5 bc 36 10 7b 3d a5 49 01 3f 17 65 1d bd
       -0.026041092 0.061294757 0.50503 -0.038426485
000190 f7 de be 3d 98 0b 3d bd e5 76 dc bc ef 04 d9 3b
       0.09319871 -0.046153635 -0.026912162 0.0066229026
0001a0 8e 32 3d 3c 5e f0 9e 3c 9c 24 7a 3c 7a c0 f3 bd
       0.011547698 0.019401725 0.015267517 -0.11901946
0001b0 7f ac 5a 3d 49 72 e0 3c 1c 67 b0 3c db 42 a8 bb
       0.05338716 0.027398245 0.021533541 -0.005134923
0001c0 b5 3e 60 bd c2 e2 c3 bb 74 40 61 bd 56 cf 1c 3b
       -0.054747302 -0.0059779594 -0.054993108 0.0023927293
0001d0 22 01 93 3c fa d6 c3 3b 1a 0d 56 3c a0 c1 b2 3c
       0.017944876 0.005976555 0.013064647 0.021820843
0001e0 2a 39 b7 3c 8c 0d 76 3c 70 57 61 3d f2 78 1b 3d
       0.022366125 0.015017878 0.055015028 0.03795714
0001f0 2e c5 31 3c 07 a6 7c 3d 12 1a f8 3c d1 ce 86 3d
       0.010850234 0.061681774 0.030285869 0.06582416
000200 58 08 78 3d b7 1a 8b bc bc 2e f9 3c 90 c4 af 3e
       0.060554832 -0.016980512 0.030417792 0.34329653
000210 ad e0 9d bc 7f b3 04 3d fe c3 0f bd 95 0d b3 bd
       -0.019272173 0.032397743 -0.035099022 -0.08742825
000220 d3 74 59 3b 34 69 dd 3c e0 3b e6 bc 54 51 c0 bd
       0.0033181205 0.027027704 -0.028104722 -0.09390512
000230 df a8 42 bd ac 26 87 bd 01 da 7d 3c 7e bb 0e bb
       -0.04752433 -0.06599173 0.015493871 -0.0021779235
000240 d0 5b 91 3b 4e 03 4b 3b 31 9e 1c bb cf e7 8a 3d
       0.0044359937 0.0030977312 -0.0023898 0.06782495
000250 c3 47 b3 bb 8c 13 ff 3a 75 39 ac bc 21 a4 1e bc
       -0.005471201 0.0019460781 -0.021023491 -0.009682686
000260 a1 49 3e 3c a8 2f 7f bd 62 a6 92 3c 5d 1a 86 bc
       0.011614234 -0.062301308 0.017901603 -0.016369993
000270 0c cf 87 bc 07 40 86 3d cc c2 df 3d 30 9f c5 3b
       -0.01657822 0.06555181 0.109258264 0.0060309395
000280 43 49 57 bd d4 2d 8a bc 65 e1 8e bd 5c bd dd bc
       -0.052560102 -0.016867556 -0.06976584 -0.027067833
000290 4f 25 dc 3e cb 43 f0 bc ee 45 26 bd a9 05 aa 3d
       0.42997214 -0.029329201 -0.040594034 0.08301861
0002a0 9f 38 e5 bc 1b 05 c4 3b 73 42 44 3c 51 40 2f 3b
       -0.0279811 0.005982054 0.011978733 0.0026741216
0002b0 e5 81 1a bd 22 b2 dc ba 18 62 33 3c 6a 74 46 bc
       -0.037721533 -0.0016837756 0.01094868 -0.012112716
0002c0 b7 ca ac ba a0 2f b4 bc 9d da 8d bd 9e 02 4f bc
       -0.0013182972 -0.021995366 -0.06926463 -0.012634901
0002d0 c0 e8 e5 bd d9 b9 9a 3d 8e df 71 3d ab 84 39 3c
       -0.11226034 0.07554979 0.05905109 0.011323134
0002e0 1b 33 95 3c 6e 47 c5 3a c0 45 80 bd 8b 09 f6 bc
       0.018212846 0.0015051195 -0.06263304 -0.030033847
0002f0 c2 a1 98 bc ac ea 0e bc 5e 66 df ba 99 6d 70 bd
       -0.01863182 -0.008722942 -0.0017044058 -0.05869827
000300 50 42 01 3d da 83 b5 bd 3c df b3 bc a4 f9 0c bc
       0.03155738 -0.08863039 -0.021957032 -0.008604441
000310 cc 0d 6a 3d e4 b6 7b bd 79 a1 76 3c 64 37 e1 3c
       0.057142064 -0.061453715 0.0150531465 0.027492233
000320 d9 83 bb 3d 00 11 93 3d c0 c8 a2 3d 8d 6c 60 bc
       0.09156007 0.07180977 0.07948446 -0.0136977555
000330 58 00 96 3d b9 cb 6f 3d 4e 5e 6d 3d 27 71 30 3e
       0.07324284 0.058543894 0.057951264 0.17230664
000340 4f 2e 83 bc e8 7c e0 3d 20 fa 74 3d 24 ae 31 3d
       -0.016013293 0.10961324 0.05980885 0.043378964
000350 47 af 1a 3e ef cc 6e 3d f5 73 eb 3c fb e3 14 bd
       0.15105926 0.05830091 0.028741816 -0.03635023
000360 e7 ec 99 3d 59 00 2e bd 67 07 e4 bb 06 9e 78 3b
       0.07515889 -0.0424808 -0.0069588902 0.0037935986
000370 15 49 64 3d 20 fe 68 b9 61 0c 8f bd 6f f8 bd bc
       0.05573376 -0.00022219913 -0.06984783 -0.023189751
000380 c5 8c e1 bc fd 5f 65 3d b7 64 94 bd 3c 6e 99 3c
       -0.027532944 0.055999745 -0.07245772 0.018729322
000390 de db c8 bc 04 af b0 3c 42 0d b3 3d 86 e0 78 3b
       -0.024518903 0.021567829 0.08742763 0.0037975623
0003a0 b9 11 69 3d b6 21 41 bb 95 8b 31 bd 4d fb a3 3d
       0.056901667 -0.0029469556 -0.043346006 0.08006916
0003b0 74 aa 41 bd 11 a5 93 bc 76 07 d5 bb 63 81 02 3d
       -0.047281697 -0.018023046 -0.0065011336 0.031861674
0003c0 43 77 ab bd 88 61 34 3c ba 30 95 bc 40 97 96 3c
       -0.08372357 0.011009581 -0.018211711 0.018382668
0003d0 0d 16 b4 3d 28 b8 8e bc b0 60 a1 3d a8 61 9c bc
       0.08793268 -0.017421797 0.0787977 -0.019089535
0003e0 d2 be ce bc 1b 3b c9 3c 43 85 84 3c 0f e9 61 bc
       -0.025237475 0.024564316 0.016176825 -0.013788476
0003f0 d3 45 6e 3d 3f d3 84 bd ee 45 5b 3d 82 d4 27 3d
       0.05817206 -0.064856045 0.053533487 0.040974148

fcs1.bias f4 [256]
000000 2b cc 96 3d 43 91 1d 3e 7e a3 2a bd 0a 80 16 3e
       0.07363161 0.15387444 -0.041659825 0.1469728
000010 35 7e 1e bd 22 0f 19 be 6b 26 23 be af 5f c4 bd
       -0.03869458 -0.14947179 -0.15932624 -0.09588563
000020 f0 e8 82 bd 0b 63 dd 3d c6 04 01 be ec dd 2a bd
       -0.063920856 0.108099066 -0.12599477 -0.041715547
000030 d9 33 bc 3d 48 09 74 bc a0 db 50 3d f4 de a2 bd
       0.09189577 -0.014894791 0.0509907 -0.07952681
000040 37 52 88 bd 67 51 a6 bd 96 7e 1c 3e 2a 1d 9f bd
       -0.06656306 -0.08120995 0.15282664 -0.077692345
000050 6f 7a 19 3d 90 c0 e3 3d 08 47 ea 3b a6 8a c6 bc
       0.037470277 0.11120713 0.007149581 -0.024236035
000060 b7 d4 5d bd 98 fb dc bd cd ff 9d 3d 46 0d 01 bd
       -0.05415794 -0.10790175 0.07714806 -0.0315068
000070 64 03 96 3d df 7a ed 3d 2c c3 d7 3b 88 18 bf bd
       0.073248655 0.115957014 0.0065845456 -0.09330851
000080 76 7c 06 be 9c d3 9b bd c1 d2 8c 3d a2 89 cb bb
       -0.13133416 -0.07608721 0.068761356 -0.0062114755
000090 85 6a 4a 3e 69 ce de 3d 9f d4 b8 bd 80 26 a4 3d
       0.19767196 0.10879213 -0.09024929 0.08015156
0000a0 6b 30 fc bd e5 7c 75 bd 3a 6e 07 3e c2 7e 08 be
       -0.123139225 -0.05993356 0.13225642 -0.13329604
0000b0 0f cd ac bd dd 97 30 be 85 9a 92 3d 04 c1 c6 3d
       -0.08437549 -0.17245431 0.071583785 0.097047836
0000c0 9b 01 52 3e a3 00 aa bd a4 29 f9 bd 04 6c 59 3d
       0.20508425 -0.08300903 -0.121661454 0.053081527
0000d0 6b 7e 16 be 7b 5e 87 bd c4 3a ed bd 60 86 83 3d
       -0.14696662 -0.066098176 -0.11583474 0.06422114
0000e0 5e b8 4c bd 47 58 40 bd e4 f0 18 3d 7e eb a9 3c
       -0.049980514 -0.046959188 0.037339106 0.020742174
0000f0 cf 88 ef bd c8 d5 0f 3e d8 af 2d be b5 8a 8e bd
       -0.11696016 0.14046395 -0.1696161 -0.0696005
000100 74 93 04 be d8 f0 e7 bd 08 d3 84 3d 59 19 e4 3d
       -0.12946874 -0.11325234 0.064855635 0.11137647
000110 00 e0 bc 3d 94 a5 2a 3d a7 3d dd 3d fd 1a ed 3d
       0.09222412 0.041661814 0.10802775 0.11577413
000120 f2 15 97 bd 3c 76 58 bd 7a 67 3a bc a9 62 ee 3d
       -0.073772326 -0.052847132 -0.01137721 0.11639912
000130 7f 28 ec 3d 03 1c c8 bb 2c ac 42 3e 0f 69 24 be
       0.115311615 -0.006106855 0.19010991 -0.16055702
000140 06 a0 32 3d 53 52 30 3e 16 d0 58 bc 4a 23 f5 3d
       0.04360964 0.17218904 -0.013233205 0.119696215
000150 c4 9c 22 3e a2 11 09 be c8 d1 d3 3d f7 44 3b 3d
       0.15880114 -0.13385633 0.10342747 0.045720067
000160 95 e6 9c 3c a5 54 ec 3c 74 ac 06 3e 02 f4 ce 3c
       0.019152919 0.028848955 0.13151723 0.025262836
000170 f3 37 de 3d 6c d8 52 be b3 01 3a be af 19 0b 3e
       0.10850515 -0.20590371 -0.1816471 0.13584016
000180 de f5 05 3e 23 6b c3 bd 42 4e 09 3e 14 ae 89 bd
       0.13082072 -0.09541919 0.13408759 -0.06722656
000190 5e f6 79 3d 11 03 1b bd 35 88 9e 3d 27 17 ad bd
       0.06102597 -0.03784472 0.07740823 -0.084516816
0001a0 5a 71 21 be 69 c3 ef 3d 9d ef cd bd 91 55 11 3e
       -0.15765896 0.117071934 -0.10055468 0.14192797
0001b0 55 17 36 bd 50 7d d8 bd e7 02 26 3e 67 68 fe 3d
       -0.044455845 -0.105707765 0.16212045 0.12422257
0001c0 a2 76 02 be 24 7a 87 3d 2b 65 ba 3c c9 36 c5 bd
       -0.12740567 0.06615093 0.022753319 -0.0962959
0001d0 b3 a3 94 bc 3b fe 25 be 9b 64 29 3d 2f 8b 06 be
       -0.018144464 -0.16210262 0.04135571 -0.13139032
0001e0 07 16 2a 3e bc 76 ea 3d de 54 14 3e 0b 4e 45 bc
       0.16609965 0.11448428 0.144855 -0.012042533
0001f0 30 d9 96 bd 61 ed 95 3d c4 65 ea 3d 6f 33 cd 3d
       -0.07365644 0.07320667 0.114451915 0.10019576
000200 e4 c3 bb bd b6 77 43 3d c5 7a 7e bd 80 30 22 be
       -0.091682225 0.047721587 -0.0621288 -0.15838814
000210 79 59 31 3c ed 16 32 3e 39 0c 31 bc 0e 2f 38 bd
       0.010824555 0.17391558 -0.010806137 -0.04496675
000220 63 e5 29 be cf f8 af 3d ae c5 56 be ec 49 90 bd
       -0.1659141 0.08592378 -0.20973846 -0.070453495
000230 8a 19 49 3d 40 65 82 bd 16 fb bf bd 12 2a 89 bd
       0.04909662 -0.06366968 -0.09374063 -0.066974774
000240 fe ec c9 3d 90 2e 82 bd 20 ba 11 bd 41 c2 9b bd
       0.09859656 -0.06356537 -0.035577893 -0.0760541
000250 0d 8d 6c 3d 74 9c 11 3e c9 e0 69 3c 24 db 30 bd
       0.057751704 0.14219838 0.014274784 -0.04317774
000260 d5 93 86 bb 32 10 94 3d 9d e7 25 3e 6a cb f5 3b
       -0.0041069784 0.072296515 0.16201635 0.0075010555
000270 33 65 89 3d 0b fc 6b bd 99 2f 0d 3c 03 2e 39 be
       0.06708755 -0.057613414 0.008617305 -0.18083958
000280 ac c6 12 3d f3 02 18 be 3e c8 60 bd 35 38 37 be
       0.035834 -0.14844875 -0.054878466 -0.17892535
000290 0a e9 b2 3c 8a 49 93 3d db 13 be 3d 64 24 8b 3c
       0.021839637 0.07191761 0.09281131 0.016985126
0002a0 08 c3 17 bd 17 50 e1 3d 21 e1 25 3d 7f b3 2e 3e
       -0.03705123 0.11001604 0.040497903 0.1706066
0002b0 2f dd e7 3d ea f6 b8 3d 09 0e a8 3c 12 08 8a 3d
       0.11321484 0.0903147 0.020514505 0.067398205
0002c0 6a 4b f4 3d c7 b6 87 bd ab d4 a5 3d 81 d1 72 bd
       0.119284466 -0.06626659 0.08097204 -0.05928183
0002d0 73 6a 92 bd a0 5d 26 3d cb 2a 1a be 0d b7 58 bc
       -0.0714921 0.04061663 -0.15055387 -0.013227236
0002e0 65 d5 ca bc 62 8f 6a 3d 93 a5 09 bd 2a 37 2a bd
       -0.024759958 0.057265647 -0.03360517 -0.041556515
0002f0 d8 11 d2 38 5c 2d 2d 3e 01 ab b8 bd 16 69 2d 3d
       0.00010016904 0.16911834 -0.090169914 0.042336546
000300 d1 2d 37 3d 91 1d 01 3e 02 dc c2 3d 95 f4 ad 3b
       0.04472143 0.12608935 0.095146194 0.0053086975
000310 22 31 aa bd 30 0e f3 bd 6b 23 ec bc dc 87 fe bd
       -0.083101526 -0.118679404 -0.028825482 -0.12428257
000320 1a 00 24 bd 4a e1 be 3d aa c8 1e 3d e1 41 f2 bd
       -0.04003916 0.09320314 0.038765587 -0.11828972
000330 c4 59 47 3d 77 41 bd 3c 86 0b 76 bb 00 e7 e3 3d
       0.04866959 0.023102505 -0.003754349 0.11128044
000340 aa 70 ce bd 55 3b 0a bd 26 90 d6 3d da 58 9e 3d
       -0.10080083 -0.03374799 0.10476713 0.07731791
000350 e9 5a dd 3d f9 a1 24 bd 2d 97 44 3d bf a9 06 3e
       0.10808355 -0.04019353 0.047995735 0.1315069
000360 0e 35 7a 3c 90 72 c4 3d 4c 12 c2 3d 05 f2 b5 3d
       0.015271438 0.095921636 0.09476146 0.08884052
000370 a3 36 e7 3c 59 6b 52 be 1d fc 4b be 08 48 20 be
       0.028224295 -0.20548762 -0.19920392 -0.15652478
000380 e0 a5 2f 3e 4d a6 ab bd 9e 30 21 be 5f 18 f4 bc
       0.1715312 -0.08381329 -0.15741202 -0.029796777
000390 95 e0 66 bd e2 0a 63 3d 70 14 8b bc 1d b1 bc 3d
       -0.056366522 0.0554303 -0.016977519 0.09213469
0003a0 08 e7 4a be 18 ac 62 be 75 fc 03 3e 43 69 dc bd
       -0.19814694 -0.22135961 0.12889273 -0.107622646
0003b0 3a 25 75 bc 50 15 79 3d d6 a1 9e 3d 64 28 0c be
       -0.014962489 0.06081134 0.077457115 -0.13687283
0003c0 a5 a7 e3 bc a5 44 a5 bd 53 fe 12 3e 7b e8 c6 bc
       -0.0277899 -0.080697335 0.1435483 -0.024280777
0003d0 9d 83 a7 3d 96 7e 07 3e df 02 3a 3d 3c 78 74 3c
       0.081794 0.13231882 0.045412894 0.014921244
0003e0 97 3a fe 3d 0c a3 21 be e1 47 d1 3d d5 0e 87 bd
       0.12413519 -0.15784854 0.10218788 -0.06594626
0003f0 23 4e f6 3d 11 31 86 bc 1a b7 db 3d a4 33 d0 3d
       0.12026622 -0.016380819 0.10728283 0.101661

fc2.weight f4 [256, 260]
000000 41 6d 01 3d 02 97 70 3b b1 14 3e 3d 52 86 73 bb
       0.031598333 0.0036711101 0.04640645 -0.0037158919
000010 cc a3 90 3b 28 09 34 3d e0 9c ca 3b 41 f1 20 bb
       0.0044140574 0.043954045 0.0061832517 -0.002455786
000020 db 45 6e 3d 6c 38 17 bc 4c 42 22 3c 2d bb da 3c
       0.058172088 -0.009229761 0.009903502 0.02670058
000030 b5 a6 d3 3c 75 8e ec bd 37 00 d0 bd fc f8 e6 3c
       0.025836328 -0.11550609 -0.10156291 0.028194897
000040 ce 3a d6 bd e4 7b ae 3d 67 ae 79 b9 1c d0 d4 bd
       -0.10460435 0.08519724 -0.0002381146 -0.10391256
000050 0f ae 99 bd 57 c3 db bd 3a 29 8a 3d fd 40 e5 bc
       -0.07503902 -0.107306175 0.067461446 -0.02798509
000060 2a fe 04 3e f7 cf c6 bd 71 2a 55 3d 98 b1 7a 3d
       0.12987581 -0.09707635 0.05204243 0.061204523
000070 55 52 cf 3d f4 62 6f bd b9 4e 6c bc 18 3d 80 bd
       0.101231255 -0.05844398 -0.014423066 -0.06261653
000080 27 05 be bd 8f e0 22 bc c8 e6 98 bd 70 cc 72 bd
       -0.092783265 -0.009941234 -0.07465893 -0.059276998
000090 a4 69 d5 bd 28 38 4c 3d ff 66 98 3d de 6d bb 3d
       -0.1042054 0.049858242 0.0744152 0.09151815
0000a0 5d a3 16 bd 95 cd 61 3d 97 5f ef 3c 1c 9e 18 3c
       -0.03677689 0.0551277 0.029220385 0.00931504
0000b0 c1 6b e8 bc ec 0f fe 3c 3a ef 1a 3d 6e be 84 3d
       -0.028371694 0.031013452 0.0378258 0.06481634
0000c0 01 63 97 3d 47 81 9d bc e1 14 dc bd 83 db 50 bd
       0.0739193 -0.019226683 -0.1074617 -0.050990593
0000d0 e7 ac a3 bd 1d 5d 81 bc eb 15 ff 3c 31 25 ee bb
       -0.07991963 -0.01579147 0.031138381 -0.007267617
0000e0 c9 a0 40 bb 86 aa 2f bc eb db e5 bc 97 04 21 bc
       -0.002939271 -0.010721808 -0.028058967 -0.009827754
0000f0 61 f3 86 bd 9c 72 a2 3d fa de 6b bd b4 cf 2f bb
       -0.065893896 0.07932016 -0.057585694 -0.0026826682
000100 69 fd ae 3d fe 4d 99 bc a6 27 1f bd fa 04 35 3c
       0.08544428 -0.018713947 -0.03885617 0.01104855
000110 d8 12 02 bd 25 59 72 3d b2 d4 78 3d 4f 06 28 3d
       -0.031756252 0.059167046 0.060749717 0.04102164
000120 70 d5 a8 3c 43 c8 30 bd 6a 94 23 3e b0 aa ac bc
       0.020609587 -0.043159734 0.15974584 -0.021077484
000130 1f 5b bf 3c 8f a3 f2 bc 5e 55 ac bd 7f 5a 3a be
       0.02335888 -0.029619006 -0.0841472 -0.18198584
000140 01 51 e6 3c 56 58 0d be f6 54 c1 3d 43 dc ac bd
       0.028114798 -0.13803229 0.09440033 -0.08440449
000150 af 27 95 bd 4b 9d 50 bd aa c7 0c bd 28 6e f1 3c
       -0.0728296 -0.050931256 -0.034370102 0.029471472
000160 e8 d2 90 3d 81 d9 02 bd c2 82 a9 bc ce c2 7b bc
       0.07071477 -0.03194571 -0.020692233 -0.015366269
000170 d4 01 10 3d 38 b7 6c bc ee 7f 2e 3d aa 48 3a 3d
       0.035157993 -0.01444798 0.042602472 0.045479454
000180 0e 9c 38 3d 10 7b 91 3c b2 73 42 3d b4 fe 20 bd
       0.0450707 0.017758876 0.047473617 -0.039305404
000190 df 84 ea bc ae 1f 58 bd 60 06 27 3d 8a 82 a4 3d
       -0.028627811 -0.052764587 0.040777564 0.08032711
0001a0 d6 58 94 bd 64 c8 14 3d a4 92 22 bb 0f 70 a7 3d
       -0.072435066 0.03632392 -0.0024806643 0.0817567
0001b0 aa c9 27 3c f6 b7 9d bd ad c5 71 3c 39 db 72 bd
       0.010240952 -0.077011034 0.014756602 -0.0592911
0001c0 10 90 8b bd 2b 4b 18 3d 56 26 a4 3c 51 4d 8d bc
       -0.06814587 0.03718106 0.020037811 -0.017248781
0001d0 e0 c5 8e bd 2b 89 28 3d 14 c5 b4 bd 17 de 75 bd
       -0.069713354 0.04114644 -0.08826652 -0.060026255
0001e0 c2 39 07 3e b8 89 30 3d c8 6f 8e bd 55 bb 95 3d
       0.13205627 0.04310009 -0.06954914 0.073111214
0001f0 15 87 53 3d f4 dd 60 bd ab ad c7 3d a5 d0 c8 bc
       0.051642496 -0.05489917 0.097499214 -0.024513552
000200 54 03 fe bb 88 b3 33 3d d3 39 b2 3b 7c 86 00 bd
       -0.0077518616 0.043872386 0.005439022 -0.031378254
000210 7c be 39 bd de c5 97 bd 83 d4 e8 3c b4 f9 7a bd
       -0.045347676 -0.07410787 0.028421646 -0.06127329
000220 22 09 27 bd 61 36 99 3c 43 b3 90 3c 8b 6a cf 3c
       -0.040780194 0.018702688 0.017663604 0.025319358
000230 44 d9 f9 bc a0 04 86 bd b9 7b 30 bd ae 92 22 3d
       -0.030499108 -0.06543851 -0.04308674 0.039690666
000240 8d cf ca bc 6f bd c1 bd 92 3e 53 3d 3c da 29 3d
       -0.024757171 -0.0945996 0.051573344 0.04146789
000250 18 93 e2 bb eb e2 9e bb 17 78 6c bd 51 32 5d bd
       -0.0069145076 -0.004848828 -0.057731714 -0.054003064
000260 4c 32 65 bc 59 6e 94 bd 9d 76 a9 3a 47 dc 3d 3b
       -0.0139890425 -0.0724761 0.0012929026 0.0028970407
000270 cf a5 33 bc 23 05 4e bd 86 87 dd 3a be c1 12 bd
       -0.010964825 -0.050297868 0.0016901351 -0.0358293
000280 6f 52 f0 3c 75 19 b2 3c 24 34 ba 3c 25 40 22 bd
       0.029336182 0.021740654 0.02272994 -0.039611954
000290 46 7a f5 bc b9 1a 92 bd d6 57 89 b9 92 f6 e4 bd
       -0.029965531 -0.07134003 -0.0002619612 -0.11179842
0002a0 57 7d 5f bd 3b 11 8a bd 6b 81 ac bc 2b 84 a3 3c
       -0.054562893 -0.06741568 -0.021057805 0.019960484
0002b0 b0 13 95 3d 69 26 48 3d 35 48 4f 3d 27 3a 85 bd
       0.07279146 0.048864756 0.05060597 -0.06505232
0002c0 8a 37 a6 bc 9b 1c 01 3e 51 26 5d 3d b7 24 d6 bd
       -0.020290155 0.12608568 0.05399162 -0.104562216
0002d0 c3 5a 7b 3d 61 10 54 3b 14 35 0a be 10 31 58 bd
       0.061365854 0.0032358395 -0.1349681 -0.052781165
0002e0 af e4 05 3e a8 6c 0d bd 1a 36 7b bd 53 fd 76 3d
       0.13075517 -0.03452745 -0.061330892 0.060300183
0002f0 f1 f4 da bb 65 08 b0 bc 16 c5 f8 bb 80 02 48 3d
       -0.0066820313 -0.021488378 -0.007591854 0.04883051
000300 57 94 fa 3c 21 e2 36 3d 67 46 67 3d da 80 a9 3c
       0.030588312 0.044649247 0.056463625 0.020691324
000310 0d 99 7d bd 4b c7 9d bc e7 d0 e6 3d 49 04 58 bd
       -0.06191354 -0.01926007 0.11270314 -0.05273846
000320 95 3c 54 3d b5 62 28 bd 1e b8 c5 bd 57 f2 02 bc
       0.051815588 -0.04110976 -0.09654258 -0.007992349
000330 c8 9a d9 bd e5 9d d7 bc a6 e1 2d 3c 8e b7 51 bd
       -0.10625225 -0.026320407 0.010612881 -0.051200442
000340 f5 58 bd 3a 63 d2 73 bd b7 4e 2a bd aa 11 4a bd
       0.0014446067 -0.059526812 -0.041578975 -0.049333252
000350 0a 0a a5 bd 22 de a4 3d 11 13 c3 3c a0 6f 02 bd
       -0.080585554 0.08050181 0.023812803 -0.031844735
000360 fc 1b 1d 3c c8 02 80 bb 6f 2c 52 3c ff 01 2d 3d
       0.0095891915 -0.0039065816 0.012827977 0.04223823
000370 a1 b4 eb bc 5b 52 cd 3c 3b 98 77 3d a7 af 9d bc
       -0.028772654 0.025063684 0.060447913 -0.019248797
000380 1d cf 61 bd 79 c6 b7 bc 69 5e 92 3b ae de 08 3d
       -0.05512916 -0.022433506 0.004466821 0.03341549
000390 40 54 d5 bc 18 54 98 bb 12 d2 b3 3b 86 84 a0 bc
       -0.02604115 -0.0046486966 0.005487689 -0.019594442
0003a0 3a 98 51 3c 58 09 6c 3d 54 ed d6 3a 42 d2 44 3d
       0.012792641 0.0576261 0.0016397634 0.04805208
0003b0 93 68 e7 3b e2 4d 50 3d 6b 34 f0 3c b5 13 4e bc
       0.0070620268 0.050855525 0.02932187 -0.012577941
0003c0 1f 34 22 bd 74 1d 6f 3d f0 3f 88 3d 6f 23 10 3d
       -0.039600488 0.058377698 0.0665282 0.035190042
0003d0 f7 7a 81 3d b2 14 7e 3c ad d3 12 bd 10 e7 ab bc
       0.06322282 0.015507864 -0.0358464 -0.020984203
0003e0 04 34 56 3d 5a 41 8d bd ea 10 25 bd 11 9f c8 bb
       0.0522957 -0.068972304 -0.040299334 -0.006122478
0003f0 93 94 b7 bd 74 6a e8 3c 23 33 c7 bd ea fe e0 bb
       -0.08963885 0.028371073 -0.097265504 -0.0068663256

fc2.bias f4 [256]
000000 ec 95 70 bd 76 15 86 bd 92 fb 01 bd c7 d1 54 3d
       -0.058736727 -0.06547062 -0.031734057 0.05195787
000010 cb 20 3d bd 7b 83 3b 3d d0 12 3c bd 42 08 36 bc
       -0.046173852 0.045779686 -0.04591638 -0.011110367
000020 5f 71 12 3d df cb 14 bd 09 c5 cd ba a3 c4 d2 bd
       0.03575265 -0.03632724 -0.001569898 -0.10291412
000030 e7 86 99 bd f5 ec 8a bc cd 7e f7 3c c2 97 79 bc
       -0.07496434 -0.016958693 0.03021183 -0.015233936
000040 2b b4 f3 3d 94 70 fa 3d db 95 ba 3b 35 9f 81 bc
       0.11899599 0.12228504 0.0056941337 -0.015822986
000050 71 6a fd 3c 66 03 2b 3d dc 74 7d bc cf 3e a5 bc
       0.030934544 0.041751288 -0.015469756 -0.020171551
000060 9c 4b 84 bd 42 cc 98 bd 6d bf fc 3c 12 43 96 3c
       -0.06459734 -0.07460834 0.030852998 0.018342528
000070 c0 c0 90 bc 03 2d db bc d0 a7 92 bb 99 3c 67 3c
       -0.017670035 -0.026754862 -0.004475571 0.014113569
000080 b7 37 1e 3d 6a 9b 1c bd d7 3c 9c 3b 2a c7 5b bb
       0.038627353 -0.038234152 0.004767995 -0.003353546
000090 82 24 48 b9 cb a8 2c bd 7a bd b3 3c 0f af 4d bc
       -0.00019087087 -0.04215316 0.021940935 -0.012553944
0000a0 15 0e a5 3c ba 26 fb bc b2 e0 8f 3d 46 aa dd 3d
       0.020148316 -0.030658115 0.07025279 0.10823493
0000b0 dd 42 00 bd 34 da 37 bd d4 7d 18 3d 1c 02 75 3d
       -0.031313766 -0.04488583 0.037229374 0.059816465
0000c0 02 d6 bc 3d 9a 3d e0 3d 51 22 42 bd d1 66 85 bd
       0.09220506 0.109492496 -0.047396008 -0.06513751
0000d0 ed 92 c3 bd 0c 85 81 3d 9b b2 57 bd 85 8f e7 3d
       -0.09549508 0.06324205 -0.052660566 0.11306671
0000e0 82 16 6c bc 03 93 a0 bc 50 8b c6 3d 44 b7 a5 bb
       -0.014409663 -0.01960135 0.096945405 -0.0050572474
0000f0 29 35 c9 bd a8 47 fe bb 39 65 ca ba 1d 80 51 3d
       -0.098245926 -0.007760007 -0.0015441544 0.05114757
000100 48 ce 9d 3d 83 e9 7b 3c ac 77 bb bd d5 6b 93 3b
       0.07705361 0.015375498 -0.09153685 0.0044989386
000110 44 bc 8a 3b 9e 4a 46 bc 61 8f 6b 3c 5e 3e 54 bd
       0.004233869 -0.012102751 0.014377446 -0.05181729
000120 2b 01 88 bc b8 13 7a bd 2a 93 36 3a 60 b6 d6 bd
       -0.01660212 -0.06105396 0.0006964678 -0.10484004
000130 4e c7 da 3c 70 87 21 bd 2f c1 62 3d c5 3f b0 bd
       0.026706364 -0.039435804 0.055360015 -0.08605913
000140 d5 54 79 3d f3 7e a2 3c a9 c6 9d 3c 94 c6 c1 ba
       0.060871918 0.019835925 0.019259768 -0.0014783912
000150 2e a8 3d bd 56 d7 54 3d 13 2c de 3d 0c f6 80 bc
       -0.046302967 0.051963173 0.1084825 -0.015742324
000160 14 73 92 3d 5f 14 d9 3d b5 52 52 3d b2 22 af 3b
       0.07150856 0.105995886 0.051348407 0.005344712
000170 e5 1d cc bd 96 9e 12 bd 6c c9 97 3d 44 21 ea 3d
       -0.099666394 -0.03579577 0.07411465 0.11432126
000180 f7 75 61 bd 0b d4 a9 bc ca 25 3b bd fd 21 d8 bc
       -0.05504414 -0.020730993 -0.045690335 -0.026383394
000190 2e 1e 66 bd 1b 4c 4c 3d f6 53 51 bc c3 8d c1 bc
       -0.056181125 0.049877267 -0.0127763655 -0.023627168
0001a0 44 23 49 3d c7 2f b0 3d 5b 04 40 3d 50 36 81 3d
       0.049105898 0.08602863 0.046879154 0.063091874
0001b0 c2 d3 01 3c 6d ba c5 3c 14 da 0c 3c b0 62 f0 3d
       0.007924022 0.024136746 0.008596916 0.11737573
0001c0 5b 09 99 bc 65 8e 83 bc 29 8a 93 3d 64 45 df bd
       -0.018681219 -0.01605911 0.07204086 -0.10901907
0001d0 3c e7 f1 bd 30 35 b9 bd 25 15 de 3d f8 7b 1a 3d
       -0.118116826 -0.09043348 0.10843877 0.037715882
0001e0 b7 23 cc 3d 11 f6 4c 3d 42 57 53 bd 17 f5 a2 bd
       0.099677496 0.050039355 -0.051596887 -0.079569034
0001f0 33 8f 0a bc 3f d3 a8 bb 0d 29 9e 3c c5 6f f6 3d
       -0.008456993 -0.0051521356 0.019306684 0.12033037
000200 f4 b1 f9 bb ff 0b a2 3d 3c b2 58 bc c4 db d4 3d
       -0.0076200906 0.07912444 -0.013226088 0.103934795
000210 d1 50 d8 bc 54 3c d4 3d 17 6c b6 bd 95 5e 66 bd
       -0.026405724 0.10363069 -0.08907335 -0.056242544
000220 1a 52 c5 3d db e7 b2 bd 28 b2 6c 3d c5 9e 89 bc
       0.096348 -0.08735629 0.05778709 -0.01679934
000230 56 58 14 bc 58 cb 09 bd 77 78 d5 3b 12 9c 83 3d
       -0.009054264 -0.03364119 0.0065146047 0.064262524
000240 91 7c bf 3d 01 f1 a1 bc 11 20 cf bd ed d6 4a bc
       0.09349931 -0.01976824 -0.10113538 -0.012380344
000250 85 f7 12 3c 98 b9 1c bd c8 7e 83 bd 6c 98 ec 3b
       0.008970146 -0.038262933 -0.06420666 0.0072203185
000260 0d 6b a9 bd 43 06 6b bc 3a b1 48 bd 08 bb 4b 3c
       -0.082723714 -0.014344755 -0.04899714 0.012434728
000270 fa 17 58 3d a8 96 03 3d 8d 53 2b bc a4 fd 85 3d
       0.05275724 0.0321261 -0.010456932 0.06542519
000280 56 ff 4d 3c 6d 2d a6 bc bf 4a b3 bd 24 a7 85 bd
       0.012573084 -0.020285333 -0.08754491 -0.0652602
000290 94 8f 99 3c 32 db c6 3d 0c 9e de bd f0 d3 9b bc
       0.018745221 0.09709777 -0.10869989 -0.019021958
0002a0 37 a3 3a 3d b6 94 02 3d 79 46 da 3d 94 b8 56 3b
       0.04556581 0.031880103 0.10657973 0.0032763826
0002b0 f9 c2 89 3c 46 f8 21 bd 02 19 18 3c ab c4 0a bc
       0.016816603 -0.039543413 0.009283306 -0.008469741
0002c0 c3 5d 96 bd 66 08 9f 3d 7f a5 a1 3d ee 23 96 bd
       -0.073421024 0.07765274 0.07892894 -0.07331072
0002d0 25 61 de 3c 8a 70 95 bd 8b 42 d8 3d a4 36 05 bd
       0.027145931 -0.07296856 0.10559567 -0.032522812
0002e0 37 4e aa bd 0d 54 04 3a 51 0e 69 3c e9 d9 d8 3c
       -0.083156995 0.0005047925 0.014224605 0.026471095
0002f0 e5 93 8f bd 09 94 a4 bc f6 31 ab 3d 85 99 16 bd
       -0.070106305 -0.02009012 0.08359139 -0.0367675
000300 e3 3c 75 bc 0b c9 3f 3d 1f 7c 81 3d 36 bf 44 3a
       -0.01496813 0.04682259 0.06322502 0.0007505299
000310 1f c5 77 bd 7a c9 82 3d 4f ae ca bd 54 14 9b 3d
       -0.060490724 0.06386085 -0.09896528 0.07572237
000320 32 3b d4 3d 52 f8 c8 bd ff d5 52 bd 98 ef ac bd
       0.10362853 -0.09812988 -0.051473614 -0.084441364
000330 31 fe 98 bd 23 3a 90 bd 44 50 ba bd 22 4a 37 bd
       -0.07470358 -0.07042339 -0.09097341 -0.044748433
000340 c9 a1 c5 3b 58 35 3e bc d3 4b aa 3d 87 d8 a0 bc
       0.006031249 -0.011609398 0.083152436 -0.019634498
000350 15 8a c7 bd 33 d2 ac bd 7d fc 17 3c 91 4a 0b 3d
       -0.09743134 -0.0843853 0.0092765065 0.03400666
000360 e1 7a 71 3d 58 47 30 3d 36 cb 5a 3d 97 58 ca bd
       0.058955077 0.04303679 0.053416453 -0.098801784
000370 b9 72 65 bc 30 26 a4 3d b7 e5 5f 3d f2 c9 05 3c
       -0.014004403 0.08015096 0.054662433 0.008165823
000380 75 55 b1 3d 98 11 3e 3d 4b 4b 35 b9 86 e2 63 bd
       0.08658878 0.046403497 -0.00017289554 -0.05563595
000390 07 d0 bb 3c df b3 c3 3d 14 9b 6b 3d 04 82 b4 3c
       0.022926344 0.09555792 0.05752094 0.022034653
0003a0 3b 35 95 3d 27 42 b9 3c 85 52 87 bd bb 7a 1b bd
       0.072855435 0.022614552 -0.06607536 -0.03795884
0003b0 21 94 92 bc f9 b9 0e 3d 56 73 bc bb 57 ba 71 3c
       -0.017892899 0.034845326 -0.005751054 0.0147539
0003c0 00 4c fe 3c bb 69 a8 3c 54 e5 96 b9 37 a8 16 bd
       0.031042099 0.020558229 -0.00028781092 -0.036781516
0003d0 b9 29 85 3d d8 42 9c bd f2 82 e2 3d 11 ef c9 bd
       0.065020986 -0.07629937 0.11060132 -0.098600514
0003e0 e5 d5 ee 3c 95 d2 c9 3d 82 a6 d1 3d 93 9d 3f bc
       0.029154727 0.098546185 0.10236837 -0.011695283
0003f0 39 39 11 bd 59 8c 9c bc 0e 74 c4 3d 5f c1 ec 3c
       -0.035454962 -0.019109892 0.09592448 0.0289008

fc3.weight f4 [128, 256]
000000 48 6b 72 3c 61 40 1e be cb 3a 33 bd bf 6c 9b bc
       0.014796086 -0.15454246 -0.04375724 -0.018972753
000010 e5 70 08 3d ed 39 fc 3a 2b 0c 4c 3d 08 18 5a bd
       0.03331079 0.0019243337 0.04981629 -0.053245574
000020 14 af d6 3c ec eb 61 3d 02 73 c8 3d 77 49 0a 3d
       0.02620653 0.055156633 0.09787561 0.033761468
000030 ff f3 6f be 48 05 83 3d 74 31 05 3d 00 e9 db bc
       -0.23432921 0.06397492 0.032517865 -0.026844501
000040 a8 55 04 be 11 4a 88 3c e7 77 28 3c 24 b7 62 bb
       -0.129233 0.01663688 0.010282493 -0.0034594024
000050 a6 d9 21 3d 5b 8b b7 bd 8d 60 95 3d 34 2b 94 bd
       0.039514206 -0.08962127 0.07293806 -0.07234803
000060 ca c9 8f 3d a3 da 10 bd be 92 1a bc 22 5f 0e 3d
       0.0702091 -0.03536476 -0.0094344 0.034758694
000070 82 ad 31 bd f0 1b af 3c d6 43 de bd f2 c9 93 bd
       -0.04337836 0.021375626 -0.108527824 -0.072162524
000080 0c 44 84 ba 3b 62 82 bd a3 47 1c 3d dd a4 a9 3d
       -0.001009108 -0.06366392 0.038154256 0.08283398
000090 09 ec 99 3d 4a 93 c2 3c 8a 29 08 3e c9 b9 eb 3d
       0.07515723 0.023751874 0.13297096 0.11510045
0000a0 28 54 a2 3c ea f0 bf bc 67 09 ff bd 0f 86 33 3d
       0.01981552 -0.023430306 -0.12452965 0.04382902
0000b0 8d d6 83 3d 99 45 db bb 40 79 54 3d cc 28 90 3d
       0.06437407 -0.0066916463 0.051873446 0.070390314
0000c0 76 65 bf bd c7 48 82 bd 5d 05 c9 bc fd 38 85 bb
       -0.09345524 -0.063615374 -0.02453869 -0.0040656314
0000d0 bc 65 d4 3c 1e a2 ff bd 88 28 1b 3d 54 34 ed 3d
       0.025927417 -0.12482093 0.03788045 0.115822464
0000e0 1d f5 56 bb ca dc 84 3d e5 65 5b 3d cc 67 f5 bc
       -0.0032799907 0.06487425 0.05356397 -0.02995672
0000f0 f9 3b 94 bc 8a e5 9b 3d 1a d1 9c bd df 05 33 3d
       -0.018095003 0.076121405 -0.076570705 0.04370677
000100 6d a7 8a 3d 58 eb 5f be 9f 06 0e 3d bd 12 55 bd
       0.06770215 -0.2186712 0.034674283 -0.052019823
000110 4b 97 a3 3d 07 d4 c3 3c 61 c3 72 bd 5c f7 c9 3d
       0.07987841 0.023904813 -0.05926836 0.09861633
000120 0f 55 cc 3d 22 4d b5 bd 41 2c 3d 3d 82 32 87 3a
       0.09977161 -0.088526025 0.046184782 0.0010314735
000130 9d 80 1e bd e8 95 27 3d df 21 8c bd 18 e2 09 bd
       -0.038696874 0.040914446 -0.06842398 -0.033662885
000140 07 de e1 bd 79 9a 16 bd 48 fb cc 3d 23 9c fa 3c
       -0.110286765 -0.03676841 0.100088656 0.03059203
000150 e6 4b 21 bd 8e 44 40 3d a7 74 44 bb 2a 5d f8 3d
       -0.039379023 0.04694038 -0.0029976757 0.12127145
000160 a4 8f 35 bd de 19 40 3b fb be 3d bd 60 71 fe bd
       -0.04432644 0.0029312293 -0.04632471 -0.12423968
000170 0c 86 e3 bd 11 78 d7 bc 1e 86 5d 3d c1 09 12 bd
       -0.11109552 -0.02630237 0.054082982 -0.035653833
000180 ab 7d ac bd f7 df 7c bd e0 bb 8a 3d b7 79 80 bc
       -0.08422407 -0.061737027 0.067741156 -0.015683038
000190 ce 4d 5a 3c 00 49 8d 3d b0 92 74 bd fc cd 78 3d
       0.013324214 0.06898689 -0.059710205 0.060743317
0001a0 89 42 c5 39 e9 e8 2d be d3 66 b0 bc ac be 94 3c
       0.0003762434 -0.1698338 -0.021533405 0.018157326
0001b0 0f 18 76 bc 46 67 cb bb 78 e8 84 3d d4 ac b0 bc
       -0.015020384 -0.0062073795 0.064896524 -0.021566786
0001c0 c3 80 60 bd 0e 6f 0d 3e 58 71 c3 bc 8b fa 05 3e
       -0.054810297 0.13811895 -0.023857757 0.13083856
0001d0 fd 9e 09 bd a0 98 72 3d 67 dd bd bd b3 e6 fc bc
       -0.03359889 0.059227586 -0.09270745 -0.030871725
0001e0 0f c2 95 3d ca a8 2e bd d0 15 93 3d 13 ac 17 be
       0.07312404 -0.04264144 0.07181895 -0.14811735
0001f0 b0 22 dd 3d f6 70 5f bd 49 1e a8 bc b9 40 f7 bd
       0.10797632 -0.054551087 -0.020522254 -0.12072892
000200 22 e2 01 3c 08 f8 1d be 72 e7 8e bc 2f 90 34 3d
       0.007927449 -0.15426648 -0.017444346 0.044082817
000210 e1 15 c2 bd e7 5b a5 bd cb f7 72 3d 70 30 87 bd
       -0.09476829 -0.080741696 0.059318345 -0.066010356
000220 f7 c4 d9 bd bc ad 95 bb 92 f7 65 bd 7c b7 85 3d
       -0.10633271 -0.00456783 -0.056144305 0.065291375
000230 25 cd b3 bc 68 6f 90 3d 67 c8 16 3e 2b 66 94 3d
       -0.021948406 0.07052499 0.14724885 0.072460495
000240 9c d8 d9 bd 9b e6 60 3d e8 2e ba bd 71 b6 ce 3c
       -0.10637018 0.054907423 -0.09090978 0.02523348
000250 8a a6 36 be 5f ae b0 3a ab 72 c8 3c a6 10 f8 bd
       -0.17836967 0.0013479701 0.02446874 -0.121125504
000260 94 93 8e bd b4 2a 18 3d c5 ae 8e 3d 22 ee be bd
       -0.06961742 0.0371501 0.069669284 -0.09322764
000270 94 8f 73 bd 9a f9 0b bd 0e 9e 8b 3c 3a 16 66 3d
       -0.0594631 -0.034173585 0.01704314 0.05617354
000280 36 32 60 3d ba 6e 63 bd eb 99 1b bd d2 95 97 3d
       0.054735385 -0.05552552 -0.037988584 0.07401623
000290 17 37 3a bd b8 63 79 bd 70 2e 33 bd 68 29 b8 3c
       -0.045462694 -0.060886115 -0.043745458 0.022480682
0002a0 2e 64 d5 bc ee c1 7f 3c a0 dd cf 3d ba 01 01 be
       -0.026048746 0.015610201 0.101496935 -0.12598315
0002b0 45 bd 96 3d fc b7 02 3e fb 5c 89 bd 37 30 42 3c
       0.07360319 0.12765497 -0.06707188 0.011852316
0002c0 98 f9 8b 3c a3 79 91 3d 11 76 e0 3d 97 b9 94 bc
       0.017086789 0.071032785 0.109600194 -0.018154902
0002d0 3d 14 30 3d a2 13 72 bd da 36 c5 3b 55 c5 4b bb
       0.04298805 -0.059100755 0.0060185017 -0.003109296
0002e0 85 5b 86 3c c1 2e 4c 3d 38 3a d1 bb a8 6a ba 3b
       0.016401062 0.049849275 -0.006385114 0.005688984
0002f0 31 ca cb bd 7e 5f 05 3e 49 80 18 bd c0 4e 56 bd
       -0.09950674 0.13024709 -0.037231717 -0.052321196
000300 bc d6 f3 bd 4f 8b 0b bd 76 6f d9 bc e7 d5 5d bd
       -0.11906192 -0.034068402 -0.026542407 -0.05415907
000310 60 22 4e 3d dd 30 14 bd 56 31 36 bc 59 c0 b7 bd
       0.05032575 -0.036179412 -0.011120161 -0.08972234
000320 07 cd 6a bc 98 41 d6 bc af 9d ed 3d da b1 23 3d
       -0.014331109 -0.026154324 0.116023414 0.039964534
000330 80 82 11 3d 68 50 7f bd 1c e6 42 bc d2 98 05 bd
       0.035524845 -0.06233254 -0.011895683 -0.032616444
000340 87 f6 5e bd c7 74 b5 3d 1d 5b 72 bd fa 92 99 3d
       -0.054434326 0.08860164 -0.059168924 0.07498737
000350 e8 3c 90 3d 89 d6 5b 3d 48 a7 ac 3c 86 24 b9 3d
       0.07042867 0.053671394 0.02107586 0.090401694
000360 dd ec 59 3d f9 92 d8 bc ab 58 e2 3c 79 5e ad bd
       0.053204406 -0.02643727 0.02763017 -0.08465285
000370 bf f3 42 3c ed a3 30 bd b7 06 84 3d 24 5e d0 bd
       0.011898934 -0.04312508 0.06446593 -0.10174206
000380 72 35 23 bd 21 c7 28 bd da 64 83 bd 8e d3 44 bd
       -0.03984589 -0.04120553 -0.0641572 -0.048053317
000390 1e db 0a bc 38 7f c1 bd 25 11 2b bd ea 83 c4 bd
       -0.008475093 -0.09448093 -0.041764397 -0.09595473
0003a0 0e 58 50 bd a1 b1 17 3d 95 2e d3 3c 97 c6 45 3d
       -0.050865225 0.037034635 0.025779048 0.048285093
0003b0 81 6c 5f bd b9 7a 28 3d c9 70 df 3c a1 02 02 3e
       -0.054546837 0.041132662 0.02727546 0.12696315
0003c0 8b 45 aa bd 09 39 8b bd 13 08 e7 3d 3c 72 22 3d
       -0.083140455 -0.06797988 0.11280837 0.039659724
0003d0 46 79 b2 bb 2d 6f 0a be c6 9c 37 3d e2 b5 48 bd
       -0.005446586 -0.13518973 0.044827245 -0.049001582
0003e0 26 13 e0 bd e4 2f 6b bd 06 1f 41 3d cf 65 2f 3d
       -0.10941152 -0.05741872 0.047148727 0.0428217
0003f0 3c ea f5 3c 94 7a 0c bd 04 65 9f 3d 64 76 6f bd
       0.030018918 -0.034296587 0.07782939 -0.058462515

fc3.bias f4 [128]
000000 f1 a4 bb 3d af 40 99 3d f5 d4 12 be ad 34 69 3e
       0.091623195 0.074830405 -0.14339049 0.22774
000010 45 ba a1 3d 6c f7 03 3c 6d 73 0c be 48 3f ba 3d
       0.07896856 0.008054595 -0.13715906 0.09094101
000020 13 bd 22 3e b3 73 dc bd 2a 31 80 bd ec 7b 54 3d
       0.15892439 -0.107642554 -0.06259377 0.051875994
000030 cb 18 bd bd d0 4a 45 3e 62 89 00 be a6 03 95 3d
       -0.092332445 0.1926682 -0.12552407 0.072760865
000040 12 f3 ca bc c1 af 14 3e f4 98 ef 3d 05 3b 1c 3e
       -0.024774108 0.1452017 0.11699095 0.15256889
000050 82 54 1e 3e d5 6f 9f bc 6d 1f 87 bd 2e 79 18 be
       0.15461925 -0.019462505 -0.06597791 -0.14889976
000060 ab d0 a5 3d 48 c2 be 3d 76 46 f7 bd 58 d0 be 3d
       0.08096441 0.093144 -0.12073986 0.09317082
000070 6d 36 ca 3c ab f6 1b 3e 79 49 14 3e 4b d7 2e 3d
       0.024684155 0.15230815 0.14481153 0.042685788
000080 90 1a d2 3d 17 5c 98 3d d6 40 25 3e 87 7d cc 3d
       0.10258973 0.0743944 0.16138014 0.0998488
000090 9f 6f ef 3d d0 e6 82 bd a2 72 4c 3e 9f 29 8d 3d
       0.11691212 -0.0639168 0.19965604 0.06892704
0000a0 b1 a6 26 bb 75 b2 00 3e 59 24 1c be f3 83 18 3e
       -0.0025428946 0.12568076 -0.1524824 0.14894085
0000b0 2c 5d 18 be b6 9a 19 bd e3 67 64 3e 0c 34 64 3d
       -0.14879292 -0.03750106 0.22305255 0.0557137
0000c0 98 8c ce 3d 8e 1c cc 3d d2 ef ad 3c 13 b2 a2 bd
       0.1008541 0.09966384 0.02123252 -0.07944121
0000d0 28 fc d0 3d 37 02 19 3e d0 cb fa 3d 00 c4 9a 3d
       0.10204345 0.14942251 0.122459054 0.07556915
0000e0 b5 e8 8e bd 12 69 ae bd 8b 07 06 3d f0 6c 1b 3e
       -0.06977979 -0.08516134 0.032722037 0.15178275
0000f0 ad d9 39 bd eb 9d f0 3d d8 34 46 3d 0e cc 01 3e
       -0.045373607 0.117488705 0.04839024 0.12675497
000100 51 f6 e8 3d 9f 37 82 bd b8 f1 92 bd 8a 81 ca bd
       0.11375106 -0.06358265 -0.071750104 -0.09887989
000110 fc 36 61 bd d0 45 69 bd 31 51 9f 3d a6 bf 39 3e
       -0.054984078 -0.056951344 0.07779158 0.18139514
000120 19 74 b3 3d f7 f1 8a 3d 58 e7 72 3d 27 2b 29 3e
       0.08762378 0.067844324 0.059302658 0.16520368
000130 43 b6 ea bd 1c df 97 bd b7 b2 4a 3e a8 c8 1f be
       -0.11460545 -0.074156016 0.19794737 -0.15603888
000140 5d dc 88 bd 61 d6 93 bb 30 93 d9 3d fc 8b fe bd
       -0.06682656 -0.00451164 0.10623777 -0.12429044
000150 65 78 b6 bd 20 58 78 bd 16 e9 a1 3d ad 22 3e 3e
       -0.08909682 -0.060630918 0.07905786 0.18567915
000160 70 3d 90 bd 9b 62 19 be 6a a3 da bc 64 6a d4 bd
       -0.07042968 -0.14979021 -0.02668925 -0.10371855
000170 38 32 33 3e 99 7f a2 bd ab 57 59 3d 9a c6 ae bd
       0.17499626 -0.079344936 0.053062122 -0.08533974
000180 50 5e dc bd c1 9d b5 3d 0d aa 99 3d ce 33 a7 bc
       -0.10760176 0.0886798 0.07503138 -0.020410445
000190 72 00 0f 3e 52 ef 41 bd d9 29 ea 3d 99 e1 eb bd
       0.13965014 -0.047347374 0.11433763 -0.11517639
0001a0 40 ff 0b be a1 4b a4 bd 7e 2c 10 3e 31 f2 f0 bd
       -0.13671589 -0.080222376 0.14079472 -0.11764944
0001b0 6f a1 b1 3d c0 48 04 bd 96 c2 f7 bc 65 b3 e3 3d
       0.08673369 -0.032295942 -0.030244153 0.11118201
0001c0 55 a6 e3 bd 86 79 dc 3d 3d 84 24 3e 7e 41 07 3d
       -0.1111571 0.10765366 0.1606607 0.033021443
0001d0 f0 b4 64 3d 9e b2 0b 3e 9e 32 1c 3e 2e 42 b3 bd
       0.055836618 0.13642356 0.15253684 -0.08752857
0001e0 14 50 a0 bd 2f 90 a2 3d 96 d3 a6 3c 6a e3 10 bd
       -0.07827774 0.07937657 0.020364564 -0.03537313
0001f0 8e 6d 31 3d 9c 7e 36 3e a4 91 21 3e 63 40 58 bd
       0.04331737 0.17821735 0.15778214 -0.05279578

fc4.weight f4 [1, 128]
000000 bc 9e e1 3d 95 17 fa 3d a1 fc fe bd 72 62 d0 3d
       0.11016604 0.12211529 -0.12450529 0.10175027
000010 6b c8 06 3e a4 89 bd bd b2 31 82 bd e3 54 a1 3d
       0.13162391 -0.092547685 -0.06357135 0.07877519
000020 21 d4 02 3e 14 94 c3 bd 9b 39 01 be 8b 07 c7 3d
       0.12776233 -0.09549728 -0.12619631 0.097182356
000030 ee aa 02 be 8c b7 af 3d 6b 23 1d be 8f b4 83 3d
       -0.12760517 0.08579931 -0.15345542 0.06430923
000040 14 e5 1b be 8b c4 c8 3d 53 d0 3a 3e 41 de 1d 3e
       -0.15224105 0.098031126 0.18243532 0.15416814
000050 a0 85 0f 3e d8 3f f1 bd cf b5 21 be 16 2d 30 be
       0.14015818 -0.11779755 -0.1579201 -0.17204699
000060 6e 9a fc 3d d0 2f fb 3d 5b e8 89 bd 8c a7 ac 3d
       0.123341426 0.12264979 -0.067337714 0.084303945
000070 6c d5 1a 3e dc d7 d2 3d 1a 5c d0 3d f4 68 e1 3d
       0.15120476 0.10295078 0.10173817 0.11006346
000080 03 e9 13 3e e4 e0 0d 3e b8 c1 b8 3d 42 08 b2 3d
       0.14444356 0.1385532 0.09021324 0.08692981
000090 d6 31 04 3e f6 56 de bd 67 79 da 3d 45 33 04 3e
       0.12909636 -0.1085643 0.10667687 0.12910183
0000a0 af 2e 04 3e 4f 27 f3 3d 98 9c 0b be 4f 19 17 3e
       0.12908433 0.11872732 -0.13633955 0.14755748
0000b0 9a 33 1f be 3f 23 c7 bd 2d 4b ba 3d c4 00 db 3d
       -0.15547028 -0.097235195 0.0909637 0.106935054
0000c0 f8 2b 9f 3d 06 4d 0d 3e 4d fe 00 3e cf cf 36 be
       0.07772058 0.13798913 0.12597008 -0.1785271
0000d0 d3 63 e2 3d f6 43 06 3e 2f 10 37 3e f6 51 c8 3d
       0.11054196 0.13111863 0.17877267 0.09781258
0000e0 33 26 a9 bd 24 cc 17 be a4 cb df 3d b5 51 ee 3d
       -0.08259239 -0.14823967 0.10927513 0.11636678
0000f0 2b ac ba bd 41 31 c7 3d bc 35 03 3e 93 3e 2d 3e
       -0.0911487 0.09726191 0.12813467 0.16918401
000100 a9 e9 c8 3d a8 22 4e be 4c cc 79 bd 29 1a 2a be
       0.09810192 -0.20130408 -0.06098585 -0.16611542
000110 aa c8 96 bd 96 52 03 be 90 a2 05 3e 07 70 eb 3d
       -0.073624924 -0.12824473 0.13050294 0.11495977
000120 fe d1 fc 3d 2c 93 c3 3d e4 2e 9d 3d 8e ee d1 3d
       0.1234474 0.09549555 0.07674959 0.10250579
000130 63 2c da bd e8 5d 40 be fd 75 a3 3d 2d a9 f4 bd
       -0.10652997 -0.18785822 0.07981489 -0.1194633
000140 aa 13 04 be 12 1d c7 bd e3 15 ed 3d cf 77 b2 bd
       -0.12898126 -0.097223416 0.1157644 -0.08714258
000150 67 23 d9 bd 7c e4 f4 bd 43 16 9e 3d 7b 11 b0 3d
       -0.106024556 -0.119576424 0.0771909 0.08597084
000160 d1 4e 12 be 41 c8 0c be 45 66 b2 bd 9c 96 f8 bd
       -0.14287879 -0.13748266 -0.087109126 -0.121381015
000170 8a 26 b5 3d 6f b3 f7 bd d7 6a f6 3d 26 0a 50 be
       0.08845241 -0.12094771 0.12032097 -0.20316371
000180 c8 37 1c be bc fd d8 3d 61 7a fd 3d 63 b7 0e be
       -0.15255654 0.10595271 0.123768575 -0.13937144
000190 c9 50 b7 3d db f1 05 be ef a5 e3 3d 5b 45 d2 bd
       0.089509554 -0.13080542 0.11115634 -0.10267135
0001a0 69 f1 ac bd e1 42 07 be 40 6c 1f 3e 17 86 0d be
       -0.08444483 -0.13209106 0.15568638 -0.13820682
0001b0 76 93 11 3e 7b f5 f9 bd b7 12 9e bd 5b 12 19 3e
       0.14216408 -0.12205025 -0.07718413 0.14948408
0001c0 42 d0 d9 bd b8 16 da 3d 10 c4 e5 3d 45 73 f6 3d
       -0.10635425 0.106488645 0.112190366 0.12033705
0001d0 c6 70 13 3e 0a e4 c2 3d 77 84 d0 3d 99 4e 8e bd
       0.14398488 0.09516151 0.10181516 -0.06948585
0001e0 5e bc f3 bd cd 48 a5 3d 5d 0b 01 3e 47 a4 99 bd
       -0.119011626 0.08070526 0.12601991 -0.075020365
0001f0 69 be 0e 3e 7e c2 c2 3d f3 2f 34 3e a4 d8 18 be
       0.13939823 0.09509753 0.17596416 -0.14926392
