checkpoints/ddpg/115_checkpoint_critic_solved.pth (torch_old, 435500 bytes, 7 tensors)

fcs1.weight f4 [256, 33]
0	0x3bb24347	0.005440149
1	0xbc6a6543	-0.014306369
2	0x3ac745a0	0.0015203245
3	0xbb425101	-0.0029650333
4	0xbcc9fac1	-0.024655702
5	0x3d0681b7	0.03283855
6	0xbd1a6ca0	-0.03770125
7	0x3c6170ce	0.013759805
8	0xbd086587	-0.03329995
9	0xbda74a6d	-0.081684925
10	0xbb80d4ea	-0.0039316313
11	0xba43591b	-0.00074519374
12	0x3b59e964	0.0033250684
13	0xbe08f0a9	-0.13373055
14	0x3d968373	0.07349291
15	0x3c305b1c	0.01076391
16	0x3d3cc9ba	0.04609082
17	0x3b139101	0.002251685
18	0xbc25805a	-0.010101402
19	0x3d1328ff	0.03592777
20	0xbc883301	-0.016625883
21	0x3c274d4d	0.010211301
22	0x3c033a78	0.0080095455
23	0xbca2be08	-0.019866005
24	0x3d0d0229	0.03442589
25	0x3c39db76	0.0113438275
26	0x3dba6fd3	0.0910336
27	0x3d0a80cb	0.033814233
28	0xbcecbe97	-0.028899474
29	0x3d33bf4e	0.043883614
30	0xbc9b8f2e	-0.018989172
31	0xbd7183cc	-0.058963582
32	0x3e0c3aa4	0.13694245
33	0x3d1f48f9	0.03888795
34	0x3d2e762a	0.04259316
35	0xbb2467fc	-0.0025086394
36	0xbd282e02	-0.0410595
37	0x3c7f9cf0	0.015601382
38	0x3d052c02	0.032512672
39	0x3dd9ce56	0.106350586
40	0x3dad4613	0.08460631
41	0xbda26729	-0.079298325
42	0xbca7cb0a	-0.020482559
43	0x3d4d8f0b	0.050185245
44	0x3c2cb055	0.010540088
45	0x3d58a77c	0.0528941
46	0x3c3e1392	0.011601346
47	0x3d29e8bc	0.04148172
48	0x3cbaaf88	0.022788778
49	0xbd307730	-0.043082416
50	0x3d2914ce	0.041279607
51	0x3c99bf85	0.018768081
52	0xba1f12c8	-0.0006068167
53	0x3d4d38a8	0.05010286
54	0x3cef1e5d	0.029189283
55	0x3c188047	0.009307927
56	0xbc1999ac	-0.009375017
57	0xbc761214	-0.015018959
58	0x3c2838fa	0.0102674905
59	0xbd00d46f	-0.031452592
60	0xbcaabedc	-0.020842962
61	0x3d7900c2	0.06079174
62	0x3d35d6b2	0.044394203
63	0xbbe32ef4	-0.0069330875
64	0xbd1946f4	-0.03742118
65	0xbdf58fe5	-0.11990336
66	0x3ba0c2f3	0.0049060523
67	0x3e023495	0.12715371
68	0xbd20acb3	-0.0392272
69	0xbc45ff4e	-0.012084795
70	0x3dad3ce7	0.08458882
71	0x3d5f0150	0.05444461
72	0xbd8de5b7	-0.0692858
73	0x3b82e945	0.003995093
74	0x3cdeac1a	0.027181674
75	0x3df5b601	0.11997605
76	0x3d94b860	0.07261729
77	0xbda8d50d	-0.08243761
78	0xbcf5d513	-0.030008828
79	0x3ce69b8c	0.028150342
80	0x3a592c3f	0.0008284486
81	0x3cd8027c	0.026368372
82	0x3d1cfc11	0.038326327
83	0xbbf06e62	-0.0073373774
84	0x3c0889ee	0.008333666
85	0xbd8861c2	-0.06659271
86	0x3d4bb5c5	0.049733896
87	0x3d11409c	0.035462007
88	0xbc22add7	-0.009929142
89	0xbc2c2f2f	-0.010509296
90	0x3cc42adc	0.023946218
91	0xbc892f1a	-0.016746093
92	0x3d1c7daf	0.0382058
93	0x3d5edb85	0.05440857
94	0xbce83dad	-0.028349722
95	0x3d0905d6	0.03345283
96	0xbdee1eac	-0.11626944
97	0x3d7b1036	0.061294757
98	0x3e8c919d	0.27454844
99	0xbcfd9d9f	-0.030958949
100	0x3dcfe110	0.10150349
101	0xbde67646	-0.112530276
102	0xbd969844	-0.07353261
103	0xbc167a79	-0.009184473
104	0xbcadd147	-0.021217955
105	0xbd04792d	-0.032342125
106	0xbc78a633	-0.015176344
107	0x3b41079e	0.0029454003
108	0x3c807006	0.015678417
109	0x3d343e58	0.044004768
110	0x3db3f6b6	0.08787291
111	0x3c757692	0.014981883
112	0x3c842e86	0.016135465
113	0x3d809639	0.06278653
114	0x3c32f057	0.010921559
115	0xbd0eb987	-0.0348449
116	0x3d1585af	0.036504444
117	0x3d0b09af	0.033944782
118	0xbc0c7e1d	-0.00857499
119	0x3db1568c	0.08659086
120	0x3cf744ae	0.030184116
121	0x3dc7a833	0.09748878
122	0x3ce5cbe6	0.028051328
123	0xbbf2a121	-0.007404462
124	0x3c0a4aba	0.008440668
125	0x3d875e78	0.06609815
126	0x3d7d31e3	0.061815154
127	0x3d864a60	0.06557155
128	0x3d780858	0.060554832
129	0xbd46b209	-0.04850963
130	0x3cf92ebc	0.030417792
131	0x3d9c6758	0.07636899
132	0xbd4f91fb	-0.050676327
133	0x3da33d58	0.07970685
134	0xbdaf6d08	-0.08565718
135	0xbd10e237	-0.035371985
136	0x3d47d052	0.048782654
137	0x3d485b31	0.048915092
138	0x3caa6e8a	0.020804662
139	0xbdf89289	-0.12137324
140	0x3d607019	0.054794405
141	0xbd87e731	-0.06635893
142	0x3c835d89	0.016035812
143	0x3c832073	0.016006684
144	0xbd7b4797	-0.06134757
145	0xbc3c715b	-0.011501635
146	0xbcdc0786	-0.026859056
147	0xbbeaaa7b	-0.007161436
148	0xbcc09f1f	-0.023513375
149	0x3d5d15d0	0.05397588
150	0xbc94682b	-0.018116077
151	0x3a978cc4	0.0011562337
152	0xbbaaa41a	-0.0052075507
153	0x3c9c3db6	0.019072395
154	0xbbe107fa	-0.006867406
155	0x3baf75c2	0.005354614
156	0xbda59204	-0.08084491
157	0x3d9c8b89	0.07643802
158	0x3da3b059	0.0799262
159	0x3cc20733	0.023685073
160	0xbc8a4def	-0.016882865
161	0xbc8a2dd4	-0.016867556
162	0xbdb308d4	-0.08741918
163	0xbcddbd5c	-0.027067833
164	0x3e2ee4d8	0.17079484
165	0xbd17692a	-0.036965527
166	0xbda17de6	-0.07885341
167	0x3dee2a91	0.11629213
168	0xbc84eb5c	-0.01622551
169	0xbd552e59	-0.052046154
170	0x3d0e91c5	0.034806985
171	0x3d801d56	0.062555954
172	0xbbbc900c	-0.0057544764
173	0xbd481168	-0.048844725
174	0xbb37ab9c	-0.002802587
175	0xb7a4d1e0	-1.9648054e-05
176	0xbbcd9291	-0.0062735756
177	0xbd05900c	-0.032608077
178	0xbdd4273e	-0.10359047
179	0xbb290e42	-0.0025795852
180	0xbddbba9a	-0.10728951
181	0x3de51fc3	0.11187699
182	0x3d27124f	0.040788945
183	0x3d64c5d1	0.055852715
184	0xbcc4e61a	-0.024035502
185	0x3ac98833	0.0015375674
186	0xbd3df5c5	-0.046376962
187	0xbced856d	-0.028994286
188	0xbd84fccd	-0.064935304
189	0xbabc2fb8	-0.0014357483
190	0x3b1b19a9	0.0023666418
191	0xbcb5640e	-0.022142436
192	0x3d9318d0	0.07182467
193	0xbd575ff0	-0.052581728
194	0xbcb3df3c	-0.021957032
195	0xbd482de3	-0.048871886
196	0x3d6a0dcc	0.057142064
197	0xbe4981a8	-0.19678366
198	0xbd6d7bcf	-0.0579794
199	0xba0cfee7	-0.00053785596
200	0x3c080bbe	0.008303581
201	0xbc392b81	-0.011301876
202	0x3d23eee4	0.040022746
203	0x3c2c92e6	0.01053307
204	0xbd86dfac	-0.06585631
205	0x3bd134dc	0.006384475
206	0xbd754e2d	-0.059889007
207	0x3c318a4b	0.010836194
208	0xbd5ac425	-0.053409714
209	0x3d84c529	0.06482918
210	0x3d8addd1	0.06780589
211	0x3d96a8c2	0.07356407
212	0x3d538200	0.05163765
213	0x3c96db9c	0.018415265
214	0x3d6b96d7	0.0575169
215	0x3cf3466e	0.02969667
216	0xbdb7d790	-0.08976662
217	0xbcca589e	-0.02470046
218	0x3b70be3b	0.003673448
219	0x3c9f0626	0.019412111
220	0x3c0dcda8	0.008654989
221	0xbb4eed6d	-0.0031574622
222	0xbd66d54a	-0.056355752
223	0xbcc64480	-0.024202585
224	0xbdace51b	-0.08442136
225	0x3caa2d35	0.02077351
226	0xbca7a1b4	-0.020462848
227	0x3c996e3c	0.018729322
228	0x3c2f6a92	0.010706561
229	0x3cb0af04	0.021567829
230	0xbeaff284	-0.34364712
231	0xbd164a35	-0.036691863
232	0x3c1b56b8	0.009481125
233	0xbd81abd0	-0.06331599
234	0xbd553b19	-0.052058313
235	0x3d2a4fa1	0.041579846
236	0x3d8b82ff	0.06812095
237	0x3d1efa77	0.03881308
238	0x3d1f2cd9	0.03886113
239	0xbdb99b44	-0.09062818
240	0xbbe1d040	-0.0068912804
241	0xbc795ae7	-0.015219427
242	0x3c503f36	0.012710383
243	0x3d51bb97	0.05120429
244	0x3cebc813	0.028781926
245	0x3d02b56b	0.031911295
246	0x3da92a9e	0.08260082
247	0xbcce00c8	-0.025146857
248	0xbbfc5b6e	-0.007701329
249	0xbd130202	-0.035890587
250	0x3da5c590	0.08094323
251	0xbc54aecb	-0.012981127
252	0xb8ec8aa7	-0.00011279183
253	0x3bd98f05	0.0066393637
254	0x3daf2740	0.08552408
255	0x3c8c49f3	0.017125105

fcs1.bias f4 [256]
0	0x3d7c2d89	0.061566863
1	0x3e2f618c	0.17127055
2	0xbe070db9	-0.13188829
3	0x3dec6d09	0.11544234
4	0xbd66ce32	-0.056348987
5	0xbe424ba2	-0.18974164
6	0xbdfe28fa	-0.124101594
7	0xbd84b82f	-0.06480443
8	0x3bbff5ae	0.0058581447
9	0x3e184869	0.14871372
10	0xbdc51169	-0.09622461
11	0xbd0781fb	-0.033082943
12	0x3dc59e44	0.096493274
13	0xbd3b550b	-0.0457354
14	0x3ce2de8c	0.02769401
15	0xbd4a87f8	-0.049446076
16	0xbd854acf	-0.06508409
17	0xbe03ddd1	-0.12877585
18	0x3e226f75	0.1586283
19	0xbd628531	-0.055302802
20	0x3ae90462	0.0017777795
21	0x3d2ad918	0.041710943
22	0x3cbe6298	0.023240373
23	0xbd4b2714	-0.049597815
24	0xbdb69b36	-0.08916323
25	0xbdf0a5a4	-0.117503434
26	0x3c8f975f	0.017528234
27	0xbb9b2de7	-0.0047356966
28	0x3d3a1745	0.045432348
29	0x3dca0daf	0.09865891
30	0x3db82208	0.08990866
31	0xbdb26f95	-0.08712689
32	0xbe09a9a1	-0.13443615
33	0xbde49d7a	-0.11162849
34	0x3cb5eaea	0.022206742
35	0x3cf9d5c4	0.03049744
36	0x3e12f7cb	0.14352338
37	0x3dedec2a	0.1161731
38	0xbdfa8228	-0.122318566
39	0x3dfd5f1d	0.12371657
40	0xbd9b69df	-0.07588553
41	0xbdae034c	-0.084967226
42	0x3e0db5c0	0.13838863
43	0xbde5147c	-0.11185548
44	0xbd87441a	-0.06604786
45	0xbe110b85	-0.1416455
46	0x3dce227f	0.10065173
47	0x3e07436b	0.13209312
48	0x3e020742	0.12698081
49	0xbcc26971	-0.023731919
50	0xbe24f423	-0.16108756
51	0x3d513baf	0.05108231
52	0xbe0a2948	-0.1349231
53	0xbe327b93	-0.17429952
54	0xbe145242	-0.14484504
55	0x3e1b1f2d	0.15148611
56	0xbd28963b	-0.041158896
57	0x3c904f77	0.017616017
58	0x3b6d3d9e	0.0036200057
59	0xbc25dcd6	-0.010123452
60	0xbde4d127	-0.11172705
61	0x3dbf233b	0.093328916
62	0xbe1c74f9	-0.15278997
63	0xbc16dcbb	-0.0092079
64	0xbdf2b749	-0.11851365
65	0xbdc92f84	-0.09823516
66	0x3db2feef	0.08740031
67	0x3e00392d	0.12521811
68	0x3d9d5501	0.07682229
69	0x3d5b3922	0.053521283
70	0x3dfdb89b	0.12388726
71	0x3de2bc82	0.11071111
72	0xbcfef7a2	-0.03112394
73	0xbd9d362e	-0.076763496
74	0x3c8851bc	0.016640536
75	0x3e079eff	0.13244246
76	0x3dcf1729	0.10111839
77	0xbc7e0981	-0.015505196
78	0x3e3b3e81	0.18285562
79	0xbe2c8ee9	-0.16851391
80	0x3d8d9298	0.06912726
81	0x3df29ac4	0.118459255
82	0xbbcc0994	-0.0062267277
83	0x3d9b7a34	0.07591668
84	0x3dd4a79b	0.10383531
85	0xbdfd5f53	-0.12371697
86	0x3d328142	0.0435803
87	0x3da9d5a7	0.08292704
88	0x3d423eea	0.04742328
89	0x3d3a01f6	0.045412026
90	0x3ddc88dc	0.10768291
91	0x3d46a77c	0.04849957
92	0x3dd72bba	0.10506387
93	0xbe43b1bb	-0.19110768
94	0xbe57a03e	-0.21057221
95	0x3def2ae5	0.11678103
96	0x3e31e823	0.1737371
97	0xbd70475a	-0.058661796
98	0x3ddcb8d6	0.10777442
99	0xbca8de71	-0.02061388
100	0x3df8b2f6	0.12143509
101	0xbcd6c5e5	-0.02621741
102	0x3d97df09	0.074155875
103	0xbdbb2d16	-0.09139459
104	0xbe2791df	-0.16364239
105	0x3d0246bf	0.03180575
106	0xbd713699	-0.05888996
107	0x3da7e83a	0.081985906
108	0x3d1d27c3	0.038367998
109	0xbd5f8845	-0.054573316
110	0x3e222103	0.15832905
111	0x3e40cfca	0.18829265
112	0xbdb8ce69	-0.090237446
113	0x3daf75b3	0.08567371
114	0x3c948873	0.01813147
115	0xbe22a631	-0.1588371
116	0xbc18a3e6	-0.00931642
117	0xbe0eb6a3	-0.13936858
118	0xbca6d3b4	-0.02036462
119	0xbe02f75c	-0.12789673
120	0x3db5826b	0.08862766
121	0x3df6cf48	0.120512545
122	0x3df33c62	0.118767515
123	0x3c8da251	0.017289313
124	0xbe0b007a	-0.135744
125	0x3d8d7bb6	0.069083616
126	0x3dc6c0ba	0.097047284
127	0x3dbb2a69	0.091389485
128	0xbcccc643	-0.024996882
129	0x3e322eb3	0.17400627
130	0xbdc941e1	-0.098270185
131	0xbe2d7778	-0.16940105
132	0x3d62a118	0.055329412
133	0x3e2c5542	0.16829398
134	0xbbc6975b	-0.0060605234
135	0xbd9677fc	-0.07347104
136	0xbe3f4fee	-0.18682835
137	0x3d907856	0.07054202
138	0xbe6a7e41	-0.22899725
139	0xbd620f77	-0.05519053
140	0x3dbb482c	0.09144625
141	0xbd85100d	-0.06497202
142	0xbdf24f9e	-0.11831592
143	0xbdb0ed4a	-0.08639009
144	0x3da9c021	0.08288599
145	0xbd848c2e	-0.0647205
146	0xbd3b3086	-0.045700572
147	0xbd708574	-0.05872102
148	0x3da34843	0.07972767
149	0x3dd06dc5	0.10177187
150	0x3ce909cd	0.028447056
151	0x3c08ab6d	0.008341652
152	0x3c5cddcd	0.013480616
153	0x3de6900e	0.11257945
154	0x3e0b8966	0.13626632
155	0x3d4c13e7	0.049823668
156	0x3db63c1f	0.08898186
157	0xbd84a198	-0.06476134
158	0xbac3f220	-0.0014949478
159	0xbe56de89	-0.20983328
160	0x3bd3f279	0.006468114
161	0xbe20b0eb	-0.15692489
162	0xbd905a16	-0.070484325
163	0xbe3bcbd8	-0.18339479
164	0x3d24d349	0.04024056
165	0x3d3ddc38	0.046352595
166	0x3d9ce538	0.076609075
167	0x3cbe110e	0.023201492
168	0xbc21e07f	-0.009880184
169	0x3e3f7556	0.18697104
170	0xbbc8ed20	-0.006131783
171	0x3d83da7f	0.06438159
172	0x3dbe2328	0.09284049
173	0x3dba5229	0.09097702
174	0x3db91ac1	0.09038306
175	0x3de2f19a	0.11081238
176	0x3db1bf52	0.086790696
177	0xbd7ed9e1	-0.062219504
178	0x3d7a8ba9	0.061168347
179	0xbda31936	-0.07963793
180	0xbbbc12ed	-0.005739561
181	0x3dc2be97	0.095090084
182	0xbe065d28	-0.13121474
183	0xbc96e74a	-0.018420834
184	0xbc037cf0	-0.008025393
185	0xbb220671	-0.0024723078
186	0x3be17eb0	0.0068815574
187	0xbd58b8c0	-0.052910566
188	0xbc5cae9a	-0.013469363
189	0x3e318888	0.17337239
190	0xbd4f7242	-0.050646074
191	0x3d3949db	0.04523645
192	0xbd01e180	-0.031709194
193	0x3e086eff	0.13323592
194	0x3e468dcd	0.1939003
195	0x3c0da918	0.008646272
196	0xbdb78433	-0.08960762
197	0xbd890e6f	-0.06692206
198	0xbd8ab5db	-0.067729674
199	0xbdfdd523	-0.12394168
200	0xbd4f8764	-0.050666228
201	0x3d8e345a	0.06943579
202	0x3cbd580f	0.023113279
203	0xbdbc85d4	-0.09205213
204	0x3dbf4fdb	0.09341403
205	0xbd579769	-0.05263463
206	0xbce464df	-0.02788013
207	0x3dc99f4e	0.09844838
208	0xbda27980	-0.079333305
209	0xbd42cd9e	-0.047559373
210	0x3daefef3	0.085447215
211	0x3d51e45b	0.051243167
212	0x3d9b5127	0.07583838
213	0x3cdb860d	0.026797319
214	0x3d3359d2	0.04378683
215	0x3dcc0d3e	0.09963463
216	0x3ce13080	0.027488947
217	0x3d2665bc	0.040624365
218	0x3cb89596	0.022532266
219	0x3c1e3688	0.009656556
220	0x3de5782a	0.1120456
221	0xbe21dead	-0.158076
222	0xbe21ed91	-0.1581328
223	0xbe0e337a	-0.13886824
224	0x3e2661cc	0.16248244
225	0xbdc4079c	-0.09571764
226	0xbdf3a7b5	-0.11897222
227	0xbcfb1340	-0.030648828
228	0xbdc3cb9d	-0.095603205
229	0x3db8e24a	0.09027536
230	0xbd2e5232	-0.042558856
231	0x3e10e81b	0.14151041
232	0xbe28f6d6	-0.1650041
233	0xbe52ee5d	-0.20598741
234	0x3e0b1811	0.135834
235	0xbe14f91f	-0.14548157
236	0xbae8f3b6	-0.0017772827
237	0x3d3b684e	0.04575377
238	0x3c21f4a2	0.009884985
239	0xbe0cf550	-0.13765454
240	0xbceb39aa	-0.02871402
241	0xbe1b8aa4	-0.15189606
242	0x3e27e56f	0.16396116
243	0xba21f292	-0.00061778084
244	0x3d683444	0.05669047
245	0x3d941aee	0.07231699
246	0x3d3fc83d	0.04682182
247	0x3d597048	0.053085595
248	0x3dd94269	0.1060837
249	0xbe0cd820	-0.1375432
250	0x3dc7848d	0.09742079
251	0xbd66bfba	-0.05633519
252	0x3e20ec88	0.1571523
253	0xbd6769e7	-0.05649748
254	0x3dc5864f	0.09644758
255	0x3e0322e2	0.12806275

fc2.weight f4 [256, 260]
0	0x3ca7a6e3	0.02046532
1	0xbc70a575	-0.0146878855
2	0xbcc01c0b	-0.023450872
3	0x3ca00007	0.019531263
4	0xbb08d075	-0.0020876203
5	0x3d59e89d	0.053200353
6	0xbdbee63b	-0.09321257
7	0xbcc22a27	-0.02370174
8	0x3d937536	0.072000906
9	0xbd1372ac	-0.03599803
10	0x3bea7255	0.0071547427
11	0xbd5c779e	-0.053825013
12	0xbcbcf068	-0.023063853
13	0x3ccff731	0.025386425
14	0xbd153be2	-0.03643406
15	0x3c0d08cc	0.008608054
16	0xbdc280e9	-0.09497244
17	0x3d2ad747	0.04170921
18	0x3d2c380a	0.04204563
19	0xbd970f29	-0.073759384
20	0x391b7a7c	0.00014827581
21	0x3e179ded	0.14806338
22	0xbd816a14	-0.06319061
23	0xbb327e56	-0.0027235947
24	0x3c2b7609	0.0104651535
25	0x3c2ee3f4	0.010674465
26	0xbd33e6b6	-0.043921195
27	0xbd4e3496	-0.05034312
28	0x3dee0d60	0.11623645
29	0x3cca1ebd	0.02467286
30	0xbcca118b	-0.024666568
31	0xbca769ba	-0.020436157
32	0xbd908ce7	-0.07058125
33	0x3bc4c48a	0.0060048746
34	0x3d8d411f	0.068971865
35	0xbdd685cc	-0.104747385
36	0xbd822336	-0.06354372
37	0x3d3898e8	0.045067698
38	0x3d5ac962	0.05341471
39	0x3cb10aae	0.021611538
40	0xbc01332b	-0.007885735
41	0xbc88986c	-0.016674243
42	0x3bd5a32c	0.0065196957
43	0x3a8dd844	0.0010821898
44	0xbcafa48a	-0.021440763
45	0xbd1b69f9	-0.03794286
46	0x3dbde57b	0.092722856
47	0xbc96642d	-0.018358314
48	0x3c87417a	0.016510714
49	0xbd965204	-0.07339862
50	0xbdc646e7	-0.09681492
51	0xbb60630e	-0.0034238729
52	0xbc2de282	-0.010613086
53	0x3d694d07	0.056958225
54	0x3d6fe689	0.058569465
55	0xbd0c2fef	-0.0342254
56	0x3d688892	0.05677087
57	0x3d8797b3	0.06620731
58	0xbc4837f3	-0.012220371
59	0x3d5a8530	0.053349674
60	0xbdc732bf	-0.09726476
61	0x3d394052	0.045227356
62	0x3a068189	0.00051309966
63	0x3c0d0d39	0.00860911
64	0x3d91beb6	0.07116453
65	0xbd8f9117	-0.070100956
66	0xbd090fb3	-0.033462238
67	0x3ca96bbc	0.020681255
68	0xbd0f27a0	-0.0349499
69	0x3ccfae3d	0.025351638
70	0x3c9e0a66	0.019292068
71	0x3daa2a0e	0.083088025
72	0xbb446b22	-0.0029971083
73	0xbd827d3c	-0.06371543
74	0xbe14094d	-0.14456673
75	0xbb838d3f	-0.0040146406
76	0xbdaf04b0	-0.08545816
77	0xbc592551	-0.013253526
78	0xbd8ef6aa	-0.06980641
79	0xbd856671	-0.0651368
80	0x3d79dde0	0.061002612
81	0xbdf70e54	-0.1206328
82	0xbc39f9ee	-0.011351092
83	0xbd1f963e	-0.03896164
84	0x3c278a8f	0.010225906
85	0xbd9ab1c2	-0.07553436
86	0xbdf044b8	-0.11731857
87	0xbc9008ca	-0.017582316
88	0xbbc0460a	-0.0058677243
89	0x3c6297a1	0.013830096
90	0x3cdc36ff	0.026881693
91	0x3b31e8a9	0.0027146733
92	0xbc0cb05b	-0.008586968
93	0xbd93ea2b	-0.07222398
94	0x3c7f9b83	0.015601042
95	0x3c89d6a5	0.016825983
96	0xbbe71f79	-0.0070533124
97	0x3d2be8ad	0.041969944
98	0x3d9bcd0f	0.07607471
99	0xbd499aa9	-0.04921976
100	0xbe7a1aa7	-0.2442423
101	0xbc9dc935	-0.019260982
102	0x3d9e2c27	0.07723265
103	0x3d1f9c85	0.038967628
104	0xbd85ed28	-0.065393746
105	0x3d85ec5e	0.06539224
106	0xbcb07257	-0.021538896
107	0x3d20bb56	0.039241157
108	0x3d31c3c5	0.04339959
109	0xbd48e055	-0.049042065
110	0x3ce7032c	0.028199755
111	0xbd0a44c0	-0.03375697
112	0xbd60869d	-0.054815877
113	0x3d3e9329	0.04652706
114	0xbd752d13	-0.05985744
115	0x3d8fa0b8	0.070130765
116	0x3cb2be49	0.02181925
117	0xb9b85aa8	-0.0003516276
118	0xbd8e88e1	-0.06959701
119	0xbd74e86b	-0.059791964
120	0x3dbb0247	0.09131294
121	0xbd8dc227	-0.06921797
122	0xbd3cdf07	-0.046111133
123	0x3d8091c6	0.06277804
124	0x3d42dd35	0.04757424
125	0x3d4f5dd9	0.05062661
126	0x3d62e4e4	0.05539407
127	0x3d81d879	0.06340117
128	0xbc794018	-0.015213035
129	0x3d074cbb	0.03303216
130	0x3c83f78a	0.016109247
131	0xbd9a7462	-0.075417295
132	0xbd0ac97d	-0.03388356
133	0xbdeed2ef	-0.11661326
134	0x3d4e5cb1	0.050381366
135	0xbd3efe27	-0.046629097
136	0xbd427ecd	-0.047484208
137	0x3d8590bc	0.065217465
138	0x3c39538f	0.011311426
139	0xbb45c04d	-0.0030174435
140	0xbdd6bda7	-0.10485392
141	0x3d49f6b8	0.049307555
142	0x3c87a99a	0.016560365
143	0x3dbab08c	0.09115705
144	0xbd23ee1f	-0.04002201
145	0xbe21c0b0	-0.1579616
146	0x3cd1f5d5	0.025629917
147	0x3be38423	0.006943242
148	0xbd17d898	-0.037071794
149	0x3de2ee5d	0.110806204
150	0xbd1a84a0	-0.037724137
151	0x39e33054	0.0004333282
152	0x3b811fba	0.0039405497
153	0xbce15b7a	-0.02750944
154	0xbb61d23d	-0.0034457587
155	0xbcaad984	-0.020855673
156	0x3d0cb0d0	0.03434831
157	0xbd05f9bc	-0.03270887
158	0xbda95ed3	-0.082700394
159	0xbd85e8e2	-0.065385595
160	0xbd780879	-0.060554955
161	0x3c5a9efd	0.01334357
162	0x3d7817a6	0.060569428
163	0x3bcac300	0.0061877966
164	0xbb2c8380	-0.0026323497
165	0xbdbb812b	-0.09155496
166	0xbdd21f31	-0.102598555
167	0xbccd005a	-0.025024582
168	0xbc2b921e	-0.010471849
169	0xbd83499f	-0.064105265
170	0xbbfd11e3	-0.0077230795
171	0x3da9e869	0.08296282
172	0x3e011505	0.12605675
173	0x3d79519b	0.06086884
174	0x3cf7b177	0.030235989
175	0xbe28e529	-0.16493668
176	0xbd1bada8	-0.03800741
177	0x3d8548e7	0.06508046
178	0x3d9a37b9	0.075301595
179	0xbd877de7	-0.06615811
180	0xbda7ac7f	-0.08187198
181	0x3d7df11d	0.06199752
182	0xbdf7795b	-0.120836936
183	0xbdf5ab7d	-0.119955994
184	0x3d33879d	0.043830503
185	0xbd60656f	-0.054784235
186	0xbd6889a5	-0.056771893
187	0x3de51a1b	0.1118662
188	0x3d2eed49	0.04270676
189	0xbd241a84	-0.04006435
190	0x3b624af9	0.003452955
191	0xbcfb0d94	-0.030646123
192	0x3cc24ca9	0.023718195
193	0x3db2e5f1	0.08735264
194	0xbd9c1cc7	-0.07622676
195	0x3d7ea764	0.062171355
196	0x3cad64c6	0.021166217
197	0xbd314de8	-0.043287188
198	0x3d457bbe	0.048213713
199	0xbc535f36	-0.012901118
200	0xbd16ab2e	-0.036784343
201	0xbd859342	-0.06522228
202	0x39769a5b	0.0002351789
203	0x3c94322a	0.018090326
204	0xbd290cfb	-0.041272145
205	0xbd44bc23	-0.048030984
206	0x3cf0feba	0.029418338
207	0xbd59fa45	-0.05321719
208	0x3d00c153	0.03143437
209	0xbd106cad	-0.03525989
210	0x3c7fd0e4	0.015613768
211	0x3cfe4063	0.031036561
212	0x3d68199e	0.056665055
213	0x3c8b833a	0.017030347
214	0x3d1333cd	0.035938073
215	0xbc621705	-0.013799434
216	0xbdbe74ca	-0.092996195
217	0xbe15bef1	-0.1462362
218	0x3cd3d90b	0.02586033
219	0x3da0e278	0.078556955
220	0xbcf62d9b	-0.030051043
221	0xbc8dcbdc	-0.017309122
222	0x3d58ff19	0.052977655
223	0xbd10fa41	-0.03539491
224	0xbc42b738	-0.011884503
225	0xbc0cce60	-0.0085941255
226	0x3d460cca	0.04835204
227	0x3dcc9905	0.09990124
228	0x3c094e19	0.008380436
229	0xbdaad796	-0.08341901
230	0x3d141a1e	0.03615772
231	0xbce57bc4	-0.028013118
232	0x3dddf615	0.10837952
233	0x3dacb970	0.08433807
234	0x3d4cb5a3	0.04997791
235	0x3cab2144	0.020889886
236	0x3c868b23	0.016423767
237	0xbbb33c26	-0.0054698167
238	0x3d09aab6	0.03361007
239	0xbd8e3220	-0.06943154
240	0x3dbb53cd	0.09146843
241	0xbd0c0b10	-0.034190238
242	0xbbacca40	-0.0052731335
243	0xbc1c5b49	-0.009543248
244	0x3d6a40a4	0.057190552
245	0x3d879bcd	0.066215135
246	0x3d018238	0.031618327
247	0xbd867253	-0.06564774
248	0x3c9146ab	0.017733892
249	0x3b26700b	0.0025396373
250	0xba135834	-0.0005620748
251	0xbd6e8c3f	-0.058239218
252	0x3c111d1e	0.00885704
253	0x3d33ec3d	0.043926466
254	0xbd2b7442	-0.04185892
255	0x3d4b9e59	0.04971156

fc2.bias f4 [256]
0	0xbd4b2831	-0.049598876
1	0x3ca2d654	0.01987759
2	0x3ceaa04a	0.028640885
3	0x3da8b1a2	0.08237006
4	0xbd209db2	-0.03921289
5	0x3c803944	0.015652306
6	0xbcbc61d0	-0.02299586
7	0xbd254419	-0.040348146
8	0xbce73e01	-0.028227808
9	0xbd9a8a48	-0.07545906
10	0x3dcd1329	0.1001342
11	0xbc9d4d5f	-0.019201932
12	0x3c96832e	0.018373098
13	0xbdcbebea	-0.099571064
14	0x39a68fca	0.00031769119
15	0x3ca02214	0.0195475
16	0x3d9fb11c	0.07797453
17	0x3d558820	0.052131772
18	0x3c341241	0.01099068
19	0x3d11d705	0.03560545
20	0x3d993c6a	0.07482226
21	0x3b639c86	0.0034730746
22	0x3c87a634	0.016558744
23	0x3ce7a94c	0.02827897
24	0xbd23c06e	-0.039978437
25	0xbde8c842	-0.11366321
26	0xbd2c0870	-0.042000234
27	0x3dc76412	0.09735884
28	0xbd732928	-0.05936542
29	0x3d0df3b6	0.03465625
30	0x3ca3697c	0.01994776
31	0x3d433493	0.04765756
32	0x3b86fc88	0.0041194595
33	0xbdb61329	-0.08890373
34	0x3ceb3630	0.028712362
35	0xbd2b6400	-0.041843414
36	0xbcf70259	-0.030152487
37	0x3d6c57b4	0.057700828
38	0x3d04a9d2	0.032388516
39	0x3d67b9b4	0.056573585
40	0x3c2366e6	0.009973263
41	0xbda6c769	-0.08143503
42	0x3d94c051	0.07263244
43	0x3d0382d5	0.032107193
44	0xbd90fa71	-0.07079018
45	0xbd9a9f11	-0.07549871
46	0x3d06dfba	0.032928206
47	0xbc7d04d6	-0.0154430475
48	0x3d823eec	0.06359658
49	0x3e002806	0.12515268
50	0xbcec344c	-0.02883353
51	0xbd83f849	-0.06443841
52	0xbdb585ca	-0.08863409
53	0x3d903f90	0.070433736
54	0xbd557e95	-0.05212267
55	0x3de3c260	0.111210585
56	0xbcc57024	-0.024101324
57	0xbdb3a0d5	-0.08770911
58	0x3dd67920	0.104723215
59	0x3c19f601	0.009397031
60	0xbda8f7a3	-0.08250358
61	0xbd83fbac	-0.06444487
62	0x3d134634	0.035955623
63	0x3d4512e9	0.048113737
64	0x3cc07750	0.023494393
65	0x3c41097f	0.011782049
66	0xbcf621ca	-0.030045409
67	0x3c8d122f	0.017220585
68	0x3cf31711	0.029674085
69	0x3d494ea1	0.049147252
70	0x3d65e74f	0.056128796
71	0xbd3440e3	-0.044007193
72	0xbd9f3d25	-0.07775334
73	0x3cbef5fe	0.023310658
74	0x3d24c271	0.040224496
75	0xbcc297ca	-0.02375402
76	0x3d6bf1e0	0.057603717
77	0xbd0e87cc	-0.034797475
78	0x3da5e57c	0.08100411
79	0xbdaf3ff5	-0.08557121
80	0x3da3c6e2	0.07996918
81	0x3c528a80	0.012850404
82	0x3ce9ccc4	0.028540023
83	0xbd27972c	-0.040915653
84	0x3cafb814	0.02145008
85	0x3d848954	0.06471506
86	0x3dc33ad1	0.09532703
87	0xbd231a1e	-0.03981983
88	0x3dd9950f	0.10624134
89	0x3da0283e	0.078201756
90	0x3d43db68	0.047816664
91	0xbce94449	-0.028474944
92	0x3caa237c	0.020768873
93	0xbc6e77a6	-0.014554894
94	0x3c8cd1b1	0.017189832
95	0x3ced7293	0.028985297
96	0xbd52b643	-0.05144335
97	0x3d364406	0.044498466
98	0x3d465452	0.048420258
99	0x3d68eb3b	0.05686496
100	0xbd90818d	-0.0705596
101	0x3dc11b4d	0.09429035
102	0xbc1b4ccf	-0.009478762
103	0xbd124d50	-0.035718262
104	0xbc187d26	-0.009307181
105	0x3db6b9da	0.08922167
106	0xbd16600b	-0.036712687
107	0x3ccc3ba2	0.024930779
108	0x3bc27fa7	0.0059356275
109	0x3c874056	0.01651017
110	0x3bda7044	0.006666215
111	0x3df1dcd4	0.11809698
112	0x3ba9bad6	0.0051797433
113	0x3d54f3e3	0.0519904
114	0x3d19ab3d	0.03751682
115	0xbdc513f2	-0.09622945
116	0xbd7754a8	-0.06038347
117	0xbd92056b	-0.0712994
118	0x3da8eccf	0.08248293
119	0x3ddc01ce	0.10742532
120	0x3d2e3bec	0.042537615
121	0xbbd6d1cd	-0.006555772
122	0xbc253760	-0.010084003
123	0xbd9b9e7d	-0.075985886
124	0xbd6d8653	-0.05798943
125	0x3aa1a3a7	0.0012332097
126	0x3d357e71	0.044310037
127	0x3dbaafcf	0.09115564
128	0xbc61a110	-0.01377131
129	0x3da9fd7c	0.083003014
130	0xbd951f4a	-0.072813585
131	0x3dcff337	0.101538114
132	0x3d1a21f6	0.037630044
133	0x3dafa2b2	0.085759535
134	0xbd9f489d	-0.07777522
135	0xbc8215d3	-0.015879547
136	0xbc91dd12	-0.01780561
137	0xbdc2adb3	-0.09505787
138	0x3d8ffffc	0.07031247
139	0xbd98b157	-0.074557
140	0xbd7e80ca	-0.06213454
141	0xbcd752a9	-0.026284533
142	0xb9d0a40e	-0.00039795082
143	0x3d68792d	0.056756187
144	0x3da1f9b5	0.07908956
145	0xbd762815	-0.06009682
146	0xbdafa4a1	-0.08576322
147	0x3b878368	0.004135538
148	0x3d3b1ecd	0.04568367
149	0xbcf65cab	-0.030073484
150	0xbdb114ec	-0.08646569
151	0x3d088790	0.033332407
152	0xbde79441	-0.11307574
153	0x39d45e94	0.00040506257
154	0xbd2a3554	-0.041554764
155	0x3d9c37cb	0.07627829
156	0x3d19e8b0	0.037575424
157	0xbd165d34	-0.03670998
158	0x3d0150c8	0.03157118
159	0xbc2611cc	-0.010136079
160	0x3ca11269	0.019662099
161	0x3c6617cc	0.01404376
162	0xbd946d14	-0.072473675
163	0xbda531c6	-0.08066134
164	0xbe01f810	-0.12692285
165	0x3debb856	0.11509769
166	0xbdbaa4b2	-0.091134444
167	0xbd810d32	-0.06301345
168	0xbdc1fa96	-0.094716236
169	0x3c41819f	0.011810689
170	0x3d8f8624	0.07008007
171	0xbb60637a	-0.003423898
172	0x3d9b6c1c	0.075889796
173	0xbd6402ef	-0.05566686
174	0xbc1e725d	-0.009670821
175	0xbc410f56	-0.0117834415
176	0xbd93faff	-0.07225608
177	0x3dca3f7b	0.09875389
178	0x3d2cd537	0.042195525
179	0xbdb100b5	-0.08642713
180	0x3d3972c8	0.04527548
181	0xbdba9978	-0.09111303
182	0x3d3888cc	0.045052335
183	0xbd14d559	-0.036336277
184	0xbdb664a9	-0.08905918
185	0xbcf4c432	-0.02987871
186	0xbd7a8f1c	-0.061171636
187	0x3ce9f57a	0.028559435
188	0xbd3b0c2c	-0.045665905
189	0xbd18208e	-0.03714042
190	0x3c8919b8	0.016735896
191	0x3c18b1c3	0.009319725
192	0x3db73f3a	0.089476064
193	0xbb46c46c	-0.003032948
194	0x3d7dff5f	0.06201112
195	0x3c68a9a2	0.0142006
196	0xbd45c84d	-0.048286725
197	0x3bc1236c	0.005894115
198	0xbd5a247c	-0.05325745
199	0x3bb2c209	0.0054552597
200	0x3daab4ee	0.08335291
201	0xbdc21fe6	-0.094787404
202	0xbb9cfd78	-0.004790958
203	0xbda4fca5	-0.080560006
204	0xbd64022f	-0.055666145
205	0xbcb0db63	-0.021588987
206	0xbca4bac1	-0.020108582
207	0xbce10dba	-0.027472366
208	0x3ca1cca7	0.019750906
209	0xbd30a0d1	-0.043122116
210	0xbd0f04ab	-0.03491656
211	0x3ca7d66e	0.02048799
212	0xbdd4b5a7	-0.1038621
213	0xbd807ec7	-0.06274181
214	0xbd06e9b9	-0.03293774
215	0x3cdd3142	0.027001027
216	0xbcc92da2	-0.024557892
217	0xbc383ee0	-0.011245459
218	0x3d5a0e83	0.053236496
219	0xbdae7142	-0.08517696
220	0xbb9086f1	-0.0044106175
221	0x3d72ba34	0.05925961
222	0x3d762daa	0.060102142
223	0x3d27fbec	0.041011736
224	0x3d3feca6	0.046856545
225	0xb7af8c5c	-2.0926986e-05
226	0xbc9a38da	-0.018825937
227	0xbd82a040	-0.063782215
228	0x3c87e36b	0.016587934
229	0x3da636e8	0.08115941
230	0xba90e6b7	-0.0011055087
231	0x3c283499	0.0102664465
232	0x3ddf257e	0.10895823
233	0x3d08fa15	0.03344162
234	0xbd848dc7	-0.064723544
235	0xbb35066e	-0.002762224
236	0x3c868940	0.016422868
237	0x3ca885b8	0.020571575
238	0x3d287260	0.0411247
239	0xbc9927fc	-0.018695824
240	0x3d995196	0.074862644
241	0x3d16afc6	0.036788724
242	0xbcf180f5	-0.029480437
243	0x3d1f8ec4	0.03895451
244	0x3dea9c50	0.114555955
245	0xbd3225a8	-0.043492943
246	0x3cabc633	0.020968532
247	0xbc243b52	-0.010023909
248	0xbc433dcd	-0.01191659
249	0x3dafcc1c	0.08583853
250	0x3d4ad75a	0.04952178
251	0xbd0e862c	-0.034795925
252	0xbd28fe6d	-0.041258264
253	0xbda4e342	-0.080511585
254	0x3ce114f0	0.027475804
255	0x3d8f8cb1	0.07009257

fc3.weight f4 [128, 256]
0	0xbd732afc	-0.059367165
1	0xbdaeae88	-0.08529383
2	0x3d020230	0.031740367
3	0xbd1778b9	-0.036980364
4	0xbd4d67a7	-0.05014768
5	0x3d2df748	0.042472154
6	0x3d7e1865	0.062034983
7	0xbe1d6cb4	-0.15373498
8	0x3daca39c	0.084296435
9	0x3d8b6fda	0.06808443
10	0x3d4d790a	0.05016426
11	0x3d51472b	0.05109326
12	0xbe559d6d	-0.20860834
13	0x3d827f5d	0.06371949
14	0x3cb53eca	0.022124667
15	0xbe36ac93	-0.1783927
16	0xbe0219b1	-0.12705113
17	0x3d852817	0.06501787
18	0xbda9f751	-0.08299125
19	0xbda0f5b6	-0.07859366
20	0x3e0b44a0	0.13600397
21	0xbe1a15cd	-0.15047379
22	0x3d48d915	0.04903515
23	0xbdcb0c5e	-0.09914468
24	0x3d9d36bb	0.07676455
25	0xbd7e0686	-0.06201794
26	0xbe348ed7	-0.17632614
27	0x3d5bf6cf	0.053702172
28	0xbd4bd785	-0.049766082
29	0xbd04da8b	-0.03243498
30	0xbdd04aed	-0.10170541
31	0xbd91948b	-0.071084104
32	0xbdeb9ac1	-0.11504126
33	0x3d60ab78	0.054851025
34	0x3e15a50e	0.14613745
35	0xbd5520a7	-0.052033093
36	0x3daacce5	0.08339862
37	0xbc2cda50	-0.010550097
38	0x3e0595f9	0.13045491
39	0x3e10423d	0.14087768
40	0x3d5c0959	0.053719852
41	0xbb7b3697	-0.0038332099
42	0xbdb5e88e	-0.08882247
43	0x3cc94e87	0.024573578
44	0x3d857dac	0.06518111
45	0x3dcbbe25	0.099483766
46	0x3ddf05cc	0.108897775
47	0x3dc68e21	0.09695078
48	0xbd6c1890	-0.057640612
49	0xbc13d6bd	-0.009023366
50	0x3d1c447f	0.03815126
51	0x3d2f4368	0.042788893
52	0x3debb428	0.115089715
53	0xbc3a37f7	-0.011365882
54	0x3dbb5d61	0.0914867
55	0x3da8b1c8	0.08237034
56	0x3cafb74d	0.02144971
57	0x3d2faa1f	0.04288685
58	0x3d7aeebf	0.061262842
59	0xbd711fbe	-0.058868162
60	0xbcad7b4d	-0.021176958
61	0x3df3e085	0.11908058
62	0xbd1f4b06	-0.038889907
63	0x3d1cbba2	0.038264878
64	0x3c9877ba	0.018611778
65	0xbd8917f5	-0.066940226
66	0x3d8ac306	0.06775479
67	0x3c9dcf35	0.019263843
68	0x3dae6435	0.08515207
69	0x3d54b36a	0.051928915
70	0xbe82b80e	-0.25531048
71	0x3e21d2ad	0.15803023
72	0x3d4f716a	0.05064527
73	0xbdeab286	-0.11459832
74	0x3d8438b9	0.064561315
75	0xbd9c0bd0	-0.076194406
76	0x3b420139	0.002960278
77	0x3d68f942	0.056878336
78	0xbdc5fb7f	-0.0966711
79	0xbd08ceda	-0.033400394
80	0xb9db4552	-0.00041822583
81	0xbd8ffaa4	-0.07030228
82	0xbca82c49	-0.02052893
83	0xbcf9307b	-0.030418625
84	0xbd6b4137	-0.05743524
85	0x3d9588ed	0.07301507
86	0x3c2b49ee	0.010454638
87	0x3bd12e4a	0.006383692
88	0xbcb3057d	-0.021853203
89	0x3c248ef6	0.01004385
90	0xbd270b9d	-0.04078256
91	0xbd8356f5	-0.0641307
92	0x3d5775f9	0.052602742
93	0xbcf7284d	-0.030170584
94	0xbd46065c	-0.04834591
95	0xbced4bb8	-0.02896677
96	0xbdb320d2	-0.08746494
97	0xbdecb38e	-0.11557685
98	0xbdec3d5d	-0.115351416
99	0xbe172ad3	-0.1476243
100	0x3cc62390	0.02418688
101	0x3d5d9f65	0.05410709
102	0xbd50af78	-0.05094859
103	0xbd15df57	-0.036589947
104	0xbd470166	-0.048585318
105	0xbda6e4df	-0.081491224
106	0xbc6acafb	-0.014330621
107	0xbca52a6f	-0.020161835
108	0x3bc362f5	0.0059627243
109	0x3c1571a1	0.0091213295
110	0x3b8ff201	0.004392863
111	0xbcc99fc8	-0.024612322
112	0xbcc2c66d	-0.023776257
113	0x3db736ad	0.089459755
114	0xbd529d6b	-0.051419657
115	0x3d79186b	0.060814302
116	0xbc6ce944	-0.014459912
117	0x3d811731	0.063032515
118	0xbe30cec2	-0.17266372
119	0xbdcbe778	-0.099562585
120	0x3d9ca10d	0.076479055
121	0x3cfa030d	0.030519033
122	0xbd7d4ea8	-0.06184259
123	0x3ced4f8c	0.028968595
124	0x3d1bad5d	0.03800713
125	0xbd8edc1d	-0.06975577
126	0x3be43cd5	0.0069652596
127	0xbddf9fc9	-0.109191485
128	0xbcb6a9fa	-0.022297848
129	0x3cb401a8	0.021973446
130	0x3d870bb6	0.065940306
131	0x3db27b82	0.087149635
132	0xbd60089e	-0.054695718
133	0xbd1442c9	-0.036196504
134	0x3d9f7534	0.077860266
135	0xbe333f81	-0.17504694
136	0xbdae95c4	-0.08524659
137	0x3c44bc85	0.012007837
138	0x3cb8dcbf	0.022566197
139	0x3d93ea2f	0.07222401
140	0xbd40c9ca	-0.04706744
141	0x3de0b2bf	0.10971593
142	0x3e1509a8	0.14554465
143	0x3d5f38e7	0.054497626
144	0x3ce4aa41	0.027913215
145	0x3d918680	0.07105732
146	0xbde34690	-0.11097443
147	0xbd31777f	-0.04332685
148	0xbe049258	-0.1294645
149	0x3d0579d7	0.0325869
150	0x3c960053	0.018310701
151	0xbd65e134	-0.056122974
152	0xbdff2e1f	-0.12459969
153	0xbac5b462	-0.0015083665
154	0x3dbd2ddb	0.09237262
155	0xbdc95381	-0.0983038
156	0xbcd88668	-0.026431277
157	0xbd7c26a9	-0.061560307
158	0xbc814e11	-0.015784295
159	0x3ddd2b42	0.107992664
160	0x3c976b08	0.018483654
161	0xbd23403e	-0.039856188
162	0x3cf98848	0.030460492
163	0x3d1f09ff	0.038827892
164	0xbcaa11e6	-0.020760488
165	0xbda6b933	-0.08140793
166	0xbd93b1ce	-0.07211648
167	0xbcd63c32	-0.02615175
168	0xbdcb666e	-0.09931646
169	0xbd3cb9ce	-0.046075635
170	0x3d81d0dd	0.06338666
171	0xbe1b4dec	-0.15166444
172	0x3ca36cb1	0.019949289
173	0x3da1ab64	0.07894018
174	0x3d16092b	0.036629837
175	0x3d66510e	0.056229644
176	0xbc2c917d	-0.010532734
177	0x3da28084	0.07934669
178	0x3e184bf6	0.14872727
179	0xbcc25127	-0.023720337
180	0x3d9d8c3b	0.076927625
181	0xbd00c126	-0.0314342
182	0xbd61356d	-0.05498259
183	0xbd26ff72	-0.040770955
184	0x3e058e32	0.13042524
185	0x3ca3cdf0	0.01999566
186	0x3d0d2e78	0.034468144
187	0x3ccb1246	0.024788987
188	0xbce9334a	-0.02846684
189	0x3d6078e3	0.054802787
190	0x3d219ae9	0.039454374
191	0xbc94f824	-0.018184729
192	0x3d0da905	0.034585018
193	0xbc8380e4	-0.01605267
194	0x3e1b7c91	0.15184237
195	0x3d5f8ed4	0.05457957
196	0x3d052022	0.032501347
197	0x3d0669e2	0.03281582
198	0xbe03c63a	-0.12868586
199	0xbcaf2933	-0.02138195
200	0x3d0b8a93	0.0340677
201	0x3c99d55c	0.018778495
202	0x3de44b96	0.111472294
203	0x3d63895f	0.05555093
204	0xbcb4cf46	-0.022071492
205	0x3c68e511	0.01421477
206	0xbd8d5fe3	-0.069030546
207	0xbd0b984b	-0.034080785
208	0x3ada1f29	0.0016641367
209	0x3c4c41c5	0.012466853
210	0x3ced023c	0.02893173
211	0x3ddddb5f	0.10832857
212	0x3d1578e8	0.03649226
213	0xbe267759	-0.16256465
214	0x3d2a7eae	0.041624717
215	0x3d9d7482	0.07688238
216	0x3dcae826	0.0990756
217	0x3cd991a1	0.0265587
218	0x3d78fa77	0.060785737
219	0xbcb1295c	-0.021626167
220	0xbd1af547	-0.03783157
221	0xbcd46a21	-0.025929512
222	0x3bf3f00e	0.0074443882
223	0xbd524002	-0.051330574
224	0xbd5b1031	-0.05348224
225	0x3c4069ae	0.011743946
226	0xbd5d8204	-0.05407907
227	0xbc02e3da	-0.007988894
228	0x3bb59a5d	0.005542083
229	0xbdf46840	-0.119339466
230	0xbc95235b	-0.018205335
231	0xbdeef05d	-0.116669394
232	0xbde70959	-0.1128108
233	0x3cc80320	0.024415553
234	0x3d820ef3	0.063505076
235	0x3d4e4c3f	0.050365683
236	0xbdb0fd26	-0.08642034
237	0x3d905860	0.07048106
238	0x3d8ae7a3	0.067824624
239	0x3e18b044	0.1491099
240	0xbdc9b473	-0.09848871
241	0xbd2191c3	-0.03944565
242	0xbca3c436	-0.019991022
243	0xbcd77031	-0.026298614
244	0x3d717db0	0.058957756
245	0xbd47eff8	-0.048812836
246	0x3cd142f2	0.025544617
247	0x3bb8b831	0.0056371917
248	0xbdb826bd	-0.08991764
249	0xbd48f5a3	-0.049062382
250	0x3a6117b3	0.00085866003
251	0x3df4a7c4	0.11946061
252	0xbdb2f80e	-0.08738719
253	0x3d9c1c67	0.07622605
254	0x3d59ba3f	0.053156134
255	0xbbb16099	-0.0054131267

fc3.bias f4 [128]
0	0x3dd0e5d0	0.10200083
1	0x3d77761b	0.06041537
2	0xbdfdc93f	-0.123919
3	0x3e094524	0.13405281
4	0xbd7c8c2b	-0.061657112
5	0x3cc26529	0.023729878
6	0xbdfc0022	-0.12304713
7	0x3d895baf	0.067069404
8	0x3e1d9234	0.15387803
9	0xbdd35336	-0.103186056
10	0x3e0e6ed2	0.13909462
11	0x3d0d416b	0.034486216
12	0x3ce3418d	0.027741218
13	0x3e38aaf2	0.1803396
14	0xbdc43981	-0.095812805
15	0x3d988e24	0.07448986
16	0xbc036f28	-0.008022107
17	0x3e451c9b	0.19249193
18	0x3deffd40	0.117182255
19	0x3e4829f0	0.19547248
20	0x3deb2b40	0.11482859
21	0x3e279ae8	0.16367686
22	0x3df81964	0.12114218
23	0xbdb86a6b	-0.090046726
24	0xbdd2315e	-0.10263322
25	0x3de145e3	0.10999658
26	0xbdf7980d	-0.12089548
27	0x3dc1ec5a	0.094689086
28	0xbe13461d	-0.14382215
29	0x3decef80	0.115691185
30	0x3e2cfac8	0.1689254
31	0x3d0f7e7d	0.035032738
32	0x3e122d76	0.14275154
33	0x3da6440c	0.08118448
34	0x3e1cabe0	0.1529994
35	0x3db27933	0.08714523
36	0x3e239305	0.15974052
37	0xbd616740	-0.055030107
38	0x3debce1c	0.115139216
39	0xbdd4f2aa	-0.10397847
40	0xbe0eae92	-0.13933781
41	0x3e066467	0.13124238
42	0xbe201fe1	-0.15637161
43	0x3e26aadd	0.16276117
44	0xbdf1b9de	-0.118030295
45	0xbcc9289e	-0.0245555
46	0x3e5eae40	0.21746159
47	0x3d65a618	0.056066602
48	0x3dc390eb	0.09549125
49	0xbda7c0f8	-0.08191103
50	0x3d3e6e5b	0.046491962
51	0xbd8a9f64	-0.067686826
52	0x3ddc5e0b	0.10760125
53	0x3e299289	0.16559805
54	0xbd193cd2	-0.03741152
55	0x3db1d3f4	0.08683005
56	0x3dc9b745	0.09849409
57	0xbde6ff9a	-0.11279221
58	0x3c9935a4	0.018702336
59	0x3db6e214	0.0892984
60	0xbd147608	-0.036245376
61	0xbdb1e8f2	-0.08687009
62	0x3d7e17bd	0.062034357
63	0x3df10b79	0.11769766
64	0x3d9ae94a	0.075640276
65	0xbd9a2a5a	-0.07527609
66	0x3d94fc8f	0.07274734
67	0xbde98d0f	-0.11403858
68	0x3e0f15c3	0.13973145
69	0xbd47c559	-0.04877219
70	0x3d2498e2	0.040184863
71	0x3e033326	0.1281248
72	0x3de1647b	0.11005493
73	0x3d11ed50	0.03562671
74	0xbe0d6120	-0.13806581
75	0x3e319fc0	0.17346096
76	0xbe11794c	-0.14206427
77	0x3dc0ce47	0.09414344
78	0x3e5dc89f	0.21658562
79	0xbe01ac1a	-0.12663308
80	0xbdc731cc	-0.09726295
81	0xbd0dd3ad	-0.034625698
82	0x3e5335ed	0.2062604
83	0xbda85ded	-0.0822104
84	0xbde5721b	-0.112034045
85	0x3dd68979	0.104754396
86	0x3d80ca70	0.06288612
87	0x3e28eabf	0.16495799
88	0x3dbc9384	0.09207824
89	0xbe2e7438	-0.17036521
90	0xbc9f9d45	-0.019484172
91	0xbdfef5e9	-0.124492474
92	0x3e4eee18	0.20208013
93	0x3d7ef1a4	0.062242165
94	0xbdf4987a	-0.11943145
95	0xbde4ef77	-0.11178487
96	0x3d87345b	0.06601783
97	0xbdd3f197	-0.10348814
98	0x3d8290b4	0.06375256
99	0xbc467868	-0.012113668
100	0x3e39e581	0.18153955
101	0xbd6c3963	-0.057671916
102	0x3dcfb336	0.10141604
103	0xbd7ba27e	-0.06143426
104	0xbe274249	-0.1633388
105	0x3d94efa7	0.072722726
106	0x3b065fdf	0.002050392
107	0x3d3c11ca	0.045915402
108	0x3dff96b4	0.12479916
109	0xbd48edfe	-0.049055092
110	0xbd22fa77	-0.039789643
111	0x3dfc1835	0.123093046
112	0xbdd9521e	-0.10611366
113	0x3d91cf13	0.071195744
114	0x3e259629	0.16170563
115	0x3df1bb8d	0.118033506
116	0x3d1f4d4d	0.03889208
117	0x3e39a8a7	0.18130742
118	0x3e2b9b37	0.16758429
119	0xbd8bfcdc	-0.068353385
120	0x3d9231a7	0.07138377
121	0x3dcb1571	0.09916199
122	0x3d66652c	0.05624883
123	0x3e3c86dc	0.1841082
124	0x3df403a5	0.11914758
125	0x3e0d21cc	0.13782424
126	0x3e2c9f4a	0.16857639
127	0x3dbd5b98	0.09245986

fc4.weight f4 [1, 128]
0	0x3e0aa74c	0.13540381
1	0x3df13b6b	0.11778911
2	0xbe323be0	-0.17405653
3	0x3e332edc	0.17498344
4	0xbd87698e	-0.0661193
5	0xbe3759c5	-0.17905338
6	0xbdf13249	-0.11777169
7	0x3dab83f5	0.08374778
8	0x3e040174	0.1289118
9	0xbde97bd2	-0.1140057
10	0x3db1953e	0.08671044
11	0x3e029b4c	0.12754554
12	0x3e352b65	0.17692335
13	0x3d9f0ee8	0.07766515
14	0xbe16aaad	-0.14713545
15	0x3d9609f1	0.07326115
16	0xbe021e94	-0.12706977
17	0x3dbbd707	0.091718726
18	0x3e3dc008	0.18530285
19	0x3dcc1f25	0.09966878
20	0x3db7d375	0.08975879
21	0x3dc8e0e0	0.098085165
22	0x3e20fbab	0.15721004
23	0xbe57c810	-0.21072412
24	0xbe11bdcb	-0.14232557
25	0x3e0184b9	0.12648286
26	0xbd99af06	-0.07504086
27	0x3d5d75f0	0.054067552
28	0xbde6eafa	-0.11275287
29	0x3e2343be	0.1594381
30	0x3e02d425	0.12776239
31	0x3dcddfdb	0.10052463
32	0x3db0682b	0.086136185
33	0x3e09695a	0.13419095
34	0x3db40511	0.08790029
35	0x3dfd0b0d	0.123556234
36	0x3dca290c	0.0987111
37	0xbdd3a67d	-0.103344895
38	0x3e1b3a1f	0.1515889
39	0xbe16e49a	-0.14735642
40	0xbe165d7f	-0.14684103
41	0x3e06137d	0.13093372
42	0xbe18edd3	-0.14934473
43	0x3e2bdc3e	0.16783234
44	0xbe6e7e1a	-0.23290291
45	0xbe21b8ee	-0.15793201
46	0x3d9653e4	0.073402196
47	0x3e23f4d2	0.1601136
48	0x3dc845f3	0.09778967
49	0xbe2b2404	-0.16712958
50	0x3dbf5929	0.09343178
51	0xbdfcc9e5	-0.12343196
52	0x3e174119	0.14770927
53	0x3e0ded72	0.1386011
54	0xbddd1adf	-0.10796141
55	0x3dd7a59f	0.105296366
56	0x3e210d75	0.1572779
57	0xbd837f2d	-0.06420741
58	0x3dc77762	0.09739567
59	0x3de44d04	0.11147502
60	0xbe0e8929	-0.1391951
61	0xbe38650b	-0.18007295
62	0x3dca94b9	0.09891648
63	0x3e18337c	0.1486339
64	0x3dba446d	0.090950824
65	0xbe32ff14	-0.17480117
66	0x3e2460d3	0.1605256
67	0xbe2a157a	-0.16609755
68	0x3e0f97a4	0.1402269
69	0xbe2a3426	-0.16621456
70	0x3dfe9bd9	0.12432069
71	0x3e1aa342	0.1510134
72	0x3dadad3e	0.08480309
73	0x3dec564d	0.11539898
74	0xbe0fe92e	-0.14053795
75	0x3dcaf1f1	0.09909428
76	0xbde24241	-0.11047793
77	0x3de2b44e	0.11069547
78	0x3da1f323	0.07907703
79	0xbe034da4	-0.12822586
80	0xbdcb05ee	-0.099132404
81	0xbdec7219	-0.115452
82	0x3da4b5c7	0.08042484
83	0xbdf0c344	-0.11755994
84	0xbdcaa0b6	-0.098939344
85	0x3e0697e8	0.13143885
86	0x3de5a88d	0.11213789
87	0x3de10260	0.10986781
88	0x3de1dd4c	0.11028537
89	0xbdf16601	-0.11787034
90	0xbe7574a0	-0.2397027
91	0xbe30228c	-0.17200679
92	0x3d6c79d3	0.057733368
93	0x3dce9b61	0.1008823
94	0xbde231ce	-0.11044656
95	0xbe2fbec3	-0.17162614
96	0x3dcb5a32	0.09929313
97	0xbe16d225	-0.14728601
98	0x3ded109b	0.11575433
99	0xbe656b59	-0.22404231
100	0x3db64d5b	0.08901473
101	0xbde2fd68	-0.1108349
102	0x3da952f1	0.08267773
103	0xbe6af20d	-0.22943898
104	0xbdce8f97	-0.10085981
105	0x3e254c37	0.16142355
106	0xbe31ff84	-0.17382628
107	0x3e04e96a	0.12979665
108	0x3dcdf851	0.10057128
109	0xbdb934b1	-0.09043253
110	0xbdbc682c	-0.09199557
111	0x3dff9110	0.1247884
112	0xbdf2dd89	-0.11858661
113	0x3dc3fa1d	0.0956919
114	0x3e08596a	0.13315359
115	0x3d8d335b	0.06894561
116	0x3d9c1626	0.07621412
117	0x3d9fdb5f	0.078055136
118	0x3daf0c91	0.08547319
119	0xbda1037f	-0.07861995
120	0x3dd3dfbd	0.10345409
121	0x3dc132d4	0.09433523
122	0x3de48bba	0.11159463
123	0x3e04aac2	0.12955764
124	0x3d94e0cf	0.07269441
125	0x3e1a8b02	0.1509209
126	0x3e28f8ad	0.16501112
127	0x3e3340f2	0.17505243
