checkpoints/ddpg/115_checkpoint_actor_solved.pth (torch_old, 39737 bytes, 4 tensors)

fc1.weight f4 [256, 33]
-0.034732748 0.19920814 0.12251207 -0.16000484 0.08741321 0.017985258 0.04464983 -0.19574352
-0.043401033 -0.0910529 0.07028298 0.11571716 0.030742407 0.22898291 0.27689782 -0.084460944
0.052933592 0.0061698756 0.007906449 0.018218786 -0.0059824237 0.1314641 -0.0016218986 -0.09837749
-0.0059118667 -0.010622204 0.11126169 -0.07085967 0.18052955 -0.0065344498 0.12571831 0.0086537525
-0.41286087 0.094414845 0.21991643 0.005901942 -0.12606052 -0.01751023 -0.06738198 -0.06477644
-0.19175124 0.09547178 -0.037162043 -0.11753189 -0.016469426 0.02545779 -0.06526256 -0.19410954
-0.024402848 0.0067351568 0.007880225 0.02976654 0.028259024 -0.17899758 -0.123315305 -0.0018986717
0.031585336 -0.13436636 0.05184224 -0.17185056 0.19485018 0.14161006 0.013488539 -0.14138345
-0.022182167 -0.7645882 0.070670225 0.015846286 0.054190133 0.009808671 -0.008686999 0.07487185
0.058400556 -0.0070950435 0.15756503 -0.09726817 -0.03715509 0.12878272 0.06164832 0.028145006
-0.1551941 0.040105257 0.018395968 0.036631994 0.030187707 -0.03607153 -0.11639002 -0.0016428666
0.012295997 -0.04483908 -0.16190842 0.012611978 0.22400682 0.033262502 0.06905896 -0.01803013
-0.040733207 -0.052846245 0.87098926 0.005932036 0.07271821 -0.0743101 -0.08681526 0.09932851
0.06329098 -0.18835652 0.20607051 0.22313105 0.1552705 0.23759674 -0.084765434 -0.16524279
0.17168921 0.0964294 -0.10009006 0.15389855 -0.06690704 -0.03874706 -0.0035197276 -0.026188752
0.25382283 -0.027435176 0.30945665 0.0664569 0.07379231 0.02392721 -0.15541482 0.048315637
-0.022140577 0.0718352 0.011716023 -0.46785262 0.045960717 -0.19205742 -0.092463546 0.1126509
0.028092334 -0.050909996 0.107456006 0.10355036 0.24385953 0.060623366 0.06624284 -0.17589435
-0.08291774 0.061275836 -0.039834403 0.098447695 -0.026499579 -0.065383494 -0.050603583 0.119146995
0.12441165 -0.15133709 0.29448336 0.038215168 -0.01598707 0.18783453 0.19949071 -0.12615222
-0.032966897 -0.04781293 0.13586639 -0.016671002 -0.55973274 -0.03398913 0.04488906 -0.16574693
-0.09821227 -0.2423718 -0.16176897 -0.11225514 -0.042555124 0.1149502 -0.11905778 0.039465535
0.0012325989 -0.019673545 -0.15296796 0.10673295 -0.1164691 -0.12993696 -0.08937191 0.058808636
-0.074893616 -0.05468984 -0.16362269 0.06973697 -0.3665465 -0.1002169 -0.15326977 -0.09960015
0.09910166 0.07511321 -0.021668285 -0.16308424 -0.055907488 0.8615814 0.20931597 0.06218619
-0.019096693 -0.015748868 0.05988449 -0.064812444 -0.0054831086 -0.063385405 -0.110115804 0.004369421
-0.060031105 -0.030815318 0.03215927 0.036163032 -0.25495172 0.064228505 -0.13773625 -0.009729111
-0.046382252 -0.0399388 -0.14171377 0.08606402 -0.039615106 0.16293384 -0.018457862 -0.00065736077
-0.16803761 -0.06908449 0.23626898 0.061117433 0.11960931 -0.018059924 0.14005862 0.02990954
-0.03695248 0.24527498 0.0010361274 -0.123777814 0.03358882 0.08266125 0.19475007 -0.21263014
-0.18217245 -0.23259209 -0.18256237 -0.025547573 0.021566601 -0.1382008 0.11684692 0.029595865
-0.060757566 -0.080851115 -0.035673857 0.06106435 0.0029263385 -0.071678296 -0.10938103 -0.14718197
00000000: ed43 0ebd 38fd 4b3e 9ce7 fa3d 4fd8 23be
00000010: b205 b33d d255 933c bde2 363d fd70 48be
00000020: 48c5 31bd f179 babd 86f0 8f3d 1efd ec3d
00000030: 80d7 fb3c 7f7a 6a3e 8dc5 8d3e dcf9 acbd
00000040: e5d0 583d ab2c ca3b 0d8a 013c 903f 953c
00000050: 3508 c4bb 869e 063e e395 d4ba 237a c9bd
00000060: 55b8 c1bb c108 2ebc 2bdd e33d e01e 91bd
00000070: bddc 383e f01e d6bb 4dbc 003e 78c8 0d3c
00000080: 8062 d3be 925c c13d c631 613e 1465 c13b
00000090: 0216 01be 9d71 8fbc 90ff 89bd 83a9 84bd
000000a0: 705a 44be b586 c33d 3a37 18bd 8fb4 f0bd
000000b0: e4ea 86bc db8c d03c 61a8 85bd a7c4 46be
000000c0: 7be8 c7bc 97b2 dc3b 0f1c 013c f5d8 f33c
000000d0: 787f e73c 244b 37be bc8c fcbd dadc f8ba
000000e0: a05f 013d 5697 09be 8758 543d 98f9 2fbe
000000f0: ce86 473e 3a02 113e 08ff 5c3c d3c6 10be
00000100: 60b7 b5bc 0dbc 43bf 8dbb 903d 12d0 813c
00000110: 79f6 5d3d 8cb4 203c ea53 0ebc 6a56 993d
00000120: 6c35 6f3d 8a7d e8bb ba58 213e 8934 c7bd
00000130: f02f 18bd 9edf 033e f382 7c3d 5b90 e63c
00000140: 34eb 1ebe 6945 243d 24b3 963c 6e0b 163d
00000150: 364c f73c bebf 13bd e45d eebd 7555 d7ba
00000160: 2675 493c 2fa9 37bd 52cb 25be 78a2 4e3c
00000170: 0b62 653e 433e 083d c96e 8d3d ecb3 93bc
00000180: ddd7 26bd 4e75 58bd 27f9 5e3f 8661 c23b
00000190: 49ed 943d e52f 98bd 33cc b1bd bf6c cb3d
000001a0: b49e 813d 88e0 40be 2604 533e 777c 643e
000001b0: 3bff 1e3e 8f4c 733e 8099 adbd 6835 29be
000001c0: 4ccf 2f3e c77c c53d 04fc ccbd 9597 1d3e
000001d0: 8f06 89bd 3db5 1ebd 3bab 66bb cb89 d6bc
000001e0: 11f5 813e bcbf e0bc 1a71 9e3e 8e1a 883d
000001f0: 6c20 973d ff02 c43c 1025 1fbe 9ee6 453d
00000200: 2860 b5bc 551e 933d 90f4 3f3c 618a efbe
00000210: 4e41 3c3d b3aa 44be 875d bdbd 84b5 e63d
00000220: e521 e63c 0087 50bd e511 dc3d 3612 d43d
00000230: 50b6 793e 3550 783d 53aa 873d a61d 34be
00000240: c7d0 a9bd 5ffc 7a3d 6629 23bd f29e c93d
00000250: a515 d9bc c8e7 85bd b445 4fbd 5703 f43d
00000260: 89cb fe3d 1cf8 1abe 86c6 963e 8287 1c3d
00000270: 51f7 82bc b257 403e 4b47 4c3e 0c2e 01be
00000280: 4c08 07bd 7ed7 43bd 8f20 0b3e a091 88bc
00000290: a54a 0fbf 3038 0bbd 97dd 373d 90b9 29be
000002a0: 8423 c9bd 5030 78be c4a6 25be 06e6 e5bd
000002b0: 484e 2ebd 036b eb3d 91d4 f3bd 9da6 213d
000002c0: 288f a13a 6a2a a1bc a2a3 1cbe ce96 da3d
000002d0: 5a87 eebd 320e 05be 9f08 b7bd 53e1 703d
000002e0: d361 99bd 7402 60bd b58c 27be 42d2 8e3d
000002f0: fcab bbbe 853e cdbd c0f2 1cbe 2afb cbbd
00000300: d0f5 ca3d f4d4 993d b081 b1bc 8eff 26be
00000310: 40ff 64bd 9990 5c3f ed56 563e f2b6 7e3d
00000320: ab70 9cbc c503 81bc 7049 753d 63bc 84bd
00000330: a6ab b3bb 35d0 81bd 6584 e1bd 5c2d 8f3b
00000340: 2de3 75bd 6870 fcbc 70b9 033d b01f 143d
00000350: 0889 82be 3c8a 833d bb0a 0dbe d966 1fbc
00000360: 51fb 3dbd de96 23bd 6a1d 11be 5542 b03d
00000370: 7343 22bd 21d8 263e f134 97bc bc52 2cba
00000380: 0d12 2cbe 2b7c 8dbd 7ff0 713e 4656 7a3d
00000390: baf5 f43d 68f2 93bc 876b 0f3e da04 f53c
000003a0: 7c5b 17bd 5d29 7b3e abce 873a 397f fdbd
000003b0: 6e94 093d 4d4a a93d 906c 473e b7bb 59be
000003c0: 6a8b 3abe 9f2c 6ebe a1f1 3abe 2549 d1bc
000003d0: 71ac b03c 8384 0dbe 704d ef3d 0773 f23c
000003e0: eddc 78bd 4595 a5bd c01e 12bd 9d1e 7a3d
000003f0: d0c7 3f3b 12cc 92bd 2903 e0bd dfb6 16be

fc1.bias f4 [256]
0.160585 -0.017355574 -0.12850416 0.25673053 0.13320988 -0.29090667 -0.06428217 -0.13735026
0.07513095 0.05041851 0.1552051 -0.36966872 0.2047522 0.01986904 0.3288762 0.11398793
-0.23209837 -0.31067935 0.33165732 0.022017876 -0.26772663 0.053823695 -0.22576304 0.14376527
-0.052157268 0.055426437 0.15259963 -0.12065972 0.27619895 0.051000215 0.17021647 0.12369527
-0.0118344 0.08739394 0.05523224 0.027196333 -0.24176474 0.24873151 -0.04307841 -0.36766687
0.1122386 -0.018621456 0.07234224 -0.49596092 0.1443294 -0.060494408 0.17877111 0.00079526997
0.06828528 -0.047267072 -0.07508093 0.093705714 -0.097988784 -0.10247671 -0.36904022 0.14187464
0.03219395 -0.24698971 -0.077697404 0.12995861 0.23173875 0.31257516 -0.16276461 0.10780252
-0.26783457 0.10937125 0.1613188 0.27652192 0.095947124 0.16329487 0.04595545 0.28146738
0.046731696 0.03077601 -0.09539711 0.019704899 0.037280425 0.024145305 0.36593753 -0.3547213
0.15842731 0.26849708 -0.078784935 0.21238351 0.047890645 -0.5355775 0.09618683 0.14086504
0.1637432 0.20580609 0.16970007 0.02304658 0.21768591 -0.38667402 -0.013346126 -0.017878365
0.24964266 -0.0047981506 0.31223154 0.012245431 0.3178238 -0.14450589 0.18871857 0.046344727
0.20208149 0.08575078 0.029428884 -0.18643127 0.11374832 0.09762009 0.19476753 0.0701056
-0.015692888 -0.21528453 0.09251494 -0.11484853 0.13902669 -0.16469675 -0.0016591796 -0.050925605
0.14096192 0.3345837 0.24824263 -0.13579434 0.07338839 -0.0350375 0.027887803 0.22936684
0.10016303 0.2526753 -0.09136016 0.052024677 0.024637526 -0.17349668 -0.044374187 -0.34044364
-0.6346485 -0.27867687 -0.070011124 0.08556553 0.30912593 -0.37725785 -0.26971427 -0.13268985
-0.0061708596 0.092275284 0.10281622 0.13986471 0.30719572 0.316391 0.08542665 0.11984028
-0.0023537304 0.086148284 0.22250973 0.024330573 0.19337757 0.038643155 0.0027016539 -0.06283281
0.16871455 -0.040236816 0.19021632 -0.34691876 0.10623257 -0.14165589 0.35166842 -0.12592685
0.08633252 0.0197246 0.2292642 0.16319701 0.20375921 0.23809211 0.052497227 -0.025267286
0.036693856 0.13834892 0.27525586 -0.20311353 -0.028323831 0.2087761 -0.43602428 0.11027096
-0.044250306 -0.19896005 0.1668402 -0.22345716 0.3214634 0.08281526 -0.05550781 0.12363638
0.08661708 0.28873292 -0.24780965 0.14096984 0.17610307 0.095553 -0.086067 -0.4527563
0.10564321 0.30500922 0.068693124 -0.3784677 0.18539295 0.23062205 0.14671794 0.244698
-0.21393028 0.15023653 0.15816371 0.0034910743 0.16649334 0.10842568 0.20226267 0.21120183
0.13014081 0.123891875 0.031890355 -0.08191232 0.15235494 -0.082676485 -0.1593111 -0.2244035
-0.2616518 -0.23700535 0.033280656 0.17783971 -0.34238136 -0.16201642 -0.19133048 0.046144612
-0.34498575 7.658959e-05 0.24685667 -0.1648859 0.19004193 0.16762051 0.066859886 -0.42683372
0.11437809 -0.1599524 0.2259128 0.1175888 0.29645237 0.2732358 0.0060788207 -0.07369564
0.07228159 0.008203416 0.11534076 -0.5104234 0.24328618 0.22542684 0.107726865 0.10779169
00000000: 6570 243e 472d 8ebc 9896 03be 2f72 833e
00000010: 2c68 083e b8f1 94be 5fa6 83bd 8ca5 0cbe
00000020: 41de 993d a483 4e3d 16ee 1e3e 3845 bdbe
00000030: 90aa 513e 66c4 a23c 7662 a83e 8172 e93d
00000040: 32ab 6dbe 5d11 9fbe fdce a93e d55e b43c
00000050: 7713 89be 3c76 5c3d 6d2e 67be 3437 133e
00000060: dca2 55bd d506 633d 1443 1c3e 711c f7bd
00000070: f369 8d3e 9ae5 503d 3a4d 2e3e f253 fd3d
00000080: 12e5 41bc 98fb b23d 343b 623d d8ca de3c
00000090: 2d91 77be 79b3 7e3e fd72 30bd d53e bcbe
000000a0: 5add e53d 068c 98bc 2b28 943d 97ee fdbe
000000b0: 16cb 133e fcc8 77bd c60f 373e aa79 503a
000000c0: 27d9 8b3d 1e9b 41bd 08c4 99bd c8e8 bf3d
000000d0: 58ae c8bd 4fdf d1bd d7f2 bcbe 9647 113e
000000e0: cedd 033d dfea 7cbe d11f 9fbd df13 053e
000000f0: ec4c 6d3e da09 a03e c4ab 26be 91c7 dc3d
00000100: 9d21 89be 09fe df3d c130 253e 4894 8d3e
00000110: ed7f c43d c536 273e c83b 3c3d 7e1c 903e
00000120: bc69 3f3d f91d fc3c 8f5f c3bd 2b6c a13c
00000130: 5cb3 183d 60cc c53c 2a5c bb3e 089e b5be
00000140: c53a 223e 7378 893e ff59 a1bd 107b 593e
00000150: fb28 443d 9b1b 09bf 9afd c43d ed3e 103e
00000160: 4cac 273e d5be 523e dbc5 2d3e 2ecc bc3c
00000170: 0ee9 5e3e 23fa c5be b6a9 5abc a675 92bc
00000180: 53a2 7f3e ce39 9dbb d0dc 9f3e 0fa1 483c
00000190: cdb9 a23e 5af9 13be 713f 413e f8d3 3d3d
000001a0: 73ee 4e3e 1b9e af3d d814 f13c d7e7 3ebe
000001b0: e1f4 e83d 0bed c73d 2471 473e 8693 8f3d
000001c0: 5f8e 80bc 8c73 5cbe 7978 bd3d b535 ebbd
000001d0: 035d 0e3e 44a6 28be d478 d9ba 5e97 50bd
000001e0: 5258 103e 8e4e ab3e 5133 7e3e ac0d 0bbe
000001f0: a74c 963d 7b83 0fbd f674 e43c 24df 6a3e
00000200: 4622 cd3d a85e 813e 091b bbbd d417 553d
00000210: a3d4 c93c 1da9 31be b5c1 35bd a14e aebe
00000220: 5378 22bf bcae 8ebe fe61 8fbd fb3c af3d
00000230: c145 9e3e f127 c1be fd17 8abe d9df 07be
00000240: ec34 cabb d3fa bc3d 4f91 d23d b238 0f3e
00000250: c248 9d3e 00fe a13e 2bf4 ae3d d26e f53d
00000260: 0b41 1abb 836e b03d 97d9 633e e950 c73c
00000270: c504 463e 4948 1e3d 3b0e 313b 7dae 80bd
00000280: 82c3 2c3e 5ccf 24bd 11c8 423e 569f b1be
00000290: 7690 d93d 3e0e 11be e20d b43e f8f2 00be
000002a0: 1bcf b03d 7c95 a13c 3cc4 6a3e 1e1d 273e
000002b0: 41a6 503e 6bce 733e 5507 573d 57fd cebc
000002c0: 4c4c 163d 57ab 0d3e 56ee 8c3e fefc 4fbe
000002d0: 6107 e8bc 67c9 553e 933e dfbe bed5 e13d
000002e0: cf3f 35bd 2fbc 4bbe 28d8 2a3e f4d1 64be
000002f0: da96 a43e 0c9b a93d 285c 63bd 1235 fd3d
00000300: 4c64 b13d cdd4 933e d0c1 7dbe 665a 103e
00000310: 5d54 343e 4bb1 c33d e543 b0bd accf e7be
00000320: 785b d83d 2b2a 9c3e fbae 8c3d 85c6 c1be
00000330: a6d7 3d3e 3028 6c3e 3a3d 163e 1d92 7a3e
00000340: 8a10 5bbe 9bd7 193e abf5 213e 82ca 643b
00000350: 3b7d 2a3e 480e de3d f21d 4f3e 4b45 583e
00000360: a243 053e 06bb fd3d 769f 023d a5c1 a7bd
00000370: ef02 1c3e 4a52 a9bd 7322 23be 08ca 65be
00000380: 3af7 85be 88b1 72be 4c51 083d 9d1b 363e
00000390: 9c4c afbe a2e7 25be 23ec 43be 2202 3d3d
000003a0: f9a1 b0be b99e a038 ffc7 7c3e d9d7 28be
000003b0: 5a9a 423e b6a4 2b3e d6ed 883d f389 dabe
000003c0: 0f3f ea3d 90ca 23be af55 673e 66d2 f03d
000003d0: 9bc8 973e 90e5 8b3e d830 c73b bded 96bd
000003e0: 5f08 943d 9f67 063c c737 ec3d 1cab 02bf
000003f0: 0320 793e 4bd6 663e e79f dc3d e4c1 dc3d

fc2.weight f4 [4, 256]
0.030288156 0.107120164 0.17039436 -0.24140382 -0.23786516 -0.42755955 -0.15664655 -0.2633634
0.25050777 0.46657103 0.07795465 -0.08633129 0.15469074 0.093686745 0.1191064 0.25342467
0.8812318 0.48476964 0.012867316 -0.3194772 -0.21721244 -0.11579997 0.05103507 -0.097050376
-0.04597356 -0.15901312 -0.03459111 -0.25834557 0.022768807 -0.062051035 -0.027592143 -0.005196074
-0.42477405 0.3047317 -0.06123267 0.07451245 -0.20231505 0.08970871 -0.2669434 -0.35895512
0.15857813 -0.021303535 0.5531345 0.34787694 0.100493185 0.31574968 -0.082986645 0.11024449
0.24807967 -0.29065764 0.22319114 0.09670925 -0.14612746 0.007416289 0.007580222 0.42234746
0.21376257 -0.2390692 0.6275398 -0.01209789 -0.07077696 0.18272044 -0.18429437 0.42493767
-0.015573534 -0.36399946 -0.45946088 0.085360676 -0.07405126 -0.104692176 0.1452418 0.13968137
0.12148851 0.0067149545 0.44551614 0.25006664 0.4441251 -0.007555098 -0.18665811 -0.50131935
-0.115783505 -0.011061832 0.6001376 -0.09840674 0.17609212 -0.0009791341 -0.4796067 -0.108474135
0.032930445 -0.06699512 -0.12236723 -0.05501737 -0.079044685 0.4427197 -0.26467744 -0.05131919
0.032407764 0.013167783 -0.007629194 0.014127341 -0.31582707 0.84428144 0.040630933 0.2181374
-0.02160634 -0.042652022 0.06355701 0.11533119 -0.22167838 -0.061952494 -0.1995391 0.112434596
0.18587165 -0.112349786 -0.36238378 0.18461578 0.08602918 0.34121698 -0.29216504 -0.5965435
0.42277193 -0.007873667 0.14451037 -0.21178344 -0.2837003 0.059999682 -0.017228212 0.09350756
-0.27174357 -0.06467016 -0.004642724 -0.20965724 -0.18112415 0.19797228 0.0031750978 0.022406995
0.5260913 0.57666576 -0.12105622 -0.7987128 -0.19815113 0.18525462 -0.106511556 0.11282425
-0.30286998 0.38482496 -0.11536817 -0.03849622 -0.011843517 0.26924124 -0.016387187 0.0097210165
0.20557994 -0.002853476 0.16320176 -0.017869748 -0.38610977 -0.09104775 0.7126461 -0.017149026
-0.42468297 0.09416398 -0.08298408 0.2170813 -0.19900325 0.3783384 -0.04060602 -0.25036386
-0.002290717 -0.057000868 -0.05279981 -0.32406786 -0.16239557 0.27958274 0.2845353 -0.011345823
-0.051028185 0.2153135 -0.056007497 -0.5140823 0.054163475 0.17864154 0.46831372 0.11018624
-0.08002138 0.41221544 -0.051824227 -0.21736963 0.024474395 0.07539987 -0.09407072 0.55195284
0.049467932 -0.08941115 -0.050825182 -0.027975682 0.32796332 0.09805635 0.16997507 0.40434417
-0.090413876 0.039689355 -0.21723168 -0.47832122 0.1997981 0.12477256 -0.076525256 -0.14725769
0.06814875 0.030321434 -0.5839355 0.30899745 -0.18252681 -0.08096106 0.13916555 0.0051566563
0.343905 -0.3390761 -0.11675126 0.06287765 0.0032809412 -0.05913633 -0.05035535 -0.29208097
0.3563338 -0.45950377 0.15119001 -0.14682409 0.0080082575 -0.029601252 0.17198794 -0.35451666
0.83909136 -0.029916193 0.17426342 -0.55192983 0.426257 0.07595621 0.072906405 0.24055618
-0.20427173 0.33191288 -0.17913887 -0.022751067 0.38906696 -0.089596584 0.2289076 0.22473273
0.19737393 0.24727213 0.27398923 -0.4715065 -0.011951645 -0.31090367 0.43891495 0.09717235
00000000: de1e f83c d161 db3d dc7b 2e3e 9032 77be
00000010: ed92 73be 16e9 dabe f467 20be 91d7 86be
00000020: 8e42 803e 66e2 ee3e b0a6 9f3d 76ce b0bd
00000030: 4067 1e3e d6de bf3d 0eee f33d e1c0 813e
00000040: 6898 613f ba33 f83e 6fd1 523c 8492 a3be
00000050: f06c 5ebe 8928 edbd 260a 513d 59c2 c6bd
00000060: c64e 3cbd 56d4 22be 68af 0dbd df45 84be
00000070: a685 ba3c 3a29 7ebd eb08 e2bc d443 aabb
00000080: fc7b d9be cb05 9c3e 1ccf 7abd fc99 983d
00000090: ad2b 4fbe 33b9 b73d ceac 88be f7c8 b7be
000000a0: 4e62 223e c084 aebc 399a 0d3f ed1c b23e
000000b0: 5fcf cd3d f1a9 a13e e7f4 a9bd ddc7 e13d
000000c0: 9908 7e3e 14d1 94be 388c 643e 800f c63d
000000d0: 70a2 15be 5704 f33b 8363 f83b ed3d d83e
000000e0: 93e4 5a3e 8ece 74be 73a6 203f 3a36 46bc
000000f0: 83f3 90bd 111b 3b3e aab7 3cbe 6e91 d93e
00000100: 2328 7fbc 235e babe 753e ebbe 94d1 ae3d
00000110: 30a8 97bd da68 d6bd 44ba 143e a208 0f3e
00000120: f8ce f83d 1f09 dc3b b11a e43e bc08 803e
00000130: 5d64 e33e c190 f7bb 4e23 3fbe 7756 00bf
00000140: e71f edbd b03c 35bc 9ea2 193f 7989 c9bd
00000150: 7e51 343e 4a56 80ba 028f f5be b027 debd
00000160: 13e2 063d bd34 89bd ac9b fabd e559 61bd
00000170: 2ee2 a1bd 28ac e23e cd83 87be 1234 52bd
00000180: 01be 043d afbd 573c 51fe f9bb 5d76 673c
00000190: 16b4 a1be d422 583f 9f6c 263d 695f 5f3e
000001a0: c7ff b0bc e3b3 2ebd 2d2a 823d c232 ec3d
000001b0: a8ff 62be e6c1 7dbd fa53 4cbe 1c44 e63d
000001c0: 2355 3e3e a517 e6bd 5e8a b9be eb0b 3d3e
000001d0: 1130 b03d feb3 ae3e a896 95be 13b7 18bf
000001e0: 9075 d83e 8e00 01bc 87fa 133e c2dd 58be
000001f0: 2a41 91be 3ac2 753d 2e22 8dbc e480 bf3d
00000200: f921 8bbe ca71 84bd fe21 98bb 63b0 56be
00000210: 9c78 39be 3fb9 4a3e 4d15 503b e08e b73c
00000220: ebad 063f 5ea0 133f 53ec f7bd 7178 4cbf
00000230: 21e8 4abe 63b3 3d3e bb22 dabd 6610 e73d
00000240: c611 9bbe c707 c53e 2646 ecbd 36ae 1dbd
00000250: 500b 42bc fdd9 893e 6c3e 86bc e644 1f3c
00000260: 8c83 523e 6201 3bbb 5d1e 273e 9463 92bc
00000270: 2eb0 c5be 3e77 babd fa6f 363f 1d7c 8cbc
00000280: 0c70 d9be 0bd9 c03d 8ff3 a9bd 8f4a 5e3e
00000290: 82c7 4bbe 92b5 c13e 7f52 26bd b12f 80be
000002a0: db1f 16bb be79 69bd 9d44 58bd 39ec a5be
000002b0: 064b 26be 7825 8f3e 9cae 913e d5e3 39bc
000002c0: ee02 51bd 247b 5c3e 1e68 65bd e69a 03bf
000002d0: 85da 5d3d cfed 363e d1c6 ef3e 53a9 e13d
000002e0: 40e2 a3bd e70d d33e a445 54bd 2596 5ebe
000002f0: 877e c83c 3f6b 9a3d 26a8 c0bd c84c 0d3f
00000300: e39e 4a3d 311d b7bd 112e 50bd 422d e5bc
00000310: cfea a73e c5d1 c83d f20d 2e3e 3306 cf3e
00000320: e92a b9bd 4e91 223d fb71 5ebe 85e6 f4be
00000330: e097 4c3e c288 ff3d 46b9 9cbd b8ca 16be
00000340: 9291 8b3d a864 f83c cc7c 15bf ea34 9e3e
00000350: 4fe8 3abe eace a5bd 6a81 0e3e 2bf9 a83b
00000360: 5114 b03e 629b adbe 491b efbd ffc5 803d
00000370: 0f05 573b f038 72bd 6941 4ebd a38b 95be
00000380: 6271 b63e 1444 ebbe 8ed1 1a3e 0e59 16be
00000390: 1135 033c 537e f2bc 9b1d 303e 3583 b5be
000003a0: b1ce 563f ce12 f5bc 1c72 323e 464b 0dbf
000003b0: 5c3e da3e ee8e 9b3d f44f 953d 5c54 763e
000003c0: 9c2c 51be 7cf0 a93e 2e70 37be 7260 babc
000003d0: c933 c73e 6a7e b7bd c166 6a3e 5620 663e
000003e0: 641c 4a3e e834 7d3e 5148 8c3e 4d69 f1be
000003f0: d5d0 43bc c42e 9fbe 76b9 e03e 4c02 c73d

fc2.bias f4 [4]
-0.04543754 -0.03392358 0.0890201 0.026937978
00000000: b71c 3abd 74f3 0abd 2c50 b63d 09ad dc3c
