checkpoints/ddpg/132_checkpoint_critic_solved.pth (torch_old, 435500 bytes, 7 tensors)

fcs1.weight f4 [256, 33]
000000 eb 99 cf 3c 44 b6 20 bd b8 b7 e2 3c 58 68 ab bc
       0.025341948 -0.039236322 0.027675495 -0.020923778
000010 c8 1c ce bd 37 07 8c 3a 62 8d 2a 3d 19 43 05 3d
       -0.10064083 0.0010683303 0.04163874 0.032534692
000020 16 7b 84 bd fe 47 52 bd e4 97 7d 3c d4 81 ab bc
       -0.06468789 -0.05133819 0.015478108 -0.02093593
000030 ed 76 cc 3c 30 bf a7 bd 1b dd 68 3d 16 4c ce 3a
       0.024959052 -0.08190763 0.056851488 0.0015739228
000040 1f 6b ff bc 43 28 bf bb af a9 97 bd c2 94 79 ba
       -0.031179009 -0.005833657 -0.074054115 -0.0009520763
000050 9d a3 6b ba f0 30 3e 3c 3b ca 90 3c 65 a2 a8 3c
       -0.0008988919 0.011608347 0.017674556 0.020585248
000060 ce 32 88 3c c1 de e9 bb 23 8d ba 3d 3c 19 e3 38
       0.016625788 -0.00713715 0.09108951 0.00010828904
000070 be ba ba bc 4e bf 33 3d 90 1e 71 3c cc 83 71 bd
       -0.022794124 0.043883614 0.014716759 -0.058963582
000080 b5 28 bf 3e 1b 55 1f bc 02 fe 03 3a 6c 31 0b 3d
       0.37335745 -0.009724881 0.00050351035 0.03398268
000090 ad dd 43 bd aa ac 3a bd 47 ae 5f 3d f2 78 b2 bc
       -0.04781883 -0.04557482 0.054609563 -0.021786187
0000a0 f3 34 31 bd 72 e0 04 3d e4 58 01 3c ef a8 14 3d
       -0.043263387 0.03244061 0.007894728 0.03629392
0000b0 c4 f7 fb 3c a8 af 27 3d 09 55 b1 3c bd a6 5c 3c
       0.030757792 0.040939003 0.021646993 0.013467488
0000c0 c3 7f 8e 3d 34 7c 87 3b 05 e3 e1 3a f8 fa 99 bc
       0.06957962 0.004134679 0.0017233795 -0.018796429
0000d0 ae d1 a8 3d ea 22 83 3d 2e 80 8b bc e5 9e 9a 3b
       0.08243118 0.06403144 -0.017028894 0.0047186487
0000e0 9c df 91 bd ce 3d a1 b9 12 b8 86 bb 00 63 81 bd
       -0.07122728 -0.0003075436 -0.0041112984 -0.06317711
0000f0 0a 43 25 3d 0c bf 90 3c b2 d6 35 3d b3 83 8b bd
       0.040347137 0.017669223 0.044394203 -0.06812229
000100 f4 46 19 bd f4 40 2c 3e c9 fe a8 3d 4d a7 1e 3d
       -0.03742118 0.16821653 0.082517214 0.03873377
000110 3a 9d b9 bd de c4 bc bc 10 9f 13 bd 1d 0c 88 3d
       -0.09063192 -0.023043092 -0.036040366 0.066429354
000120 f4 4c bc bd ab ae 2d 3c 5b 36 a1 3a 98 dd 6b bc
       -0.09194365 0.010600726 0.0012299524 -0.014396094
000130 61 51 43 3b 05 7c b8 bc 3d e0 cd 3a 83 80 51 3d
       0.0029803144 -0.022520075 0.0015707087 0.05114795
000140 a8 84 60 3c 97 1c 87 3d 8e f7 b8 3c 67 8e 0d 3d
       0.013703503 0.0659725 0.02257898 0.034559634
000150 33 a8 c7 bc 34 ae 05 bd 92 9f dd 3c 4a 13 b0 bb
       -0.024372196 -0.032636836 0.027053628 -0.005373393
000160 95 8c cd bc 13 a7 49 bc 68 c2 55 3c 04 9c 50 bd
       -0.025091449 -0.0123079 0.013046838 -0.050930038
000170 0c e0 8d 3d d5 49 a4 bc 53 08 19 bd d6 05 09 3d
       0.06927499 -0.020054737 -0.037361454 0.03345283
000180 ea 3d 2b bd 36 10 7b 3d 97 af 3f be df 29 d8 bc
       -0.041807093 0.061294757 -0.18719326 -0.026387153
000190 80 45 82 3d a8 a0 a4 bd 35 e7 52 bd db 39 45 3c
       0.06360912 -0.08038455 -0.051490027 0.01203772
0001a0 1a 0a 04 3c fb d4 ed 39 b4 f0 b2 3c 59 dd 5d bc
       0.008059049 0.00045362845 0.021843292 -0.013541543
0001b0 93 66 f8 bc 74 09 51 ba 32 43 e1 3b a1 37 d6 3c
       -0.030322349 -0.0007974126 0.0068744654 0.026149573
0001c0 6d 1c 00 3d 94 11 d8 bc 2f 13 f2 bb 89 e3 0c bb
       0.03127711 -0.02637557 -0.007387541 -0.0021497926
0001d0 9e 0b f8 3c 11 ca 2e bc a3 24 57 3c 9b 90 07 3d
       0.030278977 -0.010668294 0.0131312935 0.03309689
0001e0 6b 54 01 3d da 46 05 3c 0c e5 2e 3d a2 30 b8 bc
       0.031574648 0.008134568 0.042698905 -0.022484127
0001f0 47 5c 67 3d 45 27 f2 3c 2c 40 ee 3c c6 0d ad 3d
       0.056484487 0.02955974 0.029083334 0.08449893
000200 58 08 78 3d dc 40 81 bc bc 2e f9 3c c4 bb bd 3e
       0.060554832 -0.015777998 0.030417792 0.37057316
000210 ee 6a 32 bc 24 84 38 3d 9a 69 8f bd 32 b5 26 3d
       -0.010889752 0.045047894 -0.07002564 0.040700145
000220 62 42 85 bb 3c f1 52 bc e2 9d c8 bc b9 8f 56 bd
       -0.0040667513 -0.012874898 -0.024489347 -0.05238316
000230 b8 ab f7 3c 5f 80 66 bd 66 e7 16 3d 93 cf 32 3c
       0.030233249 -0.056274768 0.036841772 0.010913747
000240 91 2a a4 bc 63 6e 99 39 22 7a b7 bc d0 a6 89 3d
       -0.020039828 0.0002926468 -0.022397105 0.0672127
000250 6d b8 d6 bc b6 3f 78 3c 17 9d d8 bc f1 6f 55 bc
       -0.026210988 0.015151909 -0.026442094 -0.013027177
000260 73 56 62 bb 64 b7 75 bd 0b e9 ba 3c c3 58 a0 bb
       -0.003453639 -0.059989348 0.022816202 -0.0048933937
000270 a5 00 88 bc 0b d5 50 3d 2c b1 c5 3d d9 2c c3 bc
       -0.01660187 0.050984424 0.096529335 -0.023825096
000280 31 e2 51 bc d4 2d 8a bc f3 77 23 bd 5c bd dd bc
       -0.012810276 -0.016867556 -0.039909314 -0.027067833
000290 07 62 a1 3e f1 ed 51 bd 83 4d 39 bc 1a 68 04 3e
       0.315201 -0.05125231 -0.011309984 0.12930337
0002a0 be 21 12 3c c9 0d 00 3d 0d f2 80 3d 35 c8 e2 3c
       0.008919178 0.031263147 0.062961675 0.027683357
0002b0 77 0c 63 bd 0f d5 be 3d 70 a6 6f bd 0b 25 92 bd
       -0.05543181 0.093179815 -0.058508337 -0.07135972
0002c0 9d f0 a3 bb f8 6c df 3c aa 0d 20 bd 53 48 34 bb
       -0.0050030486 0.02727364 -0.03907553 -0.002750893
0002d0 05 02 25 be 47 b6 56 3d 1d d2 08 3d ad 18 c1 3c
       -0.16114052 0.052419927 0.033403505 0.023571337
0002e0 b8 ad 07 3d a2 f0 04 3d 96 dc d9 bc 10 d6 a3 3b
       0.033124655 0.032456048 -0.026594441 0.0049998835
0002f0 44 c8 3d bd 6a 52 20 bc d8 23 a3 3a 82 0a b8 bc
       -0.046333566 -0.009785274 0.0012446595 -0.022465948
000300 ed b3 66 3d b8 c2 3f bd 3c df b3 bc 02 af 08 bd
       0.056323934 -0.046816558 -0.021957032 -0.033370025
000310 cc 0d 6a 3d 8d 74 05 be ec a7 d9 bc 86 1d 70 bc
       0.057142064 -0.13032742 -0.02656933 -0.014655476
000320 c9 88 cb 3d 47 90 9d bc 63 97 3a bc 58 f4 37 3d
       0.09938199 -0.019233836 -0.0113886325 0.04491076
000330 28 22 02 3a ce f3 d0 bc ba 77 4a 3d 8a 68 27 3e
       0.0004964196 -0.02550688 0.049430586 0.16348472
000340 dc f8 ac 3d 52 f2 a4 3d 56 a9 18 3e 26 27 b3 3c
       0.08445904 0.080540314 0.14908347 0.021869253
000350 22 d7 2b 3d e8 e8 0b 3d 5e fe 19 bc f9 72 da bb
       0.041953214 0.034157664 -0.009399025 -0.006666538
000360 44 da 90 bc c7 68 cc ba 27 9e f5 3c 6b f3 67 3d
       -0.017682202 -0.0015595191 0.02998264 0.056628626
000370 c9 b7 57 bd 71 27 99 bb 04 8a 0d bd e5 6e 09 bd
       -0.052665506 -0.0046738912 -0.03455545 -0.033553023
000380 54 5f 59 bc 8b 5c f6 3c 73 db ad bd 3c 6e 99 3c
       -0.013267357 0.030073425 -0.08489122 0.018729322
000390 50 74 b8 3a 04 af b0 3c e6 5b 08 bc 54 0a b7 bc
       0.001407275 0.021567829 -0.008322692 -0.022343792
0003a0 09 5a a3 3d 8b 89 e8 bd e4 93 59 3d 68 0b 96 3d
       0.07976157 -0.11354359 0.053119555 0.07326394
0003b0 79 fd 58 3d 7b 18 22 3d 96 0e 99 3c 0f b6 33 bd
       0.052976105 0.039574128 0.018683713 -0.043874796
0003c0 c9 b5 fd bd f2 b4 6c bd ff 24 00 3d 31 cc 8b 3c
       -0.123881884 -0.05778975 0.031285282 0.01706514
0003d0 99 64 9b bc 23 cd ba bc f6 62 a6 3d 69 38 c9 3c
       -0.018968867 -0.022802895 0.08124344 0.024563031
0003e0 14 e2 23 3d 1b 54 5f 3c 8a 76 07 bd af 35 31 bd
       0.040010527 0.013630892 -0.033072032 -0.043264087
0003f0 ca ee f3 3c fb 03 3c bd ee ce 8a 3d d6 9c df 3c
       0.02977695 -0.045902234 0.0677775 0.027296465

fcs1.bias f4 [256]
000000 21 1d c3 3d 11 72 e1 3d 21 38 6b bd 9a ba 17 3e
       0.0952704 0.110080846 -0.057426576 0.14817277
000010 4a d0 10 bc 0d 6c 32 be fa 99 08 be 2a 6c 17 be
       -0.0088387225 -0.1742403 -0.13339987 -0.14787355
000020 3f 39 3b bd f3 fe 0d 3e f7 f6 69 bd b0 36 c0 bc
       -0.04570889 0.13866787 -0.05712029 -0.023463577
000030 47 7e d9 3d 07 5f 0b bc d1 5e 85 3d fc c2 82 bd
       0.106197886 -0.008506543 0.065122254 -0.063848466
000040 6d 52 fc bd a0 8d e3 bd f3 fd fe 3d dd e2 e0 bd
       -0.12320409 -0.11110997 0.12450781 -0.10980771
000050 3a d6 8e 3c e4 8a 6c 3d 77 83 8e 3d 44 74 76 bd
       0.017436136 0.057749644 0.06958669 -0.060169473
000060 0b 67 25 bd 36 b4 97 bd b2 87 35 3d 78 8c fc bc
       -0.040381473 -0.074074194 0.044318862 -0.0308287
000070 27 7e 60 3d b5 8c a6 3d 5c 36 8d 3d f6 4e ea bd
       0.05480781 0.081323065 0.06895134 -0.11440842
000080 02 66 11 be c3 49 1d be 43 24 7f 3c ca b4 07 3c
       -0.14199069 -0.15360169 0.01557261 0.00828285
000090 08 ca 16 3e 30 a8 b0 3d 7a 3e c9 bd 13 ee d6 3d
       0.14725506 0.08625829 -0.098263696 0.10494628
0000a0 d3 05 de bd c7 30 fd bd 5b 42 f2 3d 40 af 19 be
       -0.10840955 -0.12362819 0.118290626 -0.15008259
0000b0 bf 39 da bd 43 fc 3a be 04 03 86 3d 69 ad dd 3d
       -0.106555454 -0.18260293 0.06543544 0.10824091
0000c0 07 42 1c 3e 47 d6 1f bd 0b ed b6 bd 0e b8 53 3d
       0.15259562 -0.03902271 -0.08931931 0.0516892
0000d0 5e 41 08 be 5a 0d 00 be 6e f5 1f be 43 7c 13 3e
       -0.13306186 -0.12505093 -0.15620968 0.14402871
0000e0 13 6e 5d bd 3f e1 0d bd 0a 26 62 3d 25 04 70 3c
       -0.054060053 -0.03463864 0.055212058 0.014649426
0000f0 58 eb fa bd 92 2a c5 3c 19 cd 1e be 48 35 71 bd
       -0.122519195 0.02406815 -0.15507926 -0.058888704
000100 b7 cb 1a be f0 28 91 bd a5 39 d6 3d 3a c2 15 3e
       -0.15116774 -0.07087886 0.104602136 0.14624873
000110 a8 27 b3 3d 3c 77 a0 3d b0 cb b5 3d e2 6a c5 3d
       0.08747798 0.07835242 0.08876741 0.09639527
000120 34 0d 3c bd a0 e5 86 bd ec 6b 81 bc 78 81 d1 3d
       -0.04591103 -0.06586766 -0.015798531 0.10229772
000130 8b 94 02 3e 4c 33 5d 3c 6a 28 3e 3e 82 a2 26 be
       0.12751977 0.013501 0.18570104 -0.1627293
000140 d5 e8 76 3d fa e4 ea 3d e4 79 67 bd fa 37 7c 3d
       0.06028064 0.11469455 -0.05651273 0.06157682
000150 5e 7c 0e 3e 23 e2 24 be 1a bb 4a 3d 0d 88 a7 3d
       0.1391463 -0.1610189 0.04949484 0.081802465
000160 98 8a b6 3d 9a 8d 92 3d 34 84 0d 3e 33 4a bc 3b
       0.089131534 0.071559146 0.13819963 0.00574615
000170 1e d0 fb 3d c6 af 35 be 0c a8 2f be 1f b8 14 3e
       0.122955546 -0.17742833 -0.17153949 0.14523362
000180 68 7c d0 3d 5b a0 ce bd 3b c3 1f 3e 0d ba e6 b8
       0.101799786 -0.10089179 0.15601818 -0.00011001909
000190 97 2d 0c 3e df 83 88 bd 3a 37 98 3d ab aa b0 bd
       0.13689266 -0.066657774 0.07432409 -0.08626302
0001a0 93 31 24 be 79 97 d6 3d c7 93 19 be f4 c6 01 3e
       -0.16034536 0.1047811 -0.14997779 0.12673551
0001b0 4f 88 39 3d 12 21 8b bd de 35 e1 3d 17 96 23 3e
       0.04529601 -0.06793417 0.109966025 0.15975223
0001c0 c9 01 99 bd 88 ea 8f 3d e0 d5 66 3d 0f ea da bd
       -0.074710436 0.07027155 0.05635631 -0.106891744
0001d0 a7 cb 71 3c 7b ba 16 be 4a de 43 3d 18 4c 25 be
       0.014758027 -0.14719574 0.047819413 -0.16142309
0001e0 12 2e e7 3d f2 44 0a 3e 30 c4 dd 3d 53 0d 1d 3d
       0.11288084 0.13502863 0.108284354 0.038342785
0001f0 66 1b 2f be 4c 6a 20 3d 84 a3 b1 3d 12 30 1e 3d
       -0.17100295 0.039163873 0.08673766 0.038620062
000200 e0 f0 ab bd 85 df cc 3d ce a2 db bd be fa 50 be
       -0.08395553 0.100035705 -0.10724412 -0.2040815
000210 c7 c2 46 3d 26 51 0c 3e 2c 6b 86 bc 82 01 77 bd
       0.048525598 0.1370283 -0.016408525 -0.060304172
000220 82 e6 11 be e6 b4 00 3e 26 5c 4c be 5d 9a 62 bd
       -0.14248088 0.12569007 -0.19957027 -0.055322994
000230 b1 65 76 3d 6c d8 9e bd 56 c4 f5 bd 0c 36 04 be
       0.060155574 -0.07756123 -0.12000339 -0.12911242
000240 21 83 e8 3d d4 0e 93 bd ab 0e 1b bd fc db 47 bd
       0.11353136 -0.071805626 -0.037855785 -0.048793778
000250 97 6f 9d 3d a3 e9 eb 3d ab 1c 5f 3d 7c 18 96 bd
       0.076873 0.11519172 0.0544707 -0.07328889
000260 e4 ac d6 bc f0 90 4e 3d bf 0a 26 3e 4d 7c eb bc
       -0.026205488 0.050431192 0.16215037 -0.028745795
000270 8e c9 b4 3d aa 79 ae bd 65 b1 ac bd 2e cb 1d be
       0.08827506 -0.08519299 -0.08432273 -0.15409538
000280 31 ce 5b 3d e6 ca cd bd 21 2a 6f bd 5d e8 73 be
       0.053663436 -0.100484654 -0.058389787 -0.23819108
000290 f1 88 7d 3c 8d fb 48 3d fc 17 a1 3d da 41 a4 bb
       0.015474544 0.049068023 0.07865903 -0.005012733
0002a0 0e b8 7f bc 96 f6 31 3e 93 7f 5e 3b 11 80 2a 3e
       -0.015607847 0.17379221 0.0033950552 0.16650416
0002b0 63 6a 07 3e 55 3d 0d 3e c7 b7 be 3c cb e9 f2 3d
       0.13224177 0.13792928 0.023280991 0.11860999
0002c0 e5 fe 1a 3e a2 0e ac bc d3 26 ab 3d f0 55 d0 bd
       0.15136297 -0.021003071 0.083570145 -0.10172641
0002d0 47 d2 42 bd 9c 44 d3 3d c6 91 36 be f7 be 2d bd
       -0.047563817 0.103158206 -0.17829046 -0.042418446
0002e0 14 ec e1 3b 9c 41 c2 bc 99 8c 07 bd 83 d1 54 3b
       0.006894598 -0.023712926 -0.03309307 0.0032473512
0002f0 2f 04 1f bc cb f4 1b 3e d0 4b 00 be 1a 07 e0 3d
       -0.009705587 0.152301 -0.1252892 0.109388545
000300 b3 39 51 bc 52 a3 a7 3d 01 ce e9 3d a3 21 03 bd
       -0.012770104 0.08185448 0.11416245 -0.0320145
000310 8c bb 06 bd 64 10 23 be 45 cf 9f bc 5d 14 b4 bd
       -0.032893702 -0.15924221 -0.019508014 -0.087929465
000320 4b 21 30 bc ef 7d db 3d d0 e1 d8 3c 27 a8 f0 bd
       -0.010750125 0.10717379 0.026474863 -0.117508225
000330 90 da a2 3d ae 90 40 bd d2 d4 7d 3b d9 c0 bf 3d
       0.07951844 -0.047012977 0.0038731587 0.09362955
000340 15 8c 9d bd a3 40 ea bc a9 1d f4 3d 22 fd e0 3d
       -0.07692734 -0.028595274 0.1191972 0.10985781
000350 77 ab d6 3d 83 93 36 bd bb 50 93 bd 8e f7 10 3e
       0.10481923 -0.044574272 -0.071931325 0.14156935
000360 4b 13 66 3d 7f 34 a7 3d 34 61 b2 3d b3 bb 83 3d
       0.056170743 0.0816431 0.08709946 0.06432285
000370 13 f7 31 3d 41 c0 22 be c6 39 39 be ad e5 27 be
       0.04344852 -0.15893652 -0.18088445 -0.16396208
000380 24 a0 e8 3d 00 61 a3 bd e1 78 15 be 4a 3d 8d 3c
       0.113586694 -0.07977486 -0.14596893 0.017241139
000390 c2 2d bb bd d4 72 a4 3d 80 4b 8a bd 74 6b 47 3d
       -0.09139587 0.08029714 -0.06752682 0.04868646
0003a0 d9 00 29 be b0 a0 62 be b7 8e d3 3d 88 6f f1 bd
       -0.1650423 -0.2213161 0.10329955 -0.11788851
0003b0 82 4f cd bc 62 88 6f 3d 19 c5 a2 bc 38 a3 0a be
       -0.025062326 0.058479674 -0.019869374 -0.13538826
0003c0 f2 5c 89 3c 99 5a bb bd c8 45 36 3e d3 53 5d bd
       0.016767953 -0.091481395 0.17800057 -0.05403502
0003d0 11 0c 19 3e dc 96 06 3e 1b 7b 5b 3d 0c 74 3a 3d
       0.14946009 0.13143486 0.0535842 0.045520827
0003e0 f5 15 fc 3d 84 46 32 be 09 8e f7 3d f4 68 f8 3c
       0.123088755 -0.17409712 0.12087638 0.030323483
0003f0 1c 98 e8 3d ac e8 2b bd f7 cd ea 3d 0e 88 b7 3d
       0.113571376 -0.04196994 0.11465066 0.08961497

fc2.weight f4 [256, 260]
000000 cd e7 23 bd 89 24 b2 3d 0c 64 05 3d d8 25 85 bc
       -0.040015984 0.08698375 0.032566115 -0.016253397
000010 03 9b 1f bd 05 30 fa 3c f5 1d c8 bd 70 c9 40 bd
       -0.03896619 0.030540476 -0.09771339 -0.047067106
000020 41 4a 1f 3d 86 45 14 bc a2 3a 60 bd 0b 04 89 bd
       0.038889173 -0.009049779 -0.054743417 -0.06690224
000030 32 87 0d 3d 92 4a 8f bd 02 9d 2c 3c 4f f7 7c 3c
       0.03455276 -0.06996645 0.01053548 0.015439822
000040 fc 41 0e 3d 28 74 54 3d c6 fd f1 bc 4d e6 84 3c
       0.034730896 0.051868588 -0.029539954 0.016223097
000050 94 c4 0f 3d 24 6b 30 bc b3 e6 8b 3d a4 b6 f5 bc
       0.03509958 -0.010767732 0.06831112 -0.029994316
000060 50 07 9b 3d 37 74 c9 bd dd 14 5d bd aa 84 17 bd
       0.07569754 -0.09836619 -0.053974975 -0.036991753
000070 fd fc a4 3d 09 3e a9 3d 75 9c 07 bd 7a 76 3a bc
       0.08056066 0.082637854 -0.033108193 -0.011380786
000080 37 bc c8 bc 25 64 3d 3d b4 d3 78 bd 53 05 b7 bd
       -0.02450381 0.046238083 -0.06074877 -0.089365624
000090 6e d4 5b bd b1 b8 c6 3d 0e 17 c2 3c c2 85 5a 3d
       -0.053669386 0.09703196 0.023692634 0.053350218
0000a0 90 3a 6b bd 42 94 e0 3d bf 28 bd 3d 00 8c 8e bc
       -0.057428896 0.10965778 0.09236287 -0.017400742
0000b0 cd a7 c2 bc 70 ad af 3d ce a1 81 3c 2b 22 2a bd
       -0.023761654 0.085780025 0.015824225 -0.04153649
0000c0 a7 ce 40 3d a3 c5 b3 bd 72 25 d5 bb 52 56 1d bd
       0.04707208 -0.087779306 -0.006504708 -0.0384124
0000d0 35 89 43 bd 12 2e cd 3c a1 c5 73 3d c1 40 41 bd
       -0.047738273 0.025046382 0.059514645 -0.047180895
0000e0 bb e5 f8 bd 20 88 bf 3c ea 2c 46 3b 85 ae 31 3d
       -0.121531926 0.02338034 0.0030239173 0.043379325
0000f0 4e b0 e0 bc 97 fc 6e 3d 3e da cf bc fe ad f1 3d
       -0.027427819 0.058346357 -0.02537262 0.118007645
000100 b3 40 08 3e 04 f8 67 bd 89 59 02 3c 19 f3 31 bd
       0.13305931 -0.05663301 0.007955917 -0.043444727
000110 0e 87 5b bd 2d 96 c9 3d 4a 97 b8 3c 0f 8c 07 3d
       -0.053595595 0.09843097 0.022533078 0.033092555
000120 9a bb 9c 3c 18 c7 7b bd 91 27 07 bd 45 0e 05 bd
       0.019132424 -0.061469167 -0.032996718 -0.03248431
000130 d5 a7 34 3d d2 ca 1b 3d a3 31 33 3c 59 11 89 bd
       0.04410537 0.03803522 0.010937127 -0.06692762
000140 06 0c 9a 3d d8 91 0a be b7 80 98 3d f4 4a 4e bd
       0.075218245 -0.13532197 0.074464254 -0.05036445
000150 21 56 e9 bd 1a 0a 6a bd 76 89 4b bd c0 bc ec 3b
       -0.11393381 -0.05713854 -0.04969164 0.007224649
000160 56 00 d9 bd 5c b2 ca 3d 6f ba ea bc d5 a3 80 bd
       -0.10595767 0.098973006 -0.028653352 -0.062812485
000170 26 eb 68 bc cf 54 fb 3c 44 e9 88 bd 41 03 57 3c
       -0.01421622 0.030680088 -0.06685117 0.013123334
000180 77 1c db 3d 39 08 22 3d 12 bd 9b 3d 1b ef ad bd
       0.106987886 0.039558623 0.07604422 -0.084928714
000190 b6 ce b2 bb ed c5 a3 bd 84 60 91 bc 5c b2 45 3d
       -0.005456771 -0.07996736 -0.017746218 0.0482658
0001a0 49 79 52 3c c3 5f 0f 3d de 13 53 bd f8 78 29 3d
       0.012846299 0.035003435 -0.05153262 0.04137513
0001b0 cd 68 39 3c 93 d4 e1 bd 48 8f 74 bc 53 45 07 3b
       0.01131649 -0.110268734 -0.014926739 0.0020640686
0001c0 44 b8 f0 bd ab 69 ad 3d bb a3 f4 bd 85 79 eb bb
       -0.11753896 0.0846742 -0.119452916 -0.007186117
0001d0 a7 b8 84 bd 3d 32 09 3d f4 a0 04 3b 69 50 c5 bd
       -0.06480532 0.033495177 0.0020237537 -0.09634478
0001e0 09 c9 8f 3d 29 64 4e bd d7 bc ee 3b f5 96 1a bd
       0.07020766 -0.05038849 0.007285695 -0.03774162
0001f0 4b 2f 71 bd af de 99 bd da cc bf 3d 68 f5 8e 3d
       -0.058882993 -0.07513177 0.09365244 0.06980401
000200 4f d1 59 3d e4 bb db bc 04 e1 2b 3d 04 62 a2 bd
       0.053178128 -0.026822992 0.04196264 -0.07928851
000210 ef 53 cb bb 97 60 45 3c 8a de 4d 3d d3 04 5e bd
       -0.006205074 0.012046955 0.050261058 -0.05420382
000220 e6 a9 b5 bc 28 50 4c bd e3 e5 33 bc c8 a2 9a bd
       -0.02217574 -0.04988113 -0.010980102 -0.07550579
000230 19 fa 49 bc 51 2d 0f 3d 72 f8 25 3d 92 86 e1 3c
       -0.012327694 0.034955326 0.04052014 0.027529988
000240 6f 89 b6 3b 25 8f 82 bd 8f 0c 06 3d a6 a6 ac 3d
       0.0055705826 -0.06374959 0.03272682 0.08430223
000250 4f 58 a2 bc 60 16 27 3d 49 20 d6 bb d3 51 0e be
       -0.0198175 0.040792823 -0.0065346104 -0.13898401
000260 f9 01 0d bd a3 5c 94 bd f0 f9 a5 bb 09 08 ad 3a
       -0.03442571 -0.072442316 -0.0050651953 0.0013201247
000270 d7 97 5f 3d c7 48 5b bd c4 30 5e bd 6d 38 23 bc
       0.054588165 -0.053536203 -0.054245725 -0.009962183
000280 a2 05 ab bc 18 02 4c 3c 97 ee 51 bb 4c fc bd bd
       -0.02087671 0.012451671 -0.003203308 -0.092766374
000290 7a e3 42 3d 2e 1d 77 bc 68 02 b5 bd 9c 38 5c bd
       0.04758022 -0.015082641 -0.088383496 -0.053764924
0002a0 ad d5 d4 bc 13 f6 ac bc fd 47 bc 3b 8c 5d 59 3d
       -0.025980795 -0.021113431 0.0057458864 0.05306773
0002b0 b2 50 98 3d 25 e0 0e bd 71 0d 3a 3d 29 be 1e be
       0.074372664 -0.03488173 0.045422975 -0.15502228
0002c0 19 65 46 bd c3 1a a1 3d 7b c2 86 bc 7b 3d 90 bd
       -0.048436258 0.078664325 -0.016450157 -0.070429765
0002d0 ba 0c 3f bd 16 9a 72 3d 23 9e 4a bd df d9 bf 3c
       -0.046642996 0.05922898 -0.049467217 0.023419319
0002e0 b9 c4 1f 3d e4 8c 6a 3d cf be a3 3c 80 de 68 bc
       0.03900597 0.05726327 0.019988446 -0.014213204
0002f0 bf 6a 05 be 42 de 1b bd cf 81 9d bd 99 db 73 bc
       -0.13029002 -0.03805376 -0.07690775 -0.014883899
000300 83 e9 c6 bb b7 00 e7 3d 81 fc 89 bd c8 a8 5c bd
       -0.0060703172 0.11279433 -0.067376144 -0.0538719
000310 f0 ed 81 bd 01 c1 b4 3d f2 38 44 3d b5 8e 7d bd
       -0.06344211 0.08825875 0.04790587 -0.061903674
000320 60 65 2f 3c 3b ba 54 bd 83 c3 84 bd 91 b4 91 3d
       0.010705322 -0.051935416 -0.064826034 0.071145184
000330 07 f0 7f bd 81 76 a5 3d c9 9c c0 3c 01 c1 04 bd
       -0.062484767 0.080792435 0.023512261 -0.032410625
000340 ca df 52 bd f7 eb 75 bd ce e3 3f 3d d4 6d e1 bd
       -0.051482953 -0.060039487 0.04684811 -0.11007276
000350 64 35 a5 3c be ef 10 b9 7a 89 05 3c d9 52 ff 3c
       0.02016706 -0.00013822221 0.008150453 0.031167435
000360 04 57 b9 bc f1 d8 21 be 24 9a 02 bd bd 4b b1 3b
       -0.0226245 -0.15805413 -0.03188528 0.00541064
000370 e5 d9 6a bd 4e 7c 2c 3c ac fb c4 3d a9 58 28 3e
       -0.057336707 0.010527683 0.09618315 0.16440071
000380 20 86 36 3b fe 34 a0 bc 02 aa 20 3c 27 b0 18 3b
       0.002785094 -0.019556519 0.009806158 0.0023298354
000390 85 68 7a 3d 0c 6e ec bd f7 6d 27 bd ac 0e 53 3c
       0.061134834 -0.11544427 -0.040876355 0.012881916
0003a0 b5 f9 29 3d b6 b0 13 3d 16 be f6 bc 40 6f 86 3b
       0.041497905 0.036057197 -0.030119937 0.0041026175
0003b0 77 43 80 3d 4a 6b c4 bb 63 30 5b ba f1 f5 80 bb
       0.06262868 -0.005994235 -0.0008361397 -0.0039355685
0003c0 98 ce 65 3d cc 91 bd 3c bb f2 83 3d 7c fb 55 3b
       0.056105226 0.02314081 0.064427815 0.0032651117
0003d0 cd e5 9b 3d 53 b1 da 3c a9 54 e6 bd 76 15 d1 3d
       0.076121904 0.026695883 -0.112466164 0.102091715
0003e0 8c d7 32 3d 91 4a 88 bc 0a 2f 94 bd db 0f 89 3c
       0.043662593 -0.016637119 -0.072355345 0.016731193
0003f0 75 2b ab bc 80 fe 69 3d 29 96 fa bb b9 4c c0 3c
       -0.020894745 0.057127476 -0.007647295 0.023474084

fc2.bias f4 [256]
000000 2e b2 2b bd f7 28 a0 bd 37 ee 25 bd 35 c1 6e 3d
       -0.041917972 -0.078203134 -0.040510383 0.058289725
000010 02 c5 22 3d fc 4d b7 3c 98 77 49 bd 2f 61 97 3c
       0.039738663 0.022376053 -0.04918632 0.018478958
000020 b4 83 0c 3b 68 34 44 bd 82 62 a2 3d 5c 21 c6 bd
       0.0021440806 -0.04790154 0.07928945 -0.096743315
000030 4e 8b 4e 3c 62 bf 9b bd e1 71 8b 3d 8d 58 fc 3c
       0.012606455 -0.07604863 0.0680883 0.030803943
000040 19 92 c3 3d 37 a4 c3 3d 8c ae 71 ba 6c 06 08 3d
       0.0954935 0.09552806 -0.000921943 0.03320925
000050 f9 7f 27 3d d2 a1 98 3d f6 a1 e5 3b 61 b2 72 3b
       0.04089353 0.0745274 0.0070078326 0.0037032592
000060 f4 5c 0e bd 76 be ae bd dd 3d a0 3d 9d f1 af 3d
       -0.034756616 -0.08532421 0.078242995 0.08591006
000070 e2 4a 67 bd 86 98 98 bd 3b 70 53 bb 74 6f 03 3d
       -0.0564679 -0.074509665 -0.003226294 0.03208871
000080 f6 94 c4 bd f7 3a 6f bd 3e 8f b8 3d 83 32 d3 bb
       -0.095987245 -0.058405843 0.09011696 -0.0064452305
000090 76 6f 91 39 57 ea 81 bc f2 43 a3 3d 62 45 25 3d
       0.000277396 -0.015858812 0.07971944 0.04034937
0000a0 fe e2 df 3b 3f a2 b8 bd d3 1a c7 3c 56 7f 9a 3d
       0.0068324795 -0.09015321 0.024304783 0.07543819
0000b0 1a d7 b4 bc b4 61 a0 bd ee e5 11 3d db df 2a 3d
       -0.022075225 -0.078311354 0.03561967 0.04171739
0000c0 2d 9f 2f 3d 37 07 1d 3e 4b 93 3b bd 88 b5 f8 bd
       0.04287641 0.15334783 -0.045794766 -0.12143999
0000d0 a6 51 d6 bd 3b a6 8e 3d 68 2a d2 bc 04 6e d0 3d
       -0.10464792 0.069653 -0.025654987 0.10177234
0000e0 6b b8 0b bd 27 11 24 bd c1 52 02 3e ef f7 91 3d
       -0.03411142 -0.04005542 0.1272688 0.07127368
0000f0 db f6 8b bd 3d d3 bc bc 29 93 61 3c 0c 74 54 3d
       -0.06834193 -0.023049945 0.013767996 0.051868483
000100 c6 eb 94 3d f8 a8 99 3c 50 2c 91 bd b3 55 a1 3c
       0.07271533 0.018757328 -0.0708853 0.019694185
000110 dd 46 9d 3d e6 05 43 3c 55 6c e0 bb 87 87 af bc
       0.07679532 0.011903262 -0.0068488517 -0.02142693
000120 c5 3e 71 bd ea be 8b 3d 2f 93 a2 3d e9 e3 41 bd
       -0.058897752 0.06823523 0.07938229 -0.047336493
000130 61 ac 82 bd 9c b2 cf 3c cb 74 ac 3c da 13 8d bd
       -0.06380535 0.025353722 0.021051785 -0.06888552
000140 d0 11 b6 3c bf 29 f0 3d 85 18 91 bb 9e 0c fa bc
       0.02222529 0.117267124 -0.004427972 -0.030523594
000150 7e d0 83 bd b7 b6 57 3c e4 58 ba 3d 29 da 61 bc
       -0.06436251 0.013166121 0.09098986 -0.013784924
000160 23 c4 a7 3d cd ec a3 3c ee 1a af 3c 57 0f f4 bc
       0.08191707 0.020010376 0.021375146 -0.02979247
000170 88 4a b7 bc fb 49 35 bd 60 02 c1 3d d5 30 3d 3d
       -0.022374406 -0.044260006 0.09424281 0.046189148
000180 8b 1b 26 bd 24 a2 ad bb 25 90 98 3b 08 43 27 3d
       -0.04055361 -0.0052988697 0.0046558552 0.04083541
000190 ed 04 ac bd ac 5e a0 3d 37 6d 84 3d 89 c1 d9 3c
       -0.08399377 0.07830557 0.064661436 0.026581543
0001a0 ab c6 2a 3d a2 27 bf 3d 28 2c 21 bd 7f d4 bc 3c
       0.04169337 0.09333731 -0.03934875 0.023050545
0001b0 e0 ad 64 3c 04 fc 46 3d e0 a0 8b 3d ee cd 06 3e
       0.013957471 0.048580185 0.06817794 0.13164493
0001c0 f0 e2 1b bd 6f 9e 50 bc f5 fd 81 bc 9c d4 eb bd
       -0.03805822 -0.012733086 -0.015868166 -0.115151614
0001d0 73 a4 2e bd 65 b9 67 bd fa d6 f0 3d 7e b0 f1 3d
       -0.0426373 -0.05657329 0.117597535 0.11801241
0001e0 fe 22 b9 3d 9d 06 11 3d d7 75 04 3d 0b 46 c3 bc
       0.09039877 0.035406698 0.032338943 -0.02383711
0001f0 d3 ca ad bc 5f ce 01 3c df 97 06 bd 9f 49 d7 3d
       -0.021214878 0.007922738 -0.03285968 0.10512089
000200 50 28 15 bc b0 a9 91 3d 83 76 20 bd 93 0f c9 3d
       -0.0091038495 0.071124434 -0.03917552 0.09817424
000210 58 4e e6 39 8c 0c fa 3d 37 11 5b bd 21 bc 7c bd
       0.0004392739 0.122094244 -0.053483214 -0.06170285
000220 8e 42 b7 bc a4 cc 15 be 28 0e 89 3d 5b 20 cb bc
       -0.022370603 -0.14628845 0.06692153 -0.024795702
000230 27 28 cf 3b 87 6a 7a bc e7 a1 8b 3b 53 a9 92 3d
       0.006321925 -0.015284187 0.0042612436 0.07161202
000240 b0 b7 81 3d 20 9b cf 3b cb 12 c7 bd dc b7 d9 3c
       0.06333864 0.006335631 -0.09720381 0.026576929
000250 3d 19 b8 3d b8 2f 89 bc 85 66 c0 bd 0a 88 33 bd
       0.08989189 -0.016746387 -0.09394554 -0.04383091
000260 7c b6 c8 bd d0 d6 76 bd 67 8e 8e bd ed 85 36 3c
       -0.09800431 -0.060263455 -0.06960755 0.011140329
000270 18 19 87 3d 6f 1a b1 3c e3 49 8d bc 64 93 c3 bc
       0.06596583 0.02161905 -0.017247146 -0.023873992
000280 41 d2 41 bc ab 21 13 3d 7b 18 22 bc 90 73 44 bd
       -0.011829914 0.03592078 -0.009893532 -0.04796177
000290 a4 bb 47 3b 2c 21 c0 3d 99 ad 42 bd b2 98 61 bd
       0.0030476833 0.09381327 -0.047528837 -0.055077262
0002a0 75 ec 9a 3a 7d 2e 3c bc 2f 0d e8 3d c0 62 c6 bc
       0.0011819737 -0.011485693 0.113306396 -0.02421701
0002b0 f5 07 c3 3d 0c 45 88 bd 8d 4e 34 bd 25 a8 da bc
       0.09523002 -0.06653795 -0.044020224 -0.026691506
0002c0 84 85 aa bb 20 c3 8d 3d 7a 57 27 3d 37 73 7e bd
       -0.0052039046 0.06921983 0.04085491 -0.062121596
0002d0 bb 93 c3 3b 80 ca 96 ba 9d 41 9d 3b 9c bb 4a bd
       0.0059685386 -0.0011504441 0.0047990815 -0.049495324
0002e0 40 e5 90 bd d3 6a a2 bc f8 10 8c bd aa d0 87 3d
       -0.07074976 -0.019826328 -0.06839174 0.066315964
0002f0 85 7d 45 bd 90 1d e0 bb aa 5a b1 3d 48 f8 8f bd
       -0.048215408 -0.0068394616 0.08659871 -0.07029778
000300 89 48 1b 3d 76 c1 18 3c 30 eb 72 3b 4b 62 24 bd
       0.03791097 0.009323468 0.0037066452 -0.040132802
000310 d7 19 93 bd af e4 21 bd 4b 29 f0 bd a0 c5 a1 3d
       -0.07182663 -0.03952473 -0.11726626 0.07899022
000320 b1 3a cd 3d 57 10 d4 bd 07 5a 46 bd 64 e8 a2 bd
       0.1002096 -0.10354679 -0.0484257 -0.07954481
000330 2b 03 32 bd 0e 4d 25 bd cc bc 8c bc af 20 f7 bc
       -0.043460052 -0.04035669 -0.01717987 -0.030166952
000340 be 68 05 3d 66 75 34 bc db c1 58 39 f8 77 cb 3d
       0.032570593 -0.011014318 0.00020671582 0.099349916
000350 c0 dc b3 bd dd af 1a 39 3d e5 32 ba b7 b6 28 3d
       -0.08782339 0.00014752099 -0.00068243203 0.041189875
000360 00 fa c7 bc d8 32 5f bd ab fe 7d 3d 6e 6a 77 bd
       -0.024411201 -0.054491848 0.06201045 -0.060404234
000370 72 10 23 3d c6 6d af 3d a8 10 05 3d 50 ba 8b 3d
       0.039810605 0.085658595 0.032486588 0.06822646
000380 98 93 bd 3d 16 5b 08 bd 42 af 61 3c 87 a9 af bc
       0.09256667 -0.03328999 0.013774695 -0.021443142
000390 be 8a 11 bd 51 b1 d8 3d 31 03 06 bc 82 5c e3 3d
       -0.035532705 0.105806954 -0.008179472 0.11101629
0003a0 e5 40 c3 3d ff b0 af bc cc 25 9a bd 4f b7 93 bd
       0.09533862 -0.021446703 -0.075267404 -0.07212698
0003b0 61 f5 b2 3d c1 69 83 3c 30 ee 97 3d 8b 41 a8 bc
       0.087382086 0.016041638 0.074184775 -0.020539066
0003c0 e7 5b 2c 3d 55 d3 8a bc bc 64 43 3d 1c 33 a2 bc
       0.042079832 -0.016946474 0.04770349 -0.019799761
0003d0 b0 ad 8c 3d 96 ad 84 3d 19 35 43 3d 75 d3 ab bd
       0.06869066 0.064784214 0.04765806 -0.083899416
0003e0 58 35 4a bd 11 02 da 3d b1 23 27 3d 48 b0 98 3d
       -0.04936728 0.106449254 0.040805522 0.07455498
0003f0 d9 ba ac bc 84 be 46 bd 9f c3 5f bb ab b0 96 3d
       -0.02108519 -0.048521534 -0.00341437 0.073579155

fc3.weight f4 [128, 256]
000000 d3 78 18 bc 2b 6f bf bd 2e fe 20 3d 44 be 83 3c
       -0.0093061505 -0.093473755 0.039304905 0.016081937
000010 df 77 14 3b 9a 37 36 bc 64 a5 e4 3d 74 ff 7c bd
       0.0022654457 -0.011121655 0.11164358 -0.061767057
000020 b5 9d 78 3c 74 21 e2 3d 76 26 d2 3b 87 77 a6 3c
       0.015174319 0.11041537 0.0064132763 0.020320667
000030 f0 1e 9e bd 9a de a0 3d 9e c8 a2 3d 40 27 ad bd
       -0.077207446 0.07854958 0.07948421 -0.08454752
000040 6f c2 89 bd d3 4d 08 3c 87 58 87 bd 3b bb 70 bc
       -0.067265384 0.008319336 -0.06608682 -0.014693077
000050 ed c3 07 3e cb bf a6 bc a1 2b 36 3d d9 ac 6c bd
       0.13258334 -0.020355126 0.0444752 -0.057782028
000060 f1 f2 12 3d 3c 9a ca 3b 7e 75 43 bd 52 ad 2d 3d
       0.03587622 0.006182937 -0.04771947 0.04240162
000070 1b f0 61 bd 7e 8a d0 3c a2 ab 85 bd b0 99 8d bb
       -0.055160623 0.025456663 -0.06526877 -0.0043212995
000080 86 7c 81 3b ad 10 c7 bc 7f 09 3c 3d c5 cf 4f bd
       0.003951612 -0.024299944 0.045907494 -0.050735254
000090 76 75 3b bd ca de 61 bd 40 5d d6 3d 8a 05 90 3d
       -0.045766316 -0.05514411 0.10467005 0.070323065
0000a0 a7 5c 50 3d 46 2b 09 bd 7f c1 9d bd 33 72 5e 3d
       0.05086961 -0.033488534 -0.07702922 0.054308128
0000b0 06 78 03 3e 54 ef 3f 3a 13 6f a6 3d 66 c8 ba 3d
       0.12838754 0.00073217344 0.081266545 0.09120254
0000c0 37 d1 dc bd 85 9a 4d 3d f9 9b 80 3d d2 e2 a7 bd
       -0.10782092 0.05019619 0.062797494 -0.081975594
0000d0 e6 20 f8 3c 93 c3 e1 bb c2 3e b3 3d 4b 60 ad 3d
       0.030289125 -0.0068897693 0.087522045 0.08465632
0000e0 da 41 8c bc 0b cc 82 3d a7 11 83 bc 4f 18 e2 bd
       -0.017121244 0.06386574 -0.015999628 -0.11039793
0000f0 0e e9 0b be c5 d7 87 3d 7d d3 f7 bd 9c ff 92 3d
       -0.13663122 0.06632952 -0.12100885 0.0717766
000100 c0 e1 92 3d 9a 9b 06 3c 77 97 7e bd 70 05 2d be
       0.07171965 0.008215809 -0.062156167 -0.16896605
000110 97 f3 5f 3d 2a a4 07 3d bc 61 04 bd fe 3a 0b 3e
       0.054675665 0.033115543 -0.03231977 0.13596722
000120 c2 45 92 3d 1a 7f be bd d1 70 3b bd c4 cd 10 be
       0.071422115 -0.093015864 -0.045761887 -0.14140993
000130 16 fe 4a bd c5 5e ed ba c4 a9 e3 bd 35 2d 62 bd
       -0.04955872 -0.0018109909 -0.111163646 -0.055218894
000140 20 28 c4 bd 75 01 d3 bb ae d7 86 3d 10 04 6a be
       -0.09577966 -0.0064393827 0.065841064 -0.22853112
000150 8a 1e 3f bc e0 42 eb 3d 2b 7f bb 3b 07 97 9c 3d
       -0.011664996 0.11487365 0.0057219467 0.07645994
000160 de c6 8d 3d 98 1e 53 bb 64 a2 38 bc 96 68 b7 bd
       0.069226965 -0.003221428 -0.011269186 -0.08955495
000170 05 7f 99 3c 5e 7e 4a bc 2d da ff bc 52 b1 46 bd
       0.018737325 -0.01235923 -0.031231964 -0.04850895
000180 2c 13 d0 bd 1d f6 17 be b3 d6 4e bc 51 d8 3c bc
       -0.10159907 -0.14839979 -0.0126244305 -0.011526183
000190 1c d8 29 3d b0 10 d2 bb 9c bf fa bc f7 65 43 bd
       0.041465864 -0.0064106807 -0.030608945 -0.047704663
0001a0 dd c7 57 bc 8d 2a ff bd 9d 39 56 bd ef 92 b4 3c
       -0.01317021 -0.12459288 -0.052301038 0.02204272
0001b0 35 c0 95 bc f9 57 a5 bc fc a3 f2 3d 61 ac 50 bc
       -0.018280128 -0.02018355 0.11847684 -0.012736411
0001c0 5f 52 6b 3c e2 ef ce 3d f6 f6 19 3d df e8 44 3d
       0.0143629005 0.10104348 0.037589036 0.048073646
0001d0 69 c6 57 3c 7c cf a3 bc 88 ef 1e bd b0 c2 54 bc
       0.013169863 -0.019996397 -0.038802654 -0.01298587
0001e0 3a 6e fe 3c 6f 0d 51 3c 56 1b 90 3d 9f dc e8 bd
       0.03105842 0.0127595505 0.07036464 -0.11370205
0001f0 be 51 87 3d 99 02 2a bd 22 8d b4 3b d4 42 eb bd
       0.06607388 -0.041506384 0.0055099884 -0.11487356
000200 3e 90 50 bc 10 90 3a bb 76 9b 87 3d b7 50 9b 3d
       -0.0127297025 -0.0028467216 0.06621449 0.075837545
000210 ca 21 0f bd 19 03 77 bd 33 b5 1e bd 6f 2d 13 bd
       -0.034944333 -0.06030569 -0.038747024 -0.035932
000220 36 23 b4 be 95 a5 e9 bd b3 ec a3 3c 8c 24 c2 3d
       -0.35183114 -0.114085354 0.020010328 0.09479627
000230 81 08 a4 bd e2 92 95 3d 71 d7 0f 3e 37 4d 98 3d
       -0.080094345 0.07303406 0.14047028 0.074366026
000240 22 ff 29 bd d3 4b 98 3d bf b2 82 bd 03 8d b8 bb
       -0.04150308 0.07436337 -0.06381749 -0.0056320443
000250 d7 a4 0a be 74 b8 82 3d ba b2 a2 3c d8 ee cd bd
       -0.13539444 0.06382838 0.019860614 -0.100553215
000260 b6 2b 95 bd 0d e7 2d 3c e8 5e 20 3e e5 d4 04 bd
       -0.07283728 0.010614169 0.15661204 -0.032429595
000270 91 5e 86 bd af e6 a5 bc 3b d6 48 3d 3c 6f 1c 3d
       -0.06561006 -0.0202516 0.04903243 0.03819202
000280 df f7 e4 3c 3b d3 07 3d 29 4e 49 3c 87 16 ba 3d
       0.027950225 0.03316043 0.012286701 0.09086328
000290 98 e7 04 3d 70 a5 f6 bc 63 5c a0 3d 51 fb b2 3c
       0.032447428 -0.030108184 0.07830121 0.021848353
0002a0 a7 9b e9 bc ff 9f 90 bb 97 75 93 3d 63 a2 b0 bd
       -0.028516604 -0.0044136043 0.07200163 -0.08624723
0002b0 c8 54 b5 3d 8b 09 c8 3d ce 72 ef 3d 4d 40 78 3d
       0.08854061 0.09767445 0.11691819 0.060608197
0002c0 15 0a 90 bc 51 64 64 3d 86 6e f6 3d 4d 92 cd 3c
       -0.017582932 0.05575973 0.120327994 0.025094176
0002d0 df d1 c0 3d cf 0c 8e bd 84 56 8c 3b 36 0f 85 be
       0.0941503 -0.06936037 0.0042827744 -0.25988168
0002e0 e2 fb 2e 3d bc 81 79 3d c1 8e 0d bd f1 22 28 bd
       0.042720683 0.06091474 -0.03455997 -0.041048948
0002f0 5c 63 6e bd 0e 04 10 3e cb 3c a5 bc c4 e7 32 be
       -0.058200225 0.14064047 -0.02017059 -0.17471224
000300 01 d3 03 be 2d 9b 7c bd e8 a8 84 3c c8 7a 77 3c
       -0.1287346 -0.061671425 0.016193822 0.015104957
000310 14 09 70 3d fa ea 2a 3d 13 eb 98 bc 5d f3 81 bd
       0.058602408 0.041727997 -0.01866678 -0.06345246
000320 09 e9 05 bb b4 82 ff bd d0 4f e2 3d b9 04 a5 3b
       -0.002043309 -0.124761015 0.11050379 0.0050359634
000330 62 b1 a6 3c 98 ae ee 3c 74 41 24 bd c5 26 bc bc
       0.020348255 0.029135987 -0.040101483 -0.022967706
000340 88 63 71 3d 95 bc 80 3d 56 fe bb bd a6 de 8d 3d
       0.05893281 0.06285969 -0.0917937 0.069272324
000350 43 10 13 3d 46 84 a9 bd 0d 60 af 3d 87 8b bb 3d
       0.03590418 -0.08277182 0.08563242 0.09157472
000360 b9 30 9c 3d 12 2e 25 3d 09 00 33 3d f4 54 ba bd
       0.076264806 0.04032714 0.043701205 -0.09098235
000370 fe 4a a1 ba 87 28 80 bd 25 a0 9b 3d 4b b4 a8 bd
       -0.0012305675 -0.0625773 0.075989045 -0.08237513
000380 a3 57 c7 bd 79 a2 bd bd 4c f2 8b bb f3 72 01 bd
       -0.09733512 -0.09259505 -0.0042708274 -0.031603765
000390 c5 7a 68 bd 3f 52 87 3b d2 d2 26 bd ac 18 d9 bd
       -0.056757707 0.0041296775 -0.040728398 -0.10600409
0003a0 99 ac b3 bc 59 2e c9 bb f5 e3 a9 3d d4 c2 9d 3b
       -0.021932887 -0.0061395583 0.082954325 0.004814485
0003b0 03 6b b9 3c ca e6 f2 3d f6 aa b6 3d 50 02 26 3d
       0.022634035 0.11860426 0.08919327 0.04052955
0003c0 27 0f 46 bd ac 52 5a 3c aa 99 f1 3d b3 a0 43 bc
       -0.048354294 0.013325375 0.11796887 -0.011940169
0003d0 8e f5 61 3d 59 80 90 bd cd 8c a5 3d 03 2e 6e bd
       0.05516582 -0.070557304 0.08083496 -0.05814935
0003e0 a8 09 9e bd f9 60 3d bd b9 9a 21 3d 35 c4 bb 3d
       -0.077166855 -0.04623506 0.039454196 0.09168283
0003f0 52 63 b5 bb 51 9f 33 3d cb 81 68 3d 21 ce e0 bc
       -0.0055355215 0.043853108 0.056764405 -0.02744204

fc3.bias f4 [128]
000000 f0 2c 08 3e b9 bf 1a 3e 3e 54 0f be a3 02 4a 3e
       0.13298392 0.15112199 -0.1399698 0.19727568
000010 74 25 e4 3d 71 b6 d3 3c 9f a5 18 3d 5f ed f0 3c
       0.11139956 0.02584383 0.037267324 0.029410062
000020 c2 d6 5d bd 08 83 f4 bd 58 41 5e 3e 73 34 12 3d
       -0.054159887 -0.11939055 0.21704614 0.03569455
000030 22 79 c0 bd 52 23 1e 3e 36 6a dd bd 2d 43 0b be
       -0.09398104 0.15443161 -0.10811274 -0.13599844
000040 6a 9a 91 bd 32 c3 48 3e b1 3f 0a 3e df 15 21 3e
       -0.0710953 0.19605711 0.13500859 0.15731
000050 90 47 3f 3e 25 9c 64 bd f4 9a a8 bd 0f 3c 0d be
       0.18679643 -0.055812974 -0.0823268 -0.13792442
000060 7e 8d d0 3d c7 21 fd 3d 5d 09 0a be c8 24 c9 3d
       0.101832375 0.12359958 -0.13480134 0.098214686
000070 00 c9 1e be c8 04 05 bc 04 96 f0 3d 63 af ae 3c
       -0.15506363 -0.008118816 0.11747363 0.021323865
000080 ae e2 35 bd 22 60 df 3d 99 7a 42 3e af b8 0e 3e
       -0.04440563 0.10907008 0.1899208 0.13937639
000090 af 8a 0a 3e 30 f2 ca bd 38 78 2a 3e 00 31 cf 3d
       0.13529466 -0.09909475 0.16647422 0.10116768
0000a0 e2 f8 d9 bd 11 b6 0b 3e cd b0 c9 bd ef e0 2f 3e
       -0.10643174 0.13643672 -0.09848175 0.17175649
0000b0 78 3d 1e be ef 81 11 3e f1 6c 82 3e 79 88 ef bd
       -0.15453136 0.14209722 0.2547374 -0.11695952
0000c0 84 09 0c 3e 5a ba 91 bd 9c dc 62 3d d9 25 91 bd
       0.13675505 -0.07115622 0.05538617 -0.07087297
0000d0 fd 9e df 3d 64 6e 21 3e 49 64 31 bd b8 2f a9 3d
       0.109189965 0.15764767 -0.04330853 0.08261055
0000e0 2f 70 5a bd c6 b5 b8 bd fb d3 06 3d 6f 9b 69 3e
       -0.053329643 -0.090190455 0.032917004 0.228132
0000f0 bf 7a c4 bc 3d 51 36 3e 8c 7a 57 3d 2d c8 e6 3d
       -0.023984311 0.17804427 0.052607104 0.11268649
000100 50 b6 ef bd f0 80 6c bd b4 35 c4 3d 0e 9d 97 bd
       -0.11704695 -0.057740152 0.095805556 -0.07403003
000110 f1 e7 12 3e ee 88 0c 3e a7 3a e1 bd c3 3b 49 3e
       0.14346291 0.1372411 -0.10997515 0.19651704
000120 32 d8 a7 3d 54 24 83 3d c9 d9 28 be 8a cb 6b 3e
       0.08195533 0.064034134 -0.16489328 0.23026863
000130 16 f7 01 be 0b 47 dd 3d d5 8c 01 3e 81 7f b8 bd
       -0.12691912 0.10804566 0.1265138 -0.090086944
000140 7f ff e1 bd 22 4f fc bc a7 a8 31 3e 52 6a a4 bd
       -0.1103506 -0.030799452 0.17349492 -0.080280915
000150 c1 0c df bd 95 86 87 3d 2b d9 64 3d 34 ea 16 3e
       -0.108911045 0.06617466 0.05587117 0.14737779
000160 de 2f c0 bd 1c 42 1e be 2f 67 21 3e 6f d3 10 be
       -0.0938413 -0.15454906 0.15762018 -0.14143156
000170 96 a0 60 3e 75 f5 b2 bd 23 ff bc 3d 37 3e ed bd
       0.21936259 -0.087382235 0.09228351 -0.11584132
000180 00 d2 69 3d 49 6b 16 3e 5b f5 da 3d 0b b3 db bc
       0.057085037 0.14689364 0.10691329 -0.026818773
000190 48 11 10 3e 8f 9b de 3d 87 18 c8 3d 2b 27 ad bd
       0.14069092 0.10869514 0.09770303 -0.08454736
0001a0 7d a4 24 be 66 47 bd bd b3 18 a7 3b 25 0f a7 3d
       -0.16078372 -0.09242134 0.00509938 0.081571855
0001b0 1f a4 03 3e 4a 5e 05 bd 28 12 00 bd 06 12 25 bd
       0.12855576 -0.032560624 -0.031267315 -0.04030039
0001c0 3b 60 f9 bd dd 18 8f 3d d8 41 06 3e 2e 13 6b 3d
       -0.12176558 0.06987164 0.13111055 0.057391338
0001d0 fb 75 11 be 50 7f 6a bd d3 b4 19 bd f1 68 8f bd
       -0.14205162 -0.05725032 -0.037525963 -0.07002438
0001e0 12 89 5b bd f6 42 b2 3d 0b d4 b6 3d 8f c9 25 bd
       -0.053597517 0.08704178 0.08927163 -0.040475424
0001f0 e1 d6 bd 3d 67 d4 06 3e a5 73 37 3e 62 39 be bd
       0.092695005 0.13166963 0.17915209 -0.09288289

fc4.weight f4 [1, 128]
000000 96 d3 f5 3d 50 47 f8 3d 1a e1 c5 bd 0f 29 b5 3d
       0.120032474 0.12122977 -0.09662075 0.08845722
000010 a1 bd ab 3d b1 3f 7b be 77 f2 3d 3e c8 06 22 3e
       0.08385778 -0.24536015 0.18549524 0.158229
000020 56 58 07 be e9 71 06 be ed c0 c3 3d 93 b8 02 3e
       -0.13217291 -0.13129391 0.09558282 0.12765722
000030 80 f3 0f be 96 71 e4 3d f4 38 3f be 6c 27 28 be
       -0.14057732 0.11154477 -0.1867407 -0.16421288
000040 a1 d1 12 be ee f9 b9 3d 6a da 05 3e c6 64 ca 3d
       -0.1433778 0.090808734 0.130716 0.09882502
000050 b8 4d b4 3d 2d 57 46 be fc ac 13 be 30 7b 14 be
       0.08803886 -0.19369192 -0.14421457 -0.14500117
000060 52 dd 18 3e 5d 16 fe 3d 6f e2 f1 bd e2 e1 99 3d
       0.14928177 0.12406609 -0.11810767 0.07513787
000070 9e 8e 67 be 0d 12 34 be 5e 86 0c 3e fe 1a 8d 3d
       -0.22612998 -0.17585011 0.13723132 0.06889914
000080 c1 f1 11 be da 0a 26 3e 39 b6 9d 3d e7 2b d8 3d
       -0.14252378 0.16215077 0.07700772 0.10555249
000090 ca d3 28 3e a9 41 ec bd a9 76 06 3e 19 bf 90 3d
       0.16487041 -0.11535961 0.13131203 0.07067699
0000a0 10 9d 56 be 57 07 0f 3e dc 95 35 be 9d 6b 59 3e
       -0.20958352 0.13967644 -0.17732948 0.21232457
0000b0 8a 5f 1f be 8e fb 15 3e 4b 68 b2 3d 9f 3f e2 bd
       -0.15563789 0.14646742 0.087112986 -0.11047291
0000c0 8e 4d 86 3d 4f 8b 3c be 02 5c d3 3d 9a 0d 02 be
       0.06557761 -0.18412517 0.103202835 -0.12700501
0000d0 c7 d8 02 3e dc ab 15 3e e0 20 f9 bd 56 bd d6 3d
       0.12778006 0.1461634 -0.121644735 0.10485332
0000e0 c3 ce 27 be 82 cd 07 be 71 6c d1 3d e3 ae e3 3d
       -0.16387467 -0.13261989 0.10225762 0.11117341
0000f0 68 ed ca bd 31 31 aa 3d 82 a4 f7 3d 10 be 32 3e
       -0.09908563 0.08310164 0.12091924 0.17455316
000100 e5 7b 0b be a3 8b c3 bd 05 22 08 3e c2 46 2a be
       -0.13621481 -0.09548118 0.13294227 -0.16628554
000110 b0 5f 09 3e b5 9c fd 3d 33 1e 17 be 91 0b cf 3d
       0.13415408 0.12383405 -0.14757614 0.10109628
000120 a0 66 20 3e f9 14 e6 3d 22 39 06 be d8 0f a6 3d
       0.15664148 0.11234469 -0.13107732 0.08108491
000130 ac 46 1b be 0a 22 38 3e eb 98 13 3e 77 b6 2b be
       -0.15163678 0.17981735 0.14413802 -0.16768824
000140 d2 ff 00 be 16 9e ff bd 62 c4 0c 3e 50 25 32 be
       -0.12597588 -0.124813244 0.13746789 -0.17397046
000150 4c 52 1f be 9a b1 10 3e 0f e8 af 3d 3d 69 22 3e
       -0.15558738 0.1413025 0.085891835 0.15860458
000160 68 5e e6 bd e4 26 ab bd fd 30 0e 3e c5 86 4f be
       -0.11248475 -0.08357027 0.13885875 -0.20266254
000170 22 63 94 3d 4e 6f d1 bd 7d 09 fe 3d 90 4a 34 be
       0.072454706 -0.10226308 0.124041535 -0.17606568
000180 59 94 12 3e 20 26 ab 3d fc 35 8c 3d 22 75 ff bd
       0.14314403 0.08356881 0.06846234 -0.12473513
000190 3b 77 54 3e e7 ad 1b 3e af 93 fc 3d 41 ee c6 bd
       0.20748608 0.15203057 0.12332856 -0.09713412
0001a0 6a 2a 29 be 8a ad 1c be 30 21 13 be 15 2f 0e 3e
       -0.16520086 -0.15300575 -0.14368129 0.13885148
0001b0 43 8e ee 3d 06 c8 77 be 7a 5b 9a be 69 e8 f9 bd
       0.11648228 -0.24197397 -0.30147916 -0.12202532
0001c0 88 b9 26 be 97 56 da 3d 2f 15 1c 3e 40 1e bd 3d
       -0.16281712 0.10661047 0.15242456 0.09234285
0001d0 89 46 63 be c1 51 cc bd 06 83 e8 bd 7f d9 11 be
       -0.22194876 -0.09976531 -0.11353116 -0.14243124
0001e0 85 96 70 be 0e 73 15 3e 62 aa 9b 3d 0d ea da bd
       -0.23494919 0.14594671 0.07600857 -0.10689173
0001f0 79 c1 ab 3d 76 af e1 3d 43 cd 25 3e c3 2a 45 be
       0.08386511 0.11019795 0.16191582 -0.19254594
