checkpoints/ddpg/132_checkpoint_actor_solved.pth (torch_old, 39737 bytes, 4 tensors)

fc1.weight f4 [256, 33]
0	0x3cea564e	0.028605606
1	0x3d13fca5	0.036129612
2	0x3c7524b9	0.014962369
3	0x3d3f1076	0.046646558
4	0x3d102f27	0.035201218
5	0x3c577576	0.013150563
6	0xbded3388	-0.115820944
7	0x3d46bc6b	0.048519533
8	0x3df57946	0.11986022
9	0x3e581b0c	0.21104068
10	0x3e97c576	0.29642838
11	0xbe3522f4	-0.17689115
12	0xbd8cb550	-0.0687052
13	0x3cbba4e5	0.022905776
14	0xbe0652cf	-0.13117526
15	0x3d93c4ff	0.072153084
16	0x3db0ef1e	0.08639358
17	0x3d377e17	0.044797983
18	0x3c614ee0	0.013751715
19	0xbe042eef	-0.12908529
20	0x3dbd3174	0.09237948
21	0x3e5b97b5	0.2144459
22	0x3e65c163	0.22437052
23	0x3e8970dd	0.2684392
24	0xbc590b75	-0.0132473605
25	0xbd5c5981	-0.053796295
26	0xbddf7035	-0.10910074
27	0x3e406d82	0.18791774
28	0x3e643a75	0.22287925
29	0xbbd61ef0	-0.0065344498
30	0xbe0840f0	-0.13306022
31	0x3c0dc878	0.0086537525
32	0xbf077006	-0.5290531
33	0x3d55afb6	0.052169524
34	0x3f041d7b	0.51607484
35	0x3d49f2c2	0.049303778
36	0xbde880d2	-0.113526955
37	0xbd6bfe41	-0.057615522
38	0x3d040339	0.032229636
39	0xbcee811b	-0.029114297
40	0xbd58eeb9	-0.05296204
41	0xbdfe1625	-0.124065675
42	0x3e1cb79e	0.1530442
43	0x3e13c764	0.1443153
44	0x3d96821e	0.07349037
45	0x3e42a7fc	0.19009393
46	0xbe6b8211	-0.22998835
47	0x3d4503ec	0.048099443
48	0x3e01b737	0.12667547
49	0xbd45c63b	-0.04828475
50	0x3de6dab4	0.11272183
51	0xbce60e47	-0.02808298
52	0xbd3b9477	-0.045795884
53	0xbcbb557b	-0.022867909
54	0x3c9a9376	0.018869143
55	0x3e0b7c6e	0.13621685
56	0xbe38da71	-0.18052079
57	0xbe851828	-0.25994992
58	0x3e6eef65	0.2333351
59	0xbd12cce8	-0.035839945
60	0x3e8b9650	0.27263117
61	0x3dd811b9	0.10550255
62	0x3c5cff08	0.013488539
63	0xbe606c2f	-0.21916269
64	0xbcb5b760	-0.022182167
65	0x3daec878	0.0853433
66	0x3d8fd836	0.07023661
67	0xbe84a834	-0.2590958
68	0x3e2453ec	0.16047639
69	0x3d4af0ab	0.049545925
70	0xbe1001ef	-0.14063238
71	0x3cfbd55e	0.03074139
72	0x3dc0741c	0.09397146
73	0x3c1c9b76	0.009558549
74	0x3df59f38	0.11993259
75	0x3d8bdc13	0.06829085
76	0x3e234dee	0.15947697
77	0xbe0ac76f	-0.1355264
78	0x3cf63457	0.030054254
79	0x3d0d82b3	0.034548473
80	0xbeb3e5d9	-0.35136297
81	0x3d1c3ec8	0.03814581
82	0x3d7d0eee	0.061781816
83	0xbcd88a0d	-0.026433015
84	0xbcbd5cea	-0.023115594
85	0xbd2a5640	-0.04158616
86	0xbd11c6dd	-0.03559004
87	0x3c905175	0.017616967
88	0xbdfabf2c	-0.122434944
89	0xbbaab935	-0.0052100667
90	0xbde4bc14	-0.111686856
91	0xbde295ff	-0.11063766
92	0x3dfc0e21	0.123073824
93	0xbd0f8736	-0.035041057
94	0x3e0aa8b4	0.13540918
95	0xbc93b3ec	-0.01803013
96	0x3ce1db12	0.027570281
97	0xbd58754e	-0.052846245
98	0xbd4c3d23	-0.049862992
99	0x3e037939	0.12839212
100	0x3d701143	0.058610212
101	0xbe338128	-0.17529738
102	0xbddc5bae	-0.10759674
103	0x3d934415	0.0719072
104	0xbb57ba19	-0.003291732
105	0xbcbf13de	-0.023324903
106	0x3c921ce6	0.017836045
107	0xbdeee4d2	-0.11664738
108	0x3de74587	0.11292558
109	0xbcb29c0c	-0.021802925
110	0xbd9dd740	-0.07707071
111	0x3de22682	0.11042501
112	0x3ded9c8d	0.11602125
113	0x3b1b574a	0.0023703151
114	0xbd8fe2c5	-0.07025675
115	0xbd2c99fc	-0.04213904
116	0xbc230323	-0.009949478
117	0xbd53ef40	-0.05174184
118	0xbd06b32d	-0.03288572
119	0x3c761680	0.015020013
120	0xbe2097bc	-0.15682882
121	0x3e186067	0.14880525
122	0xbe3a026e	-0.1816499
123	0xbe146705	-0.14492424
124	0xbd86900b	-0.06570443
125	0x3e18a5b2	0.14906958
126	0xbd7656cd	-0.060141373
127	0xbd1ddf52	-0.038543053
128	0xbcb56028	-0.022140577
129	0xbcc006a7	-0.023440672
130	0x3c3ff490	0.011716023
131	0x3e3cf3eb	0.18452422
132	0xbd3f48dc	-0.046700343
133	0x3e8b345e	0.2718839
134	0xbdbb9762	-0.09159733
135	0x3d410af4	0.047129586
136	0x3c013d8d	0.00788821
137	0x3c847840	0.01617062
138	0xbd74772d	-0.059683967
139	0x3e19a9c7	0.15006171
140	0xbe1c15e2	-0.15242723
141	0x3e97c13d	0.29639617
142	0x3e4d65dc	0.20058388
143	0xbd877265	-0.06613616
144	0xbc52dd35	-0.012870123
145	0x3ddeaecf	0.10873186
146	0xbda57e36	-0.080807135
147	0xbdcf6458	-0.10126561
148	0x3cb76103	0.022385126
149	0xbc988cbc	-0.018621795
150	0xbd53e56c	-0.051732466
151	0xbc5a02d5	-0.013306339
152	0x3e63e1e3	0.22254138
153	0xbb1f0455	-0.0024264057
154	0xbdba78f9	-0.09105105
155	0x3e90a99a	0.28254396
156	0xbbbf14f7	-0.0058313566
157	0x3d0618c7	0.032738473
158	0x3e595d3a	0.2122697
159	0x3e4ccd19	0.20000114
160	0x3c9517cd	0.018199826
161	0xbd43d77e	-0.04781293
162	0xbe42da3e	-0.19028565
163	0xbc8891a0	-0.016671002
164	0x3eeb968f	0.46013305
165	0xbecfceca	-0.40587455
166	0xbdcd42bb	-0.100224935
167	0xbd0fb9b0	-0.035089195
168	0xbe1cf42b	-0.15327518
169	0xbda518b8	-0.08061355
170	0x3d5a539e	0.0533024
171	0xbdf2fa02	-0.118640915
172	0x3d0754a9	0.033039723
173	0xbd20f8f8	-0.039299935
174	0xbec34bff	-0.38143918
175	0xbe06b24a	-0.1315395
176	0x3df15a04	0.11784747
177	0x3e0f2059	0.13977183
178	0x38a561aa	7.8860045e-05
179	0x3c9875b3	0.01861081
180	0x3db3693a	0.08760305
181	0xbcf28616	-0.029604953
182	0xbcca8289	-0.024720447
183	0xbc212507	-0.009835488
184	0xbce28315	-0.027650395
185	0x3e7713fd	0.24128719
186	0xbc9c6b94	-0.019094266
187	0xbdac9008	-0.08425909
188	0xbdc4cbf8	-0.096092165
189	0xbd699c3e	-0.05703377
190	0x3e9bccb1	0.30429605
191	0xbd8eac75	-0.06966487
192	0xbdcb44ce	-0.09925233
193	0x3da1b9a6	0.07896738
194	0xbcb181b0	-0.021668285
195	0x3d10773a	0.035269953
196	0xbd64ff40	-0.055907488
197	0xbf1bff96	-0.6093687
198	0xbd564b40	-0.052317858
199	0xbe8adfa6	-0.27123755
200	0xbd14dd5f	-0.03634393
201	0xbce3ced6	-0.027808588
202	0xbd97d7e4	-0.07414225
203	0x3cbe1bcd	0.023206616
204	0x3d52aead	0.051436115
205	0xbe228fc0	-0.15875149
206	0x3e44336c	0.19160241
207	0xbc905e77	-0.01762317
208	0xbd3b2356	-0.045687996
209	0x3e283ca3	0.16429381
210	0x3db15a2d	0.08659778
211	0xbe713273	-0.23554401
212	0x3e4fdc39	0.20298852
213	0xbe85583e	-0.26043886
214	0xbcefd698	-0.029277131
215	0x3cebaca9	0.028768854
216	0x3d57abf6	0.05265423
217	0xbcc2f131	-0.02379665
218	0xbdf40bb3	-0.11916294
219	0xbd8bdf79	-0.068297334
220	0x3e7b60cb	0.24548642
221	0x3d29c54c	0.041447923
222	0xbd547854	-0.051872566
223	0xbe11726a	-0.14203802
224	0x3c963256	0.018334549
225	0xbe68b2cd	-0.22724457
226	0x3e47abe1	0.1949916
227	0x3d7a5646	0.061117433
228	0x3e8e3793	0.27776775
229	0xbc93f268	-0.018059924
230	0xbe9317b4	-0.28729022
231	0x3cf11891	0.02943066
232	0xbdd53cad	-0.104119636
233	0x3dd12f78	0.10214132
234	0x3c13a104	0.009010557
235	0xbca60b2b	-0.020268997
236	0x3dc5a87b	0.09651276
237	0xbdff319b	-0.12460633
238	0x3e301b83	0.17197995
239	0xbce29ded	-0.027663196
240	0xbd00c72c	-0.031439945
241	0xbdddda68	-0.10832673
242	0xbd9c2767	-0.07624703
243	0xbe031cdb	-0.12803976
244	0x3e1415e2	0.14461473
245	0xbe5b95f1	-0.21443917
246	0x3e1f6b69	0.15568317
247	0x3d6ce85c	0.057838783
248	0x3d0658d2	0.03279955
249	0x3e0b26c6	0.1358901
250	0x3d602a85	0.05472805
251	0xbe22ee27	-0.1591116
252	0xbe24c4ff	-0.16090773
253	0xbe07ac6b	-0.13249366
254	0xbdd7006a	-0.10498126
255	0x3c2bdbdc	0.01048943

fc1.bias f4 [256]
0	0xbdc91a6b	-0.09819492
1	0xbdc2d5ca	-0.09513433
2	0xbd7692d6	-0.060198627
3	0x3e25557e	0.16145894
4	0xbe4592ce	-0.19294283
5	0xbdbd8aec	-0.09255013
6	0x3dc04394	0.093878895
7	0xbd1c5d07	-0.038174655
8	0xbe541ff2	-0.20715311
9	0x3dd6df6e	0.104918346
10	0xbde8e1c3	-0.11371186
11	0xbc8a6867	-0.016895486
12	0x3dcba667	0.09943848
13	0xbe910d86	-0.2833063
14	0x3e80ec6d	0.2518038
15	0xbdbac579	-0.09119696
16	0xbda0660d	-0.07831965
17	0xbf02004a	-0.5078169
18	0x3ecae04c	0.3962425
19	0xbe63d8e4	-0.22250706
20	0x3d69ca13	0.05707748
21	0x3e029d0e	0.12755224
22	0x3ca80e4d	0.020514632
23	0xbe257cdc	-0.16160911
24	0x3dd17bea	0.10228713
25	0x3e237655	0.15963109
26	0xbdbd8c12	-0.09255232
27	0xbd5c970f	-0.053855
28	0x3de4178c	0.11137304
29	0xbe09939a	-0.13435212
30	0xbe0e8fa5	-0.13921984
31	0x3d34f1ff	0.044176098
32	0xbe168daf	-0.14702486
33	0x3e5ed03e	0.21759126
34	0xbe8372b0	-0.25673437
35	0xbdb26dc6	-0.08712344
36	0xbe07b456	-0.13252386
37	0xbc00ec8c	-0.007868897
38	0xbe147aa6	-0.14499912
39	0xbd844b95	-0.06459729
40	0xbe684f2c	-0.22686452
41	0xbc0a22b3	-0.0084311245
42	0x3e7ed950	0.24887586
43	0xbe7c3ac6	-0.24631795
44	0xbe7281c3	-0.23682313
45	0xbe0604d2	-0.13087776
46	0xbaffbc47	-0.0019511067
47	0x3e556fe5	0.20843466
48	0x3e9ef140	0.31043434
49	0xbe0e06bf	-0.13869761
50	0xbe2e0698	-0.16994703
51	0x3e16aaff	0.14713667
52	0x3d8bdce7	0.06829243
53	0xbf115890	-0.5677576
54	0xbf145433	-0.5794098
55	0xbd6a90dd	-0.05726706
56	0x3e27bfda	0.1638178
57	0x3d363ef2	0.044493623
58	0xbe3baf09	-0.1832849
59	0xbd4bbcd6	-0.049740635
60	0xbefb3528	-0.49063993
61	0xbebeb6c5	-0.37248817
62	0xbe7d3e5e	-0.24730822
63	0x3d5d5c95	0.05404337
64	0x3dc5342a	0.0962909
65	0x3d98d5de	0.07462667
66	0xbd997b68	-0.07494241
67	0x3ea70282	0.326191
68	0xbd4caf56	-0.0499719
69	0xbe7cc350	-0.24683881
70	0x3ddaee36	0.106899664
71	0xbd94acc6	-0.072595164
72	0xbd0539da	-0.032525875
73	0x3d6821eb	0.05667297
74	0x3e736d8a	0.23772255
75	0x3e92401e	0.28564543
76	0x3e0649a3	0.13114028
77	0xbebf186e	-0.37323326
78	0x3eaba4eb	0.3352426
79	0x3dc88084	0.097901374
80	0xbe237b70	-0.15965056
81	0x3eac0bb6	0.33602685
82	0x3d4f455c	0.050603256
83	0xbe1c4cdf	-0.15263699
84	0x3efbff07	0.49218008
85	0x3e1a53ae	0.15070984
86	0x3e930932	0.28717953
87	0x3e8ee11c	0.2790612
88	0xbdd2e2b2	-0.10297145
89	0x3ec1ccce	0.37851566
90	0x3e51015d	0.20410676
91	0x3db56e29	0.08858902
92	0xbcaf8934	-0.021427728
93	0xbe0d28a0	-0.13785028
94	0xbe65dba1	-0.22447063
95	0xbe40cc3b	-0.18827908
96	0xbe4b1d8d	-0.19835491
97	0xbcf6c046	-0.03012098
98	0x3e978120	0.29590702
99	0x3db8d4e6	0.09024982
100	0x3e389e58	0.18029153
101	0x3df75eb4	0.1207861
102	0x3d2ecea6	0.042677544
103	0x3b64223d	0.0034810447
104	0xbe482f52	-0.19549301
105	0x3e38c532	0.18043974
106	0xbcbe7e14	-0.023253478
107	0x3ca81ee8	0.02052255
108	0x3c4fa931	0.012674616
109	0xbd38c84d	-0.045112897
110	0x3e1bdb77	0.15220438
111	0x3e9ba63d	0.30400267
112	0xbca3b77a	-0.01998495
113	0x3d253585	0.040334243
114	0x3d949a8c	0.0725604
115	0x3e373a70	0.17893386
116	0x3e974790	0.29546785
117	0xbecee33b	-0.40407738
118	0x3e0e7466	0.1391159
119	0xbe4ecfab	-0.20196407
120	0x3eb92c96	0.3616683
121	0x3e5a6034	0.21325761
122	0x3e167958	0.14694726
123	0xbe1708b9	-0.14749421
124	0xbd1857f8	-0.03719327
125	0xbd92829f	-0.0715382
126	0x3e1945bc	0.14968008
127	0x3db865da	0.09003802
128	0x3e8c4222	0.27394205
129	0x3e771c3b	0.24131863
130	0xbe683916	-0.22678027
131	0x3d041309	0.032244716
132	0x3d1b713c	0.037949786
133	0x3ea4a330	0.32155752
134	0x3e255fd7	0.16149841
135	0xbe63e37f	-0.22254752
136	0xbe9d206b	-0.30688795
137	0x3d62f3b4	0.055408195
138	0xbef9b5d5	-0.4877154
139	0xbc10e944	-0.008844677
140	0x3da2baf9	0.079458185
141	0x3cf0dfec	0.02940365
142	0xbe78aeb6	-0.24285397
143	0xbe06632c	-0.13123769
144	0x3e93a3b8	0.28835845
145	0x3e0f09f8	0.13968647
146	0x3db74169	0.08948023
147	0x3df9510f	0.12173664
148	0x3d398828	0.045295864
149	0x3ce6b012	0.028160129
150	0x3b4ed4d9	0.0031559973
151	0x3e18a25b	0.14905684
152	0x3e01f9b5	0.12692912
153	0x3e192875	0.1495684
154	0x3cc94eb0	0.024573654
155	0x3e498600	0.19680023
156	0x3e826cf9	0.25473765
157	0xbee624fa	-0.44950086
158	0x3e0cc4cf	0.13746952
159	0xbf0bee3d	-0.546604
160	0x3e9c2701	0.30498508
161	0xbe6b0360	-0.22950506
162	0x3d99c8b2	0.07508983
163	0xbd92d62b	-0.071697555
164	0xbe6700e4	-0.22558933
165	0x3d9a61c8	0.075381815
166	0x3e942c10	0.28939867
167	0xbe31ad4f	-0.17351268
168	0xbd8e65a2	-0.06952979
169	0xbead89e9	-0.3389428
170	0x3c73d0f2	0.014881359
171	0xbcc866bd	-0.024463052
172	0x3ee6552d	0.4498686
173	0x3e974b23	0.29549512
174	0x3d8ecdf8	0.06972879
175	0x3d9abfa9	0.075560875
176	0x3d8b4f2c	0.0680221
177	0xbcafa89f	-0.02144271
178	0x3ea4f63e	0.32219118
179	0xbe708a52	-0.23490265
180	0xbde622d9	-0.112371154
181	0xbd6d1469	-0.057880793
182	0x3d2a4951	0.041573826
183	0xbe16fa29	-0.14743866
184	0x3e21099b	0.1572632
185	0xbe39979c	-0.1812424
186	0xbe1a63ca	-0.15077129
187	0xbde1f2fd	-0.110326745
188	0x3db07862	0.08616711
189	0x3e637a60	0.22214651
190	0xbe8c1c68	-0.27365422
191	0x3d77d1a4	0.060502663
192	0xbe81a9bd	-0.25324813
193	0x3dc006ca	0.09376295
194	0x3e89c8cb	0.26911005
195	0xbe396f99	-0.18108977
196	0x3e8d872e	0.27642196
197	0xbea59b88	-0.32345223
198	0x3c5cf8aa	0.0134870205
199	0xbe815e9c	-0.25267494
200	0x3e130175	0.14356025
201	0x3e07afc7	0.13250647
202	0x3df5ea78	0.12007612
203	0xbe04e532	-0.12978056
204	0x3de955c0	0.11393309
205	0x3e4fe554	0.20302325
206	0x3e4ec3f6	0.2019194
207	0xbce46333	-0.027879333
208	0x3e092873	0.13394336
209	0x3df92581	0.121653564
210	0xbde8ff65	-0.11376838
211	0x3d2604fe	0.040532105
212	0x3dee2c4f	0.11629545
213	0xbe202950	-0.1564076
214	0x3e7612fb	0.24030678
215	0xbe60bc24	-0.2194677
216	0x3e5564e9	0.20839275
217	0x3d8e508d	0.069489576
218	0x3e9cb21b	0.30604634
219	0xbe223e88	-0.15844166
220	0x3ea1064e	0.31450123
221	0xbccded5a	-0.025137592
222	0x3d5045d6	0.05084785
223	0xbe9dd816	-0.30828923
224	0x3ee538aa	0.44769794
225	0xbd462fde	-0.048385493
226	0x3d677078	0.056503743
227	0x3d8a9e60	0.06768489
228	0x3e1a6734	0.15078431
229	0x3d76b386	0.0602298
230	0xbeb8b30f	-0.3607411
231	0x3e8c2244	0.27369893
232	0xbe42c019	-0.19018592
233	0xbe42e681	-0.19033243
234	0x3ecd50e3	0.40100774
235	0x3de1d7fe	0.11027525
236	0x3e3d9614	0.18514282
237	0xbe1816d1	-0.14852454
238	0xbd87a83b	-0.06623884
239	0xbe8180b3	-0.25293502
240	0x3dd79c0b	0.1052781
241	0xbd06b628	-0.03288856
242	0xbce07967	-0.02740164
243	0xbd90e564	-0.07075003
244	0x3df6297e	0.12019633
245	0x3e5f4d92	0.21806934
246	0x3e97653a	0.29569417
247	0x3e0116b3	0.12606315
248	0xbdf93651	-0.12168563
249	0xbecb4864	-0.39703667
250	0x3ee731a3	0.45155057
251	0xbd9cc614	-0.07654968
252	0x3ec22d21	0.37925056
253	0xbdfe52d2	-0.124181405
254	0xbe1c30f1	-0.15253045
255	0x3e68ed60	0.22746801

fc2.weight f4 [4, 256]
0	0xbe2cd54a	-0.16878238
1	0xbe74681e	-0.23867843
2	0xbe1214fe	-0.1426582
3	0xbc4bbbf9	-0.012434953
4	0x3e7d6279	0.24744596
5	0x3e8b0444	0.27151692
6	0xbdcbd97a	-0.0995359
7	0xbe0c35d9	-0.13692416
8	0xbf2c8e78	-0.6740489
9	0x3e51c520	0.20485353
10	0x3dfd87e3	0.12379434
11	0x3f0400b7	0.5156359
12	0x3cc305b2	0.023806427
13	0xbdbdceae	-0.09267937
14	0x3db7737e	0.08957575
15	0x3d83505f	0.06411814
16	0xbef9b306	-0.48769397
17	0x3ee0f55a	0.43937188
18	0xbe4685ac	-0.1938693
19	0x3cdfe363	0.027330106
20	0x3eb7aafd	0.3587264
21	0xbe903315	-0.28163972
22	0xbe95f7c8	-0.29290605
23	0x3da0fb2e	0.07860409
24	0x3e1d7e11	0.15380122
25	0xbe11a7ce	-0.14224169
26	0x3eca5130	0.39515066
27	0xbd87dcc4	-0.066339046
28	0x3e15cde8	0.14629328
29	0x3debf77d	0.11521814
30	0x3db41de2	0.08794762
31	0x3dec9425	0.11551694
32	0x3d2eb739	0.042655203
33	0x3d51df5c	0.051238403
34	0x3ddd254c	0.107981294
35	0x3f56c0cd	0.8388794
36	0x3e06d9c8	0.13169014
37	0x3e809def	0.25120494
38	0x3cc2340d	0.02370646
39	0xbdda7463	-0.1066673
40	0xbc1beec9	-0.00951738
41	0xbda4c59a	-0.08045502
42	0x3e720ac7	0.23636924
43	0x3f2a2ebd	0.66477567
44	0x3db973f3	0.09055319
45	0xbd11a8c6	-0.035561346
46	0xbe5ce752	-0.21572617
47	0x3dbbbc26	0.09166746
48	0x3d347f15	0.044066507
49	0x3de74583	0.11292555
50	0xbd439c95	-0.04775675
51	0x3ec8e7f9	0.3923948
52	0x3e7e6ba4	0.24845749
53	0xbeb5d2b1	-0.35512307
54	0x3d017f7a	0.03161571
55	0x3e689f1b	0.22716944
56	0x3ddd93d6	0.10819213
57	0xbee32d48	-0.44370484
58	0x3d8221a4	0.06354073
59	0xbe0856ac	-0.13314313
60	0x3e573c34	0.2101906
61	0xbf347876	-0.7049631
62	0xbe87d068	-0.2652619
63	0x3c7a7bfc	0.015288349
64	0x3ef7aa27	0.48372003
65	0x3bf91c14	0.007602224
66	0xbd0a1409	-0.033710513
67	0xbdb57443	-0.08860066
68	0xbb9f9902	-0.004870535
69	0x3ec21fc7	0.3791487
70	0x3e1e6932	0.15469816
71	0x3e1f117d	0.15534015
72	0xbed34aad	-0.4126791
73	0xba6283cd	-0.00086408557
74	0x3ec95cdd	0.39328662
75	0xbd52afed	-0.051437307
76	0xbe696635	-0.22792895
77	0xbea8d850	-0.32977533
78	0xbe7fe506	-0.2498971
79	0x3dc162dd	0.09442685
80	0xbd1f1f1d	-0.03884803
81	0xbe3ecd23	-0.18632941
82	0x3d3f7879	0.04674575
83	0x3e0405dd	0.12892862
84	0xbda65841	-0.08122302
85	0x3da0c204	0.078495055
86	0x3e34be18	0.1765064
87	0xbda06238	-0.07831234
88	0x3c1d0d9c	0.009585764
89	0xbe71d4c4	-0.2361632
90	0xbcb7104f	-0.022346644
91	0xbe999e87	-0.3000376
92	0xbe69fe44	-0.22850901
93	0x3e3edd47	0.18639098
94	0xbd026204	-0.031831756
95	0xbe3ca075	-0.18420584
96	0x3c80087f	0.015629051
97	0xbe2e164f	-0.17000698
98	0x3d8a4057	0.06750553
99	0x3cdb26ec	0.026751958
100	0xbdb3a97b	-0.0877256
101	0xbea0d41b	-0.31411824
102	0xbda1f6c1	-0.07908393
103	0xbd30c2d4	-0.043154553
104	0xbcb47046	-0.022026192
105	0x3e90cc8e	0.28281063
106	0x3eac7a7b	0.33687195
107	0xbe0fcc13	-0.14042692
108	0x3d74b19c	0.059739694
109	0x3e88c85d	0.26715365
110	0xbd60be3f	-0.054868933
111	0xbe2f23ef	-0.17103551
112	0x3e02a55b	0.1275839
113	0x3cb9f994	0.022702016
114	0x3e285cec	0.16441697
115	0x3e8c1b71	0.27364686
116	0xba31f3f8	-0.00067883683
117	0xbf70e903	-0.9410555
118	0xbdadecd3	-0.08492436
119	0x3db3af09	0.0877362
120	0xbdb9ce78	-0.09072584
121	0xbe1e6a14	-0.15470153
122	0x3e178aba	0.14799014
123	0xbc256435	-0.010094692
124	0xbe429085	-0.19000442
125	0x3f083db4	0.5321915
126	0x39a78422	0.0003195117
127	0x3e833aa4	0.25630677
128	0x3df1680c	0.117874235
129	0x3cd80661	0.02637023
130	0xbe8ae62e	-0.27128738
131	0xbe15035c	-0.14552063
132	0x3f0bda83	0.546303
133	0xbce4942f	-0.02790269
134	0xbe4c69b5	-0.19962199
135	0xbde2abcc	-0.11067924
136	0x3dea95b1	0.114543326
137	0xbe26f323	-0.16303687
138	0xbf31255e	-0.6919764
139	0x3ec206b7	0.37895748
140	0xbe684e8a	-0.2268621
141	0xbe26813e	-0.1626024
142	0x3e710b62	0.23539498
143	0x3e62c22d	0.22144385
144	0x3e1ac459	0.15113963
145	0xbc3b6a03	-0.011438849
146	0xbde8f1ef	-0.1137427
147	0xbac9b82d	-0.0015389972
148	0xbe716192	-0.23572376
149	0xbe17dc8b	-0.14830224
150	0xbd2a45fd	-0.041570652
151	0x3d5165ec	0.05112259
152	0xbd8e5494	-0.06949726
153	0xbe19b07f	-0.15008734
154	0xbe40eff1	-0.1884153
155	0x3d22cf13	0.039748263
156	0x3e2f3209	0.1710893
157	0xbdf0842a	-0.11743958
158	0xba81d48c	-0.0009905263
159	0xbec5eea3	-0.38658628
160	0xbe9111fd	-0.28334036
161	0x3e891abf	0.26778218
162	0xbdd23152	-0.10263313
163	0xbe262708	-0.16225827
164	0x3e4bb12e	0.19891807
165	0x3d5265c1	0.05136657
166	0xbe96a075	-0.29419294
167	0xbde8b86f	-0.11363303
168	0x3d0b86ab	0.034063976
169	0xbe81138f	-0.25210235
170	0xbe916b6c	-0.2840227
171	0xbefa9ae5	-0.489463
172	0x3e6d7252	0.23188141
173	0xbea5cc74	-0.32382548
174	0x3eaff4cc	0.34366453
175	0xbdc03b8d	-0.093863584
176	0x3e00dc2f	0.12583993
177	0x3ebd7535	0.37003484
178	0x3d9c8d00	0.07644081
179	0x3ebda37a	0.37038785
180	0xbf017cad	-0.50580865
181	0xbec076d7	-0.37590668
182	0x3df9bc0e	0.12194072
183	0xbf679ea3	-0.90476435
184	0xbc3b4c25	-0.0114317285
185	0x3f82b011	1.0209981
186	0xbf43d778	-0.76500654
187	0xbed801f2	-0.42188984
188	0x3eabeb2e	0.33577865
189	0xbe33bb65	-0.17551954
190	0xbdd94b21	-0.10610033
191	0xbc79c25a	-0.015244091
192	0xbefdabec	-0.49545228
193	0x3d5d444e	0.05402022
194	0x3d8cdf47	0.06878524
195	0x3d1c27d3	0.038123917
196	0xbd71432a	-0.058901943
197	0x3f53b071	0.82691103
198	0x3ddb82d3	0.10718312
199	0x3e4855d0	0.19563985
200	0x3d232eaa	0.039839424
201	0xbe0af405	-0.13569649
202	0x3eab696f	0.33478877
203	0x3e544d62	0.20732644
204	0xbde21cb5	-0.11040632
205	0xbe86167f	-0.26189038
206	0xbdbbcd1e	-0.091699824
207	0xbe5ca559	-0.2154745
208	0x3e2079c1	0.15671445
209	0xbc9d5b28	-0.019208506
210	0xbf04bab6	-0.518474
211	0xbf079ceb	-0.5297381
212	0xbee4a774	-0.44659007
213	0xbc0a09e4	-0.00842521
214	0xbe1b0b21	-0.15140964
215	0xbf582f97	-0.84447616
216	0x3eaa53da	0.332671
217	0xbdc9b50c	-0.09848985
218	0xbe79e20f	-0.24402641
219	0x3ee2b28a	0.4427684
220	0x3d3b9736	0.045798503
221	0x3e83a70f	0.25713393
222	0xbd741315	-0.05958851
223	0xbec9c3e1	-0.39407256
224	0x3c937fa5	0.018005202
225	0x3f06b185	0.52614623
226	0xbde25232	-0.11050834
227	0x3e835d9f	0.25657365
228	0xbebe9793	-0.37225017
229	0x3d6be58c	0.05759196
230	0xbe231bac	-0.15928525
231	0x3d9e2f1f	0.077238314
232	0x3e53ac67	0.20671235
233	0xbe0c7c98	-0.13719404
234	0xbe34c8c8	-0.17654717
235	0x3e2b2285	0.16712387
236	0x3e2b92ed	0.16755266
237	0x3dc0da07	0.094165854
238	0xbd898c2e	-0.0671619
239	0x3d51c2d5	0.051211197
240	0x3dbc3c8d	0.09191237
241	0x3eb96ec9	0.36217335
242	0xbb11a245	-0.0022221964
243	0xbed68670	-0.41899443
244	0x3ded527a	0.11587997
245	0x3d2354e2	0.039875872
246	0x3e4c0024	0.19921929
247	0x3ccc2d87	0.024924053
248	0xbe0a3017	-0.13494907
249	0x3dadcaaa	0.08485921
250	0x3da8e8bd	0.08247516
251	0xbe25c205	-0.16187294
252	0x3e8ac6d4	0.2710482
253	0x3ca5e92b	0.020252785
254	0x3e837b47	0.2567999
255	0x3c81e664	0.01585693

fc2.bias f4 [4]
0	0xbc924e83	-0.017859703
1	0x3cf34408	0.029695526
2	0x3db751d3	0.089511536
3	0x3cd7842a	0.026308138
