checkpoints/ddpg/214_checkpoint_critic_agents_1_solved.pth (torch_old, 435500 bytes, 7 tensors)

fcs1.weight f4 [256, 33]
0	0xbc7534d5	-0.014966209
1	0xbd75f2a4	-0.060045853
2	0xbc982351	-0.018571528
3	0x3e0600d8	0.1308626
4	0xbde21e51	-0.11040939
5	0xbd1e017d	-0.038575638
6	0xbe340b4f	-0.17582439
7	0xbc8c6525	-0.017138073
8	0x3c6bb2d7	0.0143859
9	0xbddbe942	-0.1073785
10	0x3b097c10	0.0020978488
11	0xbcf51b2c	-0.029920183
12	0xba4c35e8	-0.0007790015
13	0xbd07fbc6	-0.033199094
14	0x3ca9d2d8	0.020730421
15	0xba9f05b2	-0.0012132435
16	0x3dc3c4bd	0.09559009
17	0xbd81a948	-0.06331116
18	0xbddd5316	-0.10806863
19	0x3d8f4dfa	0.06997295
20	0x3ba891c5	0.00514433
21	0xbc98ebc6	-0.018667113
22	0xbce0233c	-0.027360551
23	0xba7ef54c	-0.0009725883
24	0x3ae96e01	0.0017809273
25	0xbc40e881	-0.011774183
26	0x3de27cb8	0.110589445
27	0xbc82f927	-0.015987946
28	0xbd4cb12f	-0.049973663
29	0x3d33bf4e	0.043883614
30	0x3cfc6c55	0.030813375
31	0xbd7183cc	-0.058963582
32	0x3f44da94	0.76896024
33	0x3d8f5f61	0.07000614
34	0xbc409744	-0.011754815
35	0x3c0cc22e	0.008591218
36	0xbe766606	-0.24062356
37	0x3e70b80a	0.23507705
38	0x3d3672aa	0.044542946
39	0xbcedac52	-0.029012833
40	0x3c19af8d	0.0093802335
41	0xbcceaf80	-0.02523017
42	0xbda01146	-0.07815795
43	0x3dc6c390	0.09705269
44	0xbd23d2df	-0.039996024
45	0xbc055360	-0.008137554
46	0xbcb01b77	-0.021497471
47	0xbc889bfc	-0.016675942
48	0xbbf8f2ed	-0.0075973184
49	0xbe67c3e5	-0.22633322
50	0x3e3611b3	0.17780189
51	0x3dc2fe8c	0.09521207
52	0x3e0a8242	0.13526252
53	0x3cf68562	0.030092899
54	0x3bc9fd00	0.006164193
55	0xba22aa22	-0.00062051613
56	0xbd691f56	-0.05691465
57	0x3d09fec0	0.033690214
58	0xbb767d82	-0.003761143
59	0xbd9f0d7d	-0.077662446
60	0x3d0e08ee	0.034676485
61	0x3d8a029d	0.0673878
62	0x3d35d6b2	0.044394203
63	0xbd7fcead	-0.06245296
64	0xbd1946f4	-0.03742118
65	0x3ecb9930	0.3976531
66	0x3cc782ea	0.024354417
67	0x3d0eebb7	0.034892764
68	0xbdeef2a2	-0.11667372
69	0xbe334872	-0.17508104
70	0xbdb6e9ad	-0.08931289
71	0x3dcabe9b	0.09899636
72	0xbd90f031	-0.07077063
73	0x3cdc10d7	0.026863499
74	0x3e0ad751	0.13558699
75	0x3c874647	0.016513003
76	0x3d2168e8	0.039406687
77	0xbc8383d6	-0.016054075
78	0xb979ff7a	-0.00023841663
79	0x3db62900	0.08894539
80	0xbc373c39	-0.011183792
81	0x3d1e8ac9	0.038706575
82	0x3e3ebf97	0.18627773
83	0xbc39d568	-0.011342384
84	0xbe0ce922	-0.13760808
85	0xbeaa9c74	-0.3332249
86	0xbc3b85b0	-0.011445448
87	0xba272656	-0.0006376257
88	0xbd0daf29	-0.034590874
89	0x3d931435	0.071815886
90	0x3c424013	0.011856097
91	0x3cc4c023	0.0240174
92	0x3d97445b	0.07386085
93	0x3c373b33	0.011183548
94	0xbc25ce6e	-0.010120017
95	0x3d0905d6	0.03345283
96	0xbd95984e	-0.073044404
97	0x3d7b1036	0.061294757
98	0x3d9208e4	0.07130602
99	0xbaa0d450	-0.0012270305
100	0x3cf730f0	0.030174702
101	0xb960f11f	-0.0002145213
102	0xbddac562	-0.10682179
103	0x3dd32997	0.10310667
104	0x3d8f9403	0.07010653
105	0xbe08bac2	-0.13352492
106	0x3cc8c466	0.024507713
107	0xbdb5104c	-0.08840999
108	0x3c938562	0.018007938
109	0xbbd0ac2c	-0.0063681807
110	0x3d5934b1	0.053028766
111	0xbcedff6f	-0.029052464
112	0xbe025b59	-0.12730159
113	0xbcbaffaf	-0.022826998
114	0xbdd31fbf	-0.103087895
115	0xbc0389c4	-0.008028451
116	0x3e30a245	0.17249401
117	0xbe44bb94	-0.1921218
118	0x3b2c83ba	0.0026323632
119	0x3d1b395a	0.03789649
120	0xbd29a0b7	-0.041413035
121	0xb9a69e07	-0.00031779727
122	0x3d1c6bd7	0.03818878
123	0x3cbf7698	0.02337198
124	0xbce77126	-0.028252196
125	0x3decfcdc	0.115716666
126	0x3e0a72cc	0.13520354
127	0x3db9e22c	0.09076342
128	0x3d780858	0.060554832
129	0xbdf9a647	-0.12189918
130	0x3cf92ebc	0.030417792
131	0x3dfe5eae	0.124204025
132	0xbd460499	-0.04834423
133	0x3d852fbb	0.065032445
134	0xbdf31a9f	-0.11870312
135	0xbbae2e43	-0.0053155734
136	0xbe0f7129	-0.14008011
137	0xbca1fd1d	-0.019774014
138	0xbe14d07c	-0.14532655
139	0xbd2ce268	-0.042208105
140	0xbc9822ab	-0.018571218
141	0x3d0c34d5	0.034230072
142	0xbd333be4	-0.043758288
143	0x3d1ede69	0.038786326
144	0xbdbe19d8	-0.09282273
145	0x3d7e6b54	0.062114075
146	0xbd1f6bc0	-0.038921118
147	0x3d94b4f5	0.07261077
148	0xbe6442f4	-0.22291166
149	0xbc60ca06	-0.013720041
150	0xbd9e1c95	-0.07720295
151	0xbe1d0ac0	-0.15336132
152	0x3c4348ed	0.011919242
153	0x3b9937b4	0.00467583
154	0x3d2f47a0	0.042792916
155	0xbc5a126f	-0.013310059
156	0x3d3c23f8	0.04593274
157	0xbd150209	-0.036378894
158	0x3c3b150c	0.011418592
159	0x3cc0a0af	0.02351412
160	0xbd3dd5ab	-0.046346348
161	0xbc8a2dd4	-0.016867556
162	0xbdb2af3f	-0.08724832
163	0xbcddbd5c	-0.027067833
164	0xbee0437f	-0.43801495
165	0xbd180c3f	-0.037121054
166	0xbe19df79	-0.15026654
167	0x3dc53fc3	0.09631302
168	0xbcfb3a90	-0.030667573
169	0xbe07e582	-0.13271144
170	0x3e29a084	0.16565138
171	0xbda9e5d3	-0.082957886
172	0xbd57228a	-0.052523173
173	0xbcbff70d	-0.023433233
174	0x3d747ba2	0.059688218
175	0xbccdacfb	-0.025106898
176	0x3b31d9d3	0.002713789
177	0xbc1bb025	-0.009502445
178	0xbd3faf5c	-0.046798095
179	0xbab1822a	-0.001354282
180	0xbd5eb601	-0.05437279
181	0x3bed7c07	0.007247451
182	0xbc19a6f3	-0.009378183
183	0x3e2dd9b1	0.16977574
184	0x3c35021b	0.011047865
185	0xbbe02b23	-0.00684108
186	0xbce6ea6a	-0.02818795
187	0xbd5666d6	-0.052344166
188	0xbd1dcebc	-0.038527235
189	0xbc11e338	-0.008904271
190	0xbd7b8c6c	-0.061413214
191	0xbd3e34bd	-0.046437014
192	0x3dd975bc	0.10618159
193	0xbd00eb63	-0.031474482
194	0xbcb3df3c	-0.021957032
195	0xbdaa736c	-0.08322796
196	0x3d6a0dcc	0.057142064
197	0xbd78466f	-0.060614046
198	0xbc6e2c6d	-0.014536959
199	0xbdddc1f6	-0.10828011
200	0x3d813fd2	0.06311001
201	0xbd890fa0	-0.06692433
202	0xbe04bd00	-0.12962723
203	0x3d80af06	0.06283383
204	0x3dbecb23	0.09316089
205	0xbd644072	-0.055725522
206	0xbd4b371f	-0.049613114
207	0xbcc653de	-0.024209913
208	0xbd6b88d2	-0.05750353
209	0x3d3801b7	0.04492351
210	0x3d4c0018	0.049804777
211	0x3d94397e	0.07237528
212	0x3d9f5e6d	0.07781682
213	0x3d80bf91	0.062865384
214	0xbdf3aec9	-0.11898572
215	0x3df7b29f	0.12094616
216	0xbec418c0	-0.38300133
217	0xbcdd658e	-0.027025964
218	0xbd30e8be	-0.04319071
219	0x3c898e0d	0.016791368
220	0x3dce83d1	0.10083736
221	0x3d0bbeae	0.034117393
222	0x3d89b8bf	0.06724691
223	0x3ba33a3b	0.004981307
224	0x3d0748d8	0.033028454
225	0x3d3959c4	0.045251623
226	0x37e071d5	2.6755888e-05
227	0x3c996e3c	0.018729322
228	0xbc61a1a9	-0.013771453
229	0x3cb0af04	0.021567829
230	0x3e26290b	0.16226594
231	0x3d7c63e1	0.06161869
232	0x3cefd093	0.02927426
233	0xbc305857	-0.010763249
234	0xbccd2749	-0.025043147
235	0xbcc16cc1	-0.023611428
236	0x3cae21ba	0.021256316
237	0xbd6375a3	-0.05553211
238	0xbc90a474	-0.017656542
239	0x3cae0206	0.0212412
240	0xbe0152d8	-0.12629259
241	0xbcf30951	-0.029667528
242	0x3c932a75	0.017964581
243	0x3cdbd6e9	0.026835876
244	0xbe0a25a0	-0.13490915
245	0xbde126ef	-0.10993754
246	0x3d4f1446	0.050556444
247	0xbc169081	-0.009189726
248	0x3d67d54b	0.056599896
249	0xbd33b036	-0.04386922
250	0x3db92737	0.09040683
251	0xbcaad367	-0.020852758
252	0xbcc90963	-0.024540609
253	0xbbcaf6fb	-0.006193993
254	0x3d7141a1	0.05890048
255	0x3cb7a36e	0.022416797

fcs1.bias f4 [256]
0	0x3de41520	0.11136842
1	0x3ded0e36	0.11574976
2	0xbdb595b9	-0.08866448
3	0x3d2c3e35	0.042051513
4	0xbd661b13	-0.056178164
5	0xbe657a7c	-0.22410005
6	0xbe1824cc	-0.14857787
7	0xbe3b9382	-0.18317989
8	0x3c218823	0.009859118
9	0x3da8c5c4	0.08240846
10	0xbe3dc8e9	-0.18533672
11	0xbd6f60ed	-0.058442045
12	0x3db65779	0.08903403
13	0xbdd8f10c	-0.10592851
14	0x3c3a7ad2	0.011381822
15	0xbcbd152a	-0.02308138
16	0xbd9dc4f2	-0.0770358
17	0xbd3f3f69	-0.046691332
18	0x3e24ce4f	0.16094325
19	0xbde28b93	-0.11061778
20	0xbd5dccda	-0.05415044
21	0x3deec72f	0.11659085
22	0x3d5e6fed	0.05430596
23	0xbd26f738	-0.04076311
24	0xbdadb3e1	-0.08481575
25	0xbe380276	-0.17969689
26	0x3d8098ff	0.06279182
27	0xbdbe5f23	-0.0929549
28	0x3d666efc	0.056258187
29	0x3da4438c	0.08020696
30	0x3cc4ac92	0.02400807
31	0xbe4faef6	-0.20281586
32	0xbde6f394	-0.112769276
33	0xbe5ea6ee	-0.21743366
34	0x3ac364b0	0.0014907327
35	0x3c764feb	0.015033702
36	0x3dafccea	0.08584006
37	0x3dc80d1f	0.09768128
38	0xbdb637ac	-0.08897337
39	0x3dafff42	0.085936084
40	0xbddc6947	-0.107622676
41	0xbe0e822a	-0.13916841
42	0x3dc244ca	0.09485777
43	0xbe65fbc1	-0.22459318
44	0xbd81eb33	-0.06343689
45	0xbe31a27a	-0.17347136
46	0x3e0bf8a8	0.13669074
47	0x3e1ec5e1	0.15505172
48	0x3d328a2a	0.043588795
49	0xbde6b16c	-0.11264309
50	0xbdf0a76c	-0.11750683
51	0x3defb837	0.11705058
52	0xbe4b3420	-0.19844103
53	0xbbd5dc6c	-0.0065265205
54	0xbe11b378	-0.14228618
55	0x3d1fc28c	0.039003894
56	0xbdd7299f	-0.105059855
57	0xbd762ce3	-0.0601014
58	0xbd93bafc	-0.07213399
59	0xbda2d076	-0.07949917
60	0xbe0f7752	-0.14010361
61	0x3e05f245	0.130807
62	0xbe359b0e	-0.1773493
63	0xbd488e95	-0.0489641
64	0xbdbd2884	-0.09236243
65	0xbe861089	-0.2618449
66	0x3de1813a	0.11010976
67	0x3d82d6f2	0.06388654
68	0x3ac6d0a1	0.0015168377
69	0xbd879d60	-0.06621814
70	0xbac72703	-0.0015194122
71	0x3d4eeb51	0.050517384
72	0x3c376f07	0.011195905
73	0xbd29eaca	-0.041483678
74	0xb9b52cde	-0.0003455644
75	0x3dace98b	0.08442982
76	0x3df07d56	0.11742656
77	0x3caef94d	0.02135911
78	0x3e0eed83	0.13957791
79	0xbe4f111b	-0.20221369
80	0x3d8e1f3a	0.0693955
81	0x3e2aa4dd	0.16664453
82	0xbc35192f	-0.0110533675
83	0x3c4f3e22	0.012649091
84	0x3d8e90ca	0.0696121
85	0xbe41ae00	-0.18914032
86	0x3ca22583	0.019793278
87	0x3c8caec7	0.017173184
88	0x398372e5	0.0002507187
89	0xbd7a2659	-0.061071727
90	0x3e266dec	0.1625287
91	0x3dc7ccf8	0.097558916
92	0x3d8b2bf2	0.06795491
93	0xbe818c58	-0.25302386
94	0xbe20c214	-0.15699035
95	0x3ddb0871	0.106949694
96	0x3e1f65fe	0.1556625
97	0xbcfd3be9	-0.030912356
98	0x3e1b92e8	0.15192759
99	0xbc04160f	-0.0080619
100	0x3d64be7c	0.055845723
101	0xbda73164	-0.081637174
102	0x3bd51d12	0.0065037096
103	0xbd88f309	-0.0668698
104	0xbe4c1a88	-0.19931996
105	0xbd15e2b1	-0.036593143
106	0xbe2d1d18	-0.1690563
107	0xbb7b90e7	-0.003838593
108	0xbb3afdfd	-0.0028532736
109	0xbd1d827a	-0.03845451
110	0x3dde8cdf	0.10866713
111	0x3dc682fc	0.09692952
112	0xbe31642a	-0.17323366
113	0x3d15c2a8	0.03656259
114	0x3bdd41be	0.006752222
115	0xbdf02a04	-0.11726764
116	0xbc8dbe19	-0.01730256
117	0xbdb7c03a	-0.08972211
118	0xbd1e42ef	-0.03863805
119	0xbe3736b8	-0.17891967
120	0x3e1aa637	0.15102468
121	0x3d982ebc	0.07430789
122	0x3d7ece37	0.06220838
123	0x3c840c6b	0.016119203
124	0xbd9a51bb	-0.0753512
125	0xbd2dc710	-0.04242617
126	0x3da547f9	0.08070368
127	0x3cc0da39	0.023541557
128	0xbd0a048a	-0.033695735
129	0x3e18c8fa	0.14920416
130	0xbe098072	-0.13427904
131	0xbe779ef1	-0.24181725
132	0xbd02ede7	-0.031965163
133	0x3e1c6dce	0.15276262
134	0x3b7ec0d2	0.0038872254
135	0xbdba7544	-0.09104398
136	0xbe38d366	-0.18049392
137	0x3e0894d0	0.13338017
138	0xbdb1b0df	-0.086763136
139	0xbda573e5	-0.08078746
140	0x3d36b4e8	0.04460612
141	0xbe7c7954	-0.24655658
142	0xbdb9b7c9	-0.09068257
143	0xbe0ae83a	-0.1356515
144	0x3da26f40	0.079313755
145	0xbd823526	-0.063577935
146	0xbd68203f	-0.056671377
147	0xbe1848ce	-0.14871523
148	0x3cd6e147	0.026230467
149	0x3df55327	0.11978751
150	0xbce544d9	-0.02798693
151	0xbd84e3fd	-0.06488798
152	0x3c7e8c6c	0.015536409
153	0x3deaa312	0.114568844
154	0x3d6ea81e	0.058265798
155	0xbcbfc8fc	-0.023411267
156	0x3dbfdd2a	0.093683556
157	0xbdded0dd	-0.10879681
158	0x3d208292	0.03918702
159	0xbe5e7ab3	-0.21726494
160	0x3d6edf4b	0.058318418
161	0xbe1e8a9f	-0.15482567
162	0xbd3cae69	-0.046064768
163	0xbe16966d	-0.1470582
164	0xbc3311c2	-0.010929527
165	0x3db53b42	0.08849193
166	0x3d6af377	0.057361092
167	0xbdace5f0	-0.084422946
168	0xbd9e1d5d	-0.07720444
169	0x3e172f21	0.14764072
170	0xbdcae1bd	-0.099063374
171	0x3de0d18a	0.109774664
172	0x3da986c6	0.08277659
173	0x3e231016	0.15924105
174	0xbd0f42b8	-0.034975737
175	0x3d440e7b	0.047865372
176	0x3e21d7bb	0.15804951
177	0xbda2ffb2	-0.07958926
178	0x3daacf9a	0.08340378
179	0xbdb570dc	-0.08859417
180	0xbde05f9d	-0.10955737
181	0x3d5e87f8	0.05432889
182	0xbe503aa8	-0.20334876
183	0xbe18b6c7	-0.14913474
184	0xbd71e7cd	-0.059058953
185	0xbd13f201	-0.036119465
186	0xbd003db9	-0.031308863
187	0xbcbb9948	-0.022900239
188	0x3d8ef5b2	0.069804564
189	0x3e20f86a	0.15719762
190	0xbdd1793a	-0.102282
191	0x3c41d973	0.011831629
192	0xbb0da7bf	-0.0021614877
193	0x3d665244	0.0562308
194	0x3dfd5bbe	0.12371014
195	0xbd1af6e7	-0.03783312
196	0xbd35b024	-0.044357434
197	0xbe0fd0a4	-0.14044434
198	0xbdce3ee3	-0.100705884
199	0xbdd4d5d4	-0.10392347
200	0xbd7369b5	-0.059426982
201	0x3bd0ed02	0.00637591
202	0x3da8907b	0.082306825
203	0xbdadf1c4	-0.08493379
204	0x3e0fa264	0.14026791
205	0xbd9eba89	-0.077504225
206	0x3cec24ef	0.028826205
207	0xbcd76a57	-0.026295824
208	0xbdf58f63	-0.119902395
209	0xbd646890	-0.05576378
210	0x3ce1a517	0.027544541
211	0x3d96443f	0.07337236
212	0x3e04fa5e	0.12986133
213	0x3d04855e	0.03235375
214	0xbc514782	-0.012773396
215	0x3dd961b1	0.10614336
216	0x3cacddc8	0.021101847
217	0x3d5c5e70	0.053801
218	0x3bf4550c	0.0074564274
219	0xbce34e6c	-0.027747355
220	0x3d82bc2b	0.063835464
221	0xbe45b01f	-0.19305466
222	0xbdf307c3	-0.11866715
223	0xbe676748	-0.22597992
224	0x3d637303	0.055529606
225	0xbda2c59d	-0.07947848
226	0xbe73c144	-0.23804194
227	0xbc8d3db0	-0.017241329
228	0xbd5d88fd	-0.05408572
229	0xbc4cf4f4	-0.012509573
230	0xbce591fd	-0.028023714
231	0x3dfa189d	0.12211726
232	0xbe53ebd1	-0.20695426
233	0xbe204470	-0.15651107
234	0x3d6ca385	0.057773132
235	0xbe044d82	-0.12920192
236	0x3c74952b	0.014928143
237	0x3c2010e5	0.009769653
238	0x3c9fcc35	0.019506553
239	0xbe22087e	-0.15823552
240	0xbc591d74	-0.013251651
241	0xbe158d1e	-0.14604613
242	0x3e2fca62	0.17167047
243	0xbc721373	-0.014775145
244	0x3d85ced1	0.06533588
245	0x3d8c2502	0.06842996
246	0x3c407208	0.011745937
247	0xbd8075bf	-0.06272458
248	0x3ddec8a4	0.10878113
249	0xbe1282c9	-0.14307703
250	0x3dfe6096	0.12420766
251	0xbe5725c3	-0.21010499
252	0x3ddf6682	0.10908224
253	0xbcd7cfcd	-0.026344204
254	0xbc14e180	-0.0090869665
255	0x3e0f333d	0.1398439

fc2.weight f4 [256, 260]
0	0x3d5179de	0.051141612
1	0xbb3c20aa	-0.0028705993
2	0x3d0d78dd	0.034539092
3	0x3b407294	0.002936517
4	0xbd6eed32	-0.058331676
5	0x3d78167a	0.06056831
6	0x3c9570a7	0.018242193
7	0xbdbb114e	-0.0913416
8	0x3da0ad31	0.07845534
9	0xbcf3698c	-0.029713415
10	0x3d6a89a7	0.05726018
11	0xbd6d2fec	-0.05790703
12	0x3d89ddb5	0.067317404
13	0x3dad75ce	0.08469735
14	0x3d9ef6a4	0.07761887
15	0x3d850a8d	0.06496153
16	0xbd7f186d	-0.062279154
17	0x3d1d2c19	0.038372133
18	0xbd327891	-0.043572012
19	0xbdfb4310	-0.122686505
20	0x3d052d67	0.032514002
21	0xbd246eec	-0.040144846
22	0x3c7a9113	0.015293377
23	0x3dda35c0	0.10654783
24	0xbcd43553	-0.025904333
25	0x3ca946d2	0.020663653
26	0x3d451975	0.04811998
27	0x3cb6d04f	0.022316126
28	0x3cda04e0	0.026613653
29	0x3dc58763	0.096449636
30	0xbc287ca5	-0.010283624
31	0xbcc76e3b	-0.024344554
32	0xbc2e5005	-0.010639195
33	0x3d275b42	0.040858515
34	0xbd90076b	-0.07032665
35	0xbd3654a0	-0.0445143
36	0xbd555e97	-0.05209216
37	0xbd82ef9d	-0.06393359
38	0xbc7206df	-0.014772146
39	0x3d2d9d20	0.042386174
40	0x3bdc34fc	0.0067201834
41	0x3cca87c7	0.024722947
42	0x3d1785ae	0.03699272
43	0xbcb8a2d9	-0.02253859
44	0xbe380fb3	-0.17974739
45	0xbca73eec	-0.020415746
46	0x3dd06bcb	0.1017681
47	0x3bad0460	0.0052800626
48	0x3db160b4	0.08661023
49	0x3c98c37e	0.018647905
50	0xbc97430b	-0.018464586
51	0xbd555091	-0.052078787
52	0xbd0dd2c8	-0.034624845
53	0x3c741b91	0.0148991505
54	0x3a13ccc8	0.000563812
55	0xbd6d930c	-0.058001563
56	0x3c29e491	0.010369436
57	0x3cd89ec9	0.026442902
58	0x3d216ca7	0.03941026
59	0x3e0de993	0.13858633
60	0xbc8f0e8b	-0.01746299
61	0x3c4af3fb	0.012387271
62	0x3daf29a9	0.08552868
63	0x3cf322e9	0.029679732
64	0x3d173857	0.036918964
65	0x3cb87e74	0.022521235
66	0xbd78b187	-0.06071618
67	0xbb2946b7	-0.0025829503
68	0xbbb980bf	-0.0056610997
69	0xbaf23bf1	-0.0018480999
70	0x3e0cb0b8	0.13739288
71	0x3dd23830	0.10264623
72	0x3d5d749d	0.05406629
73	0xbb495778	-0.0030722301
74	0xbcf38c7e	-0.029730078
75	0x3d2411b9	0.040055964
76	0x3d13bf73	0.036071252
77	0xbd0c1f76	-0.03420969
78	0xbe080e2b	-0.13286655
79	0xbdbad0b9	-0.09121842
80	0x3d1c85b0	0.03821343
81	0xbd0971ca	-0.033555783
82	0xbc801397	-0.015634341
83	0xbce6200e	-0.028091457
84	0xbbd52d5b	-0.006505651
85	0xbd2d4229	-0.042299423
86	0xbda9ba14	-0.08287445
87	0xbdbe4b02	-0.0929165
88	0x3c9f1912	0.019421134
89	0x3d28db8d	0.041225005
90	0xbdb206a8	-0.08692676
91	0xbd3673df	-0.044544097
92	0xbba46647	-0.005017075
93	0xbda7091d	-0.08156035
94	0x3cc05422	0.023477618
95	0x3cd6e0fe	0.026230332
96	0x3c20d7ac	0.009817045
97	0xbd06d992	-0.032922335
98	0x3d319707	0.04335692
99	0xbcfcb4bd	-0.030847901
100	0xbc4be407	-0.012444503
101	0xbcc60d8a	-0.024176378
102	0x3d2a1f4f	0.041533764
103	0x3d84db07	0.06487089
104	0xbda75408	-0.081703246
105	0x3cdbe7af	0.026843874
106	0xbdfc8e76	-0.1233186
107	0x3c4376fc	0.011930224
108	0x3cc980b7	0.024597509
109	0xbe2617af	-0.16219972
110	0x3d984e09	0.07436759
111	0xbda6c365	-0.08142737
112	0xbe099118	-0.13434255
113	0x3d21d036	0.039505206
114	0xbd6038ac	-0.054741547
115	0x3b2d23c3	0.002641902
116	0xbcf690b7	-0.030098302
117	0x3db643a2	0.08899619
118	0xbd593580	-0.053029537
119	0xbdb2497c	-0.08705422
120	0xbaa9b8f2	-0.0012948795
121	0xbdac9f1b	-0.084287845
122	0x3d5d5303	0.054034244
123	0x3d8d69a4	0.06904915
124	0xbcacb971	-0.02108452
125	0x3d8d7da3	0.06908729
126	0x3dbf742e	0.093483314
127	0x3d56c503	0.05243398
128	0xbd37ec59	-0.044903133
129	0xbb8f53c2	-0.0043739984
130	0x3db60ffc	0.088897675
131	0xbd61340a	-0.05498127
132	0x3d901cce	0.07036744
133	0xbd80e6a3	-0.062939905
134	0x3bab1a12	0.0052216137
135	0xbd1e1376	-0.03859278
136	0xbc427fb3	-0.011871266
137	0x3b607ef5	0.003425536
138	0xbce0dc02	-0.027448658
139	0xbd046137	-0.032319274
140	0xbdde2970	-0.10847747
141	0xbc514409	-0.0127725685
142	0x3c987191	0.01860884
143	0xbe06200e	-0.13098165
144	0xbd64e211	-0.055879656
145	0xbd802d23	-0.06258609
146	0x3d8569be	0.06514309
147	0x3d923f65	0.07140998
148	0x3b533759	0.0032229035
149	0x3d1c0267	0.03808823
150	0xbe35aafa	-0.17741004
151	0xbd99b061	-0.07504345
152	0x3cb0d264	0.021584697
153	0xbd2572ef	-0.040392812
154	0x3cd45506	0.025919449
155	0xb87c9ff2	-6.0230443e-05
156	0x3ddfdd94	0.109309345
157	0xbd8403ae	-0.06446014
158	0xbc420305	-0.01184154
159	0xbd932432	-0.07184638
160	0x3cb59dfa	0.022170056
161	0xbcfd4f61	-0.03092164
162	0x3d7b450d	0.06134515
163	0xbd2cee3c	-0.042219386
164	0x3d3217f8	0.04347989
165	0xbdb53338	-0.0884766
166	0x3c98050f	0.0185571
167	0xbe196d62	-0.14983132
168	0xbd91db4e	-0.07121907
169	0x3b8a482b	0.004220029
170	0xbbf80a13	-0.0075695603
171	0x3da256d5	0.07926718
172	0x3d980a13	0.074237965
173	0x3d54c061	0.05194128
174	0x3d05cc77	0.032665696
175	0xbd0eb95b	-0.034844737
176	0x3d0dc5e4	0.03461255
177	0x3d3de547	0.046361234
178	0x3d554682	0.052069195
179	0xbd8c68da	-0.06855936
180	0xbc7c96b5	-0.015416791
181	0x3e0a8559	0.1352743
182	0xbd14ddbe	-0.036344282
183	0xbd8d2f50	-0.0689379
184	0x3d6a3cd8	0.05718693
185	0xbd55fc06	-0.0522423
186	0x3c6deea7	0.014522231
187	0x3d87fe64	0.06640318
188	0xbc53071d	-0.012880114
189	0xbd23173c	-0.03981708
190	0xbd821d03	-0.0635319
191	0xbd565a4f	-0.05233222
192	0x3e0170a2	0.12640622
193	0x3dacd49c	0.084389895
194	0x3d12fea7	0.035887387
195	0x3c78a57f	0.015176176
196	0xbd851b52	-0.064993516
197	0x3d33b104	0.043869987
198	0x3db9c7d8	0.0907132
199	0x3db2230b	0.0869809
200	0xbbac377c	-0.0052556377
201	0x3c17572e	0.009237094
202	0xbd9aa7e1	-0.075515516
203	0x3d5c0add	0.053721298
204	0xbc37b93e	-0.011213599
205	0xbded5e36	-0.11590235
206	0x3daeaad3	0.08528676
207	0xbccae61b	-0.024767926
208	0xbd1b8c4a	-0.037975587
209	0xbd82bd2f	-0.0638374
210	0xbc77fccb	-0.015135954
211	0xbe39d784	-0.18148619
212	0x3d54e9e9	0.051980887
213	0xbd551b2f	-0.052027877
214	0x3ccd229a	0.025040913
215	0x3c5d13ef	0.013493522
216	0x3c853f3c	0.016265504
217	0x3bfc0de2	0.0076920846
218	0x3c41c7e8	0.0118274465
219	0xbba1a41f	-0.004932895
220	0xbe17a0ad	-0.14807387
221	0x3d8412bb	0.06448885
222	0x3cf25d28	0.029585436
223	0x3ca19227	0.019723011
224	0x3bc8bb2a	0.0061258273
225	0xbc85bcd6	-0.016325396
226	0x3d605937	0.054772582
227	0x3d77dd5c	0.06051384
228	0x3c5528bb	0.013010199
229	0xbd93b6a7	-0.072125725
230	0xbc80c336	-0.015718084
231	0x3c935bef	0.017988173
232	0x3dcfe84d	0.1015173
233	0x3a692321	0.0008893479
234	0x3da433d0	0.08017695
235	0x3c1c6c41	0.009547294
236	0x3dfc75ee	0.12327181
237	0x3bfb4480	0.007668078
238	0x3d0a19a5	0.033715863
239	0x3d95989a	0.07304497
240	0x3d80130c	0.06253633
241	0xbd63335f	-0.055468913
242	0x3ce87782	0.028377298
243	0xbd5129de	-0.05106532
244	0x3d48ad38	0.04899332
245	0x3d8a0445	0.067390956
246	0x3cbd4174	0.0231025
247	0xbd5bbf97	-0.05364951
248	0xbd24949a	-0.04018078
249	0xbd9b9603	-0.07596972
250	0xbd881352	-0.0664431
251	0xbdaf312b	-0.085543
252	0xbd2ec953	-0.042672466
253	0x3df6b893	0.120469235
254	0xbe16ce4a	-0.1472713
255	0xbc344aeb	-0.01100419

fc2.bias f4 [256]
0	0x3d503da4	0.050840035
1	0xbd051648	-0.032491952
2	0x3da23603	0.07920458
3	0x3bc4a34c	0.006000912
4	0xbd8b7196	-0.06808774
5	0x3c48b4df	0.012250154
6	0xbd95aa46	-0.07307868
7	0x3ceaa8d6	0.02864496
8	0x3d6df8da	0.05809865
9	0xbcdd0f99	-0.026984977
10	0x3d85ef54	0.06539789
11	0xbdee437c	-0.116339654
12	0xbd3252f4	-0.04353614
13	0x3b9bc512	0.004753717
14	0x3d445d4a	0.04794053
15	0xbca95b0b	-0.020673295
16	0x3b90dbb8	0.0044207238
17	0x3df76334	0.12079468
18	0xbcd3dc7e	-0.025861975
19	0x3cfa216e	0.030533519
20	0x3c86f1e2	0.01647276
21	0x3dcdb81e	0.10044883
22	0x3d9c3665	0.076275624
23	0xbba651a1	-0.005075649
24	0x3d0906f8	0.03345391
25	0xbdef4fa6	-0.116851136
26	0x3dd52ce0	0.1040895
27	0x3cebd5e2	0.02878851
28	0xbd92bb0e	-0.07164584
29	0x3ce10707	0.027469171
30	0x3dae4aa8	0.08510333
31	0x3d4b633b	0.04965518
32	0xbcfd492d	-0.030918682
33	0xbdae36c7	-0.08506542
34	0x3cc5403e	0.024078485
35	0x3d0be7c7	0.034156587
36	0x3c54c683	0.012986782
37	0x3dd18312	0.10230078
38	0x3d10f8aa	0.035393395
39	0x3dbd45cb	0.092418276
40	0xbcc2955c	-0.02375286
41	0xbd8cf2a9	-0.06882221
42	0x3c844575	0.016146401
43	0x3daab75b	0.083357535
44	0xbd95c44e	-0.07312833
45	0xbda43497	-0.08017843
46	0x3d829368	0.06375772
47	0x3dabdd01	0.083917625
48	0x3d994c8d	0.07485304
49	0x3cddbd1e	0.027067717
50	0xbc22aac6	-0.009928411
51	0xbd99137b	-0.07474419
52	0xbe072cb7	-0.13200651
53	0x3db0bf84	0.08630279
54	0xbdbddde6	-0.092708394
55	0x3da99692	0.08280672
56	0xbc4799a1	-0.012182624
57	0xbcb227e8	-0.021747544
58	0x3d909735	0.070600905
59	0x3c1d8da0	0.009616286
60	0x3d0105c8	0.031499654
61	0xbc1570c5	-0.009121125
62	0x3d9b2c62	0.07576825
63	0x3dbfdb87	0.093680434
64	0x3c9f983f	0.019481776
65	0x3db23f49	0.08703477
66	0xbda79ea6	-0.08184557
67	0x3d88adb6	0.06673758
68	0x3db293af	0.08719575
69	0x3d0274ad	0.031849552
70	0x3d01bc38	0.03167364
71	0xbd88816d	-0.06665311
72	0xbd3cd7cb	-0.046104234
73	0x3dec214d	0.11529789
74	0x3d8b2540	0.06794214
75	0xbb909cbf	-0.004413217
76	0x3c924ecf	0.017859844
77	0xbcc87476	-0.024469595
78	0x3d98c639	0.07459683
79	0x3d086616	0.03330048
80	0x3d0afd03	0.033932697
81	0x3bb3d62b	0.0054881773
82	0x3dfa8e5f	0.122341864
83	0xbd1d1a3b	-0.038355093
84	0x3dc3b5fd	0.09556196
85	0x3b1a983b	0.0023589272
86	0x3acedc86	0.0015782274
87	0xbcdf8d8a	-0.02728917
88	0x3d7a2080	0.06106615
89	0x3b42172d	0.0029615865
90	0x3e07ad12	0.13249615
91	0x3c9c3263	0.019066995
92	0xbcc36be6	-0.02385516
93	0x3d35ff95	0.044433195
94	0x3e037f13	0.12841444
95	0xbd115baa	-0.03548781
96	0xbc61002e	-0.013732953
97	0x3b384e42	0.0028122817
98	0xbd54ad34	-0.051922992
99	0x3cbd76bd	0.023127908
100	0xbe0b9380	-0.13630486
101	0x3dc41600	0.09574509
102	0x3d05550e	0.032551818
103	0x3ca36de0	0.019949853
104	0xbdc0b86e	-0.09410177
105	0x3d0d373c	0.034476504
106	0xbd05c869	-0.03266183
107	0x3d431979	0.047631714
108	0x3c81fda3	0.015868014
109	0x3cd2e9dc	0.025746278
110	0x3da91733	0.08256378
111	0x3e0c8096	0.13720927
112	0x3cd171ac	0.025566898
113	0x3dd80cf2	0.10549344
114	0x3da74201	0.08166886
115	0xbd22cc08	-0.03974536
116	0xbcaf9946	-0.021435391
117	0xbcfb4756	-0.030673664
118	0x3dcde59c	0.1005356
119	0x3e0d3bce	0.13792345
120	0x3dd7e62e	0.1054195
121	0x3c89804e	0.016784813
122	0x3c2b1c2b	0.0104437275
123	0xbdf543bc	-0.1197581
124	0xbbfdce7b	-0.0077455617
125	0xbd0b94ca	-0.034077443
126	0x3cd119c0	0.025524974
127	0x3e2fca9e	0.17167136
128	0xbd32727e	-0.04356622
129	0x3daaaf58	0.083342254
130	0xbd81e6a1	-0.06342817
131	0x3d902710	0.070387006
132	0xbd5df6c7	-0.054190423
133	0x3e08fe61	0.13378288
134	0xbd92d18c	-0.07168874
135	0xbce14723	-0.027499741
136	0x3cbdac11	0.023153337
137	0xbe02ab3c	-0.12760633
138	0x3d7d39b6	0.061822616
139	0xbd95b529	-0.07309944
140	0x3d676c0d	0.05649953
141	0x3db8a56a	0.09015925
142	0x3c2cf1b6	0.010555675
143	0x3d5a8cc0	0.053356886
144	0x3d1f283b	0.038856726
145	0xbdded7e6	-0.10881023
146	0xbdb56c6b	-0.0885857
147	0x3d994866	0.07484512
148	0x3de537bc	0.11192271
149	0xbc7fab66	-0.015604829
150	0xbdd5754f	-0.104227655
151	0x3d4f1dc9	0.050565515
152	0x3ba03f61	0.004890368
153	0xbd38470b	-0.044989627
154	0xbd8a7180	-0.0675993
155	0x3d29bb89	0.041438613
156	0xbc520390	-0.012818232
157	0xbd6a15a1	-0.057149533
158	0x3d316f0c	0.043318793
159	0x3d875872	0.066086665
160	0xbd2f4f58	-0.042800277
161	0x3bf4203f	0.007450133
162	0xbc04a952	-0.00809701
163	0xbd3f7603	-0.046743404
164	0x3be90de6	0.0071122525
165	0x3dbc5789	0.091963835
166	0xbd9f30a0	-0.07772946
167	0xba2d5cfc	-0.0006613282
168	0xbbd45b58	-0.0064806156
169	0x3d9755fe	0.073894486
170	0x3e05eaf8	0.13077915
171	0x3b2c01ca	0.0026246184
172	0x3dd14f69	0.102202244
173	0x3a9a587e	0.001177564
174	0xbce47bf2	-0.027891133
175	0x3bbbb366	0.005728173
176	0xbd8f3270	-0.06992042
177	0x3d439724	0.04775156
178	0x3c796008	0.01522065
179	0xbb940ade	-0.004517897
180	0x3beb61f9	0.00718331
181	0xbbae9ef7	-0.0053290087
182	0x3da46370	0.08026779
183	0xbd9ddf4b	-0.077086054
184	0xbd8db19f	-0.06918644
185	0xbdacca43	-0.08437016
186	0x3d514207	0.05108836
187	0x3de8983e	0.11357163
188	0xbbe40b12	-0.0069593275
189	0xbd743a65	-0.059626002
190	0x3d7b9979	0.06142566
191	0xbccb591d	-0.024822766
192	0x3d8bc3c3	0.06824448
193	0x3ceb039e	0.028688248
194	0x3da7f804	0.08201602
195	0xbcce80d1	-0.025207909
196	0x3d036d37	0.032086577
197	0x3cba0d1e	0.022711333
198	0xbdc1844e	-0.09449063
199	0x3d677fb0	0.056518257
200	0x3dfc621d	0.12323401
201	0xbd18db99	-0.0373188
202	0xbdea0661	-0.11426998
203	0x3ce16669	0.027514653
204	0xbcdae627	-0.026721073
205	0xbd0697a0	-0.032859445
206	0xbd822f9b	-0.06356736
207	0xbd02e4aa	-0.031956352
208	0x3d84e9e9	0.06489927
209	0x3d569de1	0.05239666
210	0xbd40594f	-0.04696017
211	0x3d9b27e3	0.07575967
212	0xbde82fe6	-0.11337261
213	0x3ca54b71	0.020177575
214	0x3d119b81	0.03554869
215	0x3d005ad8	0.031336635
216	0x3ca0e6eb	0.01964136
217	0x3d0787b2	0.033088394
218	0x39bed5bc	0.00036398869
219	0xbcb842a8	-0.022492722
220	0xbc239075	-0.009983172
221	0x3d909b5f	0.07060885
222	0xbcd9152f	-0.026499359
223	0xbd4f95aa	-0.05067984
224	0x3d8da14c	0.069155306
225	0x3d5d5f86	0.054046176
226	0xbc98e559	-0.018664049
227	0xbd8dcf22	-0.06924273
228	0x3d35eca7	0.044415142
229	0xbce4f4e1	-0.027948799
230	0xbb4bebf2	-0.0031115976
231	0x3cd75a09	0.02628805
232	0x3de1e06d	0.11029134
233	0xbb5d7159	-0.0033789484
234	0x3d8733cf	0.066016786
235	0xbd33cdc6	-0.043897413
236	0x3d9198fa	0.07109256
237	0x3cccf297	0.02501802
238	0x3d28402e	0.04107683
239	0x3dd40e1d	0.103542544
240	0x3dab9b76	0.08379261
241	0x3cff1b7b	0.031141033
242	0x3d19d140	0.037553072
243	0xbb8968ac	-0.004193386
244	0x3c60fe67	0.013732529
245	0xbcbff57c	-0.023432486
246	0x3e097816	0.13424715
247	0xbd2380cc	-0.039917752
248	0x3b9f1f52	0.0048560286
249	0x3e0c3c20	0.13694811
250	0x3dad600d	0.08465586
251	0x3dcd2e66	0.100186154
252	0x3d0c9300	0.034319878
253	0xbccfe098	-0.02537565
254	0xbce3833b	-0.027772537
255	0xbc366b6c	-0.01113401

fc3.weight f4 [128, 256]
0	0xbd9fc696	-0.07801549
1	0xbe1cc74f	-0.15310405
2	0x3d131806	0.035911582
3	0x3bf138c8	0.007361505
4	0x3cdff55e	0.02733868
5	0x3cebdb48	0.028791085
6	0xbe13b79b	-0.14425509
7	0xbd4d3741	-0.050101522
8	0x3dae1a87	0.085011534
9	0xbd11bc3c	-0.035579905
10	0x3e1e2e5d	0.15447374
11	0x3d0be359	0.034152362
12	0xbd6bbdfc	-0.05755423
13	0x3d95addb	0.07308551
14	0x3d5d2a34	0.053995326
15	0xbe73e219	-0.23816718
16	0xbdcfcdb1	-0.101466544
17	0x3d5b879d	0.053596128
18	0xbe69fb1e	-0.228497
19	0x3c7e9bd1	0.015540079
20	0xbdba9df2	-0.09112157
21	0xbc84c40e	-0.016206767
22	0x3d6de1f8	0.05807683
23	0xbd70faaa	-0.058832802
24	0xbc6b1bce	-0.014349891
25	0xbde8566c	-0.11344609
26	0xbe121b1e	-0.14268157
27	0x3d798452	0.060917206
28	0xbdfecf41	-0.12441874
29	0xbe90a7b0	-0.28252935
30	0xbd9d3a4a	-0.076771334
31	0x3c1ab84b	0.009443353
32	0xbd35ad95	-0.044354994
33	0x3cc22cba	0.023702968
34	0x3cdf82dc	0.027284078
35	0x3cf535e8	0.029932931
36	0xbd8d111f	-0.06888031
37	0xbdcf7e9b	-0.1013157
38	0x3e14d18d	0.14533062
39	0x3d8af43e	0.06784867
40	0xbcd7abc7	-0.026327027
41	0xbde5db8a	-0.112235144
42	0xbd3ad7dd	-0.04561602
43	0x3e1d4080	0.15356636
44	0x3b9befc7	0.0047588083
45	0x3d96d72d	0.0736526
46	0x3da97f77	0.08276265
47	0x3dae2cf2	0.085046664
48	0x3d8b655f	0.068064444
49	0x3d262b8e	0.04056888
50	0xbc3f33b0	-0.011670038
51	0xbd373648	-0.0447295
52	0xbddf1498	-0.108926
53	0xbe8571e5	-0.26063457
54	0x3d469275	0.048479516
55	0x3d63f5ac	0.055654213
56	0xbccbb54b	-0.02486672
57	0x3e3bab22	0.18327
58	0x3e1fdcbe	0.1561155
59	0xbdaf4c10	-0.0855943
60	0xbe2c44e6	-0.16823158
61	0xbc180100	-0.009277582
62	0xbd4ac211	-0.049501482
63	0x3d3d3471	0.04619259
64	0xbe017f25	-0.12646158
65	0xbcd91418	-0.02649884
66	0xbe1853e3	-0.1487575
67	0xbd2162bf	-0.039400812
68	0x3bd9b1ab	0.006643494
69	0x3db0f38e	0.08640204
70	0xbd21050b	-0.03931145
71	0xb9dd840e	-0.00042250793
72	0x3d8e71d7	0.06955307
73	0xbdcd2535	-0.10016862
74	0xbb3d270f	-0.0028862392
75	0xbd9398fd	-0.072069146
76	0x3d5c0ed6	0.053725086
77	0x3d6c5ff5	0.0577087
78	0xbe5d1cd8	-0.21593034
79	0xbd0aaf73	-0.033858728
80	0x3d95933e	0.07303475
81	0xbb34411b	-0.0027504626
82	0x3daa69e8	0.08320981
83	0xbd1439bf	-0.036187883
84	0xbceffbf8	-0.029294953
85	0x3d93c2d6	0.072148964
86	0x3db533ee	0.088477954
87	0xbc6961b5	-0.014244487
88	0x3d3562a9	0.044283543
89	0xbc82ba07	-0.015957845
90	0xbdc9e242	-0.098576084
91	0xbdcca070	-0.099915385
92	0xbdc69c50	-0.09697783
93	0x3d16777a	0.036735035
94	0x3b11f24a	0.002226966
95	0xbe4084cd	-0.1880066
96	0xbe82d00a	-0.25549346
97	0xbd5edc8e	-0.054409556
98	0xbbc48e2b	-0.005998393
99	0x3d12dbc3	0.035854112
100	0xbd8b6d04	-0.068079025
101	0xbd8b3aa3	-0.067982934
102	0x3d80fe07	0.06298452
103	0x3bf29ed6	0.0074041886
104	0x3d1cda27	0.038293984
105	0x3d87d59f	0.06632542
106	0xbd33d6ad	-0.043905903
107	0x3d84397a	0.06456275
108	0x3d66323a	0.056200244
109	0xbaa4201f	-0.001252178
110	0x3d7d5c05	0.061855335
111	0xbd8adeeb	-0.067807995
112	0xbcbab734	-0.022792436
113	0x3db715cd	0.08939705
114	0xbdaa9e0f	-0.083309285
115	0x3d6bc4de	0.057560794
116	0xbcb5c9d4	-0.022190966
117	0x3e0a04af	0.13478349
118	0xbc9c0b18	-0.019048259
119	0xbe8ea704	-0.27861798
120	0xbbe7e5dd	-0.0070769624
121	0xbe913379	-0.28359583
122	0x399a8891	0.0002947492
123	0xbcda3663	-0.026637262
124	0xbd27550d	-0.040852595
125	0xbe977b44	-0.29586232
126	0xbd60c51c	-0.05487548
127	0x3bd20de5	0.0064103478
128	0x3d85702d	0.065155365
129	0x39e849da	0.00044305512
130	0x3d842dc8	0.064540446
131	0x3dabd80a	0.083908156
132	0xbd450468	-0.048099905
133	0xbd905301	-0.07047082
134	0xbca255ad	-0.019816244
135	0xbd8b3513	-0.067972325
136	0xbd426a9d	-0.047464956
137	0x3d399d8f	0.045316275
138	0xbc62b250	-0.013836458
139	0xbcdbad13	-0.026815927
140	0xbd813931	-0.063097365
141	0x3de55ae0	0.11198974
142	0xbd83a0f8	-0.06427187
143	0x3dcb7819	0.09935016
144	0xbdadc22e	-0.084843025
145	0x3e1b07df	0.15139721
146	0xbd260d3d	-0.04053997
147	0xbb924b37	-0.0044645327
148	0xbda1e053	-0.079041146
149	0xbda380c8	-0.079835474
150	0xbd94f99e	-0.07274173
151	0xbe17e6e4	-0.14834172
152	0x3d543252	0.0518058
153	0xbd646af5	-0.055766065
154	0x3d9a7ae2	0.07542969
155	0x3d9d8569	0.076914616
156	0xbe0c6253	-0.13709383
157	0xbdbc3823	-0.09190395
158	0xba0ffa2d	-0.0005492296
159	0x3b1debad	0.0024096773
160	0x3d0837ab	0.033256214
161	0xbdda72f9	-0.106664605
162	0xbb81bd3e	-0.003959327
163	0xbdba6357	-0.09100979
164	0x3d1b3021	0.037887696
165	0xbde733d1	-0.1128918
166	0x3cdfb136	0.02730618
167	0xbd5884a8	-0.052860886
168	0xbd49d5a8	-0.049276024
169	0x3a8737cd	0.0010316313
170	0x3e073959	0.1320547
171	0xb9f21af2	-0.00046177913
172	0xbd546dac	-0.051862404
173	0x3cc594e9	0.024118857
174	0x3d639a16	0.05556687
175	0xbd814c58	-0.063133895
176	0x3d15f217	0.036607828
177	0x3ca49914	0.020092525
178	0x3b070024	0.002059945
179	0xbd1a87e8	-0.037727267
180	0x3bae1edb	0.005313737
181	0xbdd7ac7d	-0.105309464
182	0x3d424e7e	0.047438137
183	0xbde091f0	-0.10965335
184	0x3e180ad4	0.1484788
185	0xbe382839	-0.17984094
186	0x3d5e0f05	0.054213542
187	0xbe006a85	-0.12540634
188	0xbce31ee9	-0.0277247
189	0x3d87c826	0.06629972
190	0x3cba9cc8	0.022779837
191	0x3c075e3d	0.008262214
192	0xbdfdbbfd	-0.123893715
193	0xbe19c54f	-0.15016674
194	0x3dec7aa0	0.11546826
195	0xbca75a14	-0.020428695
196	0x3d9781b0	0.07397783
197	0xbc0454f0	-0.008076891
198	0xbd74c307	-0.059756305
199	0xbd068e3d	-0.032850493
200	0x3d410cdd	0.047131408
201	0xbc9a1d13	-0.018812692
202	0x3dbbb81f	0.09165978
203	0x3cf7078c	0.030154966
204	0x3c318c87	0.010836727
205	0xbbe20fbe	-0.0068988493
206	0xbdd96023	-0.1061404
207	0xbe481ddb	-0.19542639
208	0xbd7b4635	-0.06134625
209	0x3cd03b8a	0.025419015
210	0x3db6d9d6	0.08928268
211	0x3b00b5da	0.0019639642
212	0x3d360f27	0.044448044
213	0xbdcd8e3c	-0.10036895
214	0x3daec97d	0.085345246
215	0x3da59fdc	0.080871314
216	0x3d0df703	0.034659397
217	0x3d8cdbfb	0.068778954
218	0x3c6d4e3b	0.014483984
219	0xbe479a7f	-0.1949253
220	0xbc8217ea	-0.015880544
221	0xbd58f8b4	-0.052971557
222	0xbe0cc395	-0.13746484
223	0xbc64f1ee	-0.013973696
224	0x3d1a5018	0.03767404
225	0xbd1df853	-0.0385669
226	0x3b8fe7ef	0.0043916623
227	0x3d4151c1	0.047197107
228	0xb9e8fb5e	-0.0004443777
229	0xbe87a9d6	-0.26496762
230	0x3cc96acb	0.024587056
231	0x3d220c9a	0.0395628
232	0xbdc97837	-0.09837382
233	0xbe410340	-0.18848896
234	0xb9eebc40	-0.00045535155
235	0x3d85bed7	0.065305404
236	0xbdce7ecd	-0.10082779
237	0xbe128eeb	-0.14312331
238	0x3d4faa55	0.05069955
239	0x3d4388ef	0.047738012
240	0xbcfafeef	-0.03063914
241	0xbdeb7971	-0.114977725
242	0xbbd0f7a3	-0.006377177
243	0xbe2d1898	-0.16903913
244	0x3b8dbc30	0.004325412
245	0xbe0b7909	-0.1362039
246	0x3e024dbe	0.12724969
247	0xbdc9b8e9	-0.09849722
248	0xbe42eacc	-0.1903488
249	0x3d4fd0f8	0.050736398
250	0x3d6cc88f	0.057808455
251	0x3d3d566a	0.04622499
252	0x3cc07883	0.023494964
253	0xbd7ed644	-0.06221606
254	0xbc839021	-0.016059937
255	0xbcb9445f	-0.02261561

fc3.bias f4 [128]
0	0x3e2f82d9	0.17139758
1	0xbdaeee08	-0.085414946
2	0xbe209326	-0.15681133
3	0x3e500ec2	0.2031813
4	0x3e7a8c03	0.24467473
5	0xbdb3fac2	-0.08788063
6	0xbe854cbb	-0.26035103
7	0x3dbaa492	0.091134205
8	0x3e5b1633	0.21395187
9	0xbe2b3d24	-0.16722542
10	0x3ddd4fae	0.10806213
11	0x3cc2d8f6	0.023785096
12	0xbe2d30c5	-0.16913135
13	0x3ebbcede	0.36681265
14	0x3d941c12	0.072319165
15	0xbe191e39	-0.14952935
16	0x3e4f093f	0.20218371
17	0x3e752ad9	0.23942126
18	0x3dbeecd5	0.09322516
19	0x3ddb16d3	0.10697713
20	0x3e197294	0.14985114
21	0x3e6c1025	0.23053034
22	0xbde8d5a9	-0.113688774
23	0x3d42b5fe	0.047536843
24	0xbdcc9d03	-0.09990885
25	0x3decbf52	0.11559929
26	0xbe09b919	-0.13449515
27	0x3e8fe736	0.28106087
28	0xbe580db9	-0.21098985
29	0xbda9b3a0	-0.08286214
30	0x3e321eb4	0.17394525
31	0x3d34212e	0.043976955
32	0x3e14b9d1	0.14524008
33	0xbdf722ea	-0.12067206
34	0x3ea50933	0.3223358
35	0x3e080b15	0.13285477
36	0x3e238c14	0.15971404
37	0xbdfcabe0	-0.1233747
38	0x3e419e73	0.189081
39	0x3daac523	0.08338382
40	0xbe2f5fce	-0.1712639
41	0x3eab4e51	0.33458188
42	0x3d81afd0	0.06332362
43	0x3aa3c00d	0.0012493149
44	0xbe1f733f	-0.15571307
45	0x3e3841b1	0.1799381
46	0x3eb96774	0.3621174
47	0x3deb2d14	0.11483207
48	0x3e7b1a14	0.24521667
49	0xbd8daa3d	-0.06917236
50	0xbe250a49	-0.16117205
51	0xbe3b094f	-0.1826527
52	0x3dbc9738	0.0920853
53	0xbce68ec6	-0.028144252
54	0xbd8627d3	-0.065505646
55	0xbe47a723	-0.19497351
56	0xbe03f3af	-0.12885927
57	0xbe104346	-0.14088163
58	0x3db847c9	0.08998067
59	0xbdded580	-0.10880566
60	0xbd22b275	-0.03972097
61	0x3e04b4ea	0.12959638
62	0x3d6c9bf5	0.05776592
63	0x3e3aaf2c	0.18230885
64	0x3dcdaa94	0.10042301
65	0xbe2e52b5	-0.17023738
66	0x3def3868	0.116806805
67	0xbdef8200	-0.116947174
68	0xbe022cb1	-0.12712361
69	0xbde93e47	-0.113888316
70	0xbdd306bb	-0.10304018
71	0x3e92e21a	0.28688127
72	0x3e09f209	0.13471235
73	0x3e27bfc2	0.16381744
74	0xbe1e695d	-0.1546988
75	0x3e2427fe	0.16030881
76	0xbe0f8903	-0.1401711
77	0x3e054e1f	0.13018082
78	0x3e0ee150	0.13953137
79	0xbe116adf	-0.14200924
80	0xbe0a6f39	-0.1351899
81	0xbe28d9d9	-0.16489352
82	0x3e433eb0	0.19066882
83	0xbde53d58	-0.11193341
84	0xbe1e9e18	-0.15489995
85	0xbe37e9cd	-0.17960282
86	0xbe3b25e4	-0.18276173
87	0x3e17675b	0.1478552
88	0xbd8e9652	-0.06962265
89	0xbe5d336b	-0.21601646
90	0x3e3c7bf1	0.18406655
91	0xbe3ee6d9	-0.18642749
92	0x3e9c299e	0.305005
93	0xbdcb4b85	-0.099265136
94	0xbe08626b	-0.13318793
95	0xbe0619ef	-0.1309583
96	0xbe0a25af	-0.13490938
97	0xbe452ab2	-0.19254568
98	0x3d94356f	0.07236754
99	0x3e289d1d	0.16466184
100	0x3e35d640	0.17757511
101	0xbd987c01	-0.07445527
102	0x3df5c4e3	0.12000444
103	0xbe1042fc	-0.14088053
104	0xbe7110b7	-0.23541532
105	0x3dea9378	0.11453909
106	0x3e0c04b7	0.13673674
107	0xbe2c6b4e	-0.16837808
108	0xbdb59f04	-0.088682204
109	0xbe13bc29	-0.14427246
110	0xbd91047e	-0.07080935
111	0x3e10eb59	0.14152278
112	0xbe37f56c	-0.17964715
113	0x3e8a9e93	0.27074108
114	0xbdc53894	-0.09629932
115	0x3dade1c2	0.084903255
116	0x3d3309c3	0.04371048
117	0xbdac7e59	-0.084225364
118	0x3eb880c6	0.36035746
119	0x3de24a47	0.110493235
120	0xbd8f0281	-0.069828995
121	0x3e277c5f	0.16356038
122	0x3cae9982	0.021313433
123	0xbd508cf1	-0.050915662
124	0x3dd5e8e5	0.10444812
125	0x3e28872e	0.16457817
126	0x3e0ab91d	0.13547178
127	0xbe2b947a	-0.16755858

fc4.weight f4 [1, 128]
0	0x3ea1c94d	0.31598893
1	0xbef0f3f3	-0.47061118
2	0xbe89c30b	-0.26906618
3	0x3e73a7a3	0.23794417
4	0x3de55dae	0.111995086
5	0xbe39d3f1	-0.18147255
6	0xbe667a8b	-0.22507684
7	0x3e8d78a2	0.27631098
8	0x3e7681a3	0.2407289
9	0xbe94902c	-0.29016244
10	0x3eb08bed	0.34481755
11	0x3eee2eb0	0.46519995
12	0xbee0cd38	-0.4390657
13	0x3ddd3aed	0.10802255
14	0x3ed2c593	0.41166362
15	0xbe907275	-0.28212324
16	0x3e9aafe5	0.30212322
17	0x3e3585fc	0.17726892
18	0x3ed5315e	0.41639227
19	0x3ec5bc84	0.38620389
20	0x3e96348c	0.29336965
21	0x3e5d5947	0.21616088
22	0xbe9a2079	-0.301029
23	0x3f0616a7	0.52378315
24	0xbec1fa1c	-0.3788613
25	0x3ea152d1	0.31508496
26	0xbea6baf8	-0.3256452
27	0x3dc320f8	0.09527773
28	0xbe65cc73	-0.22441272
29	0xbea68f25	-0.32531086
30	0x3eab4352	0.334498
31	0x3ecc6966	0.39924163
32	0x3ec2d2df	0.38051507
33	0xbe4de77d	-0.20107837
34	0x3dc52916	0.09626977
35	0x3e24f11e	0.16107604
36	0x3e8ace3f	0.27110478
37	0xbebc8298	-0.36818385
38	0x3ea2e4b3	0.3181511
39	0x3ea8663c	0.328905
40	0xbe97108c	-0.29504812
41	0x3dce48ae	0.10072456
42	0x3e6a4dce	0.22881243
43	0xbefcfb21	-0.49410346
44	0xbeb5a788	-0.3547938
45	0x3e931281	0.28725055
46	0x3dd8f85f	0.10594248
47	0x3e763fa3	0.24047713
48	0x3dd2ff27	0.10302573
49	0xbeecfc25	-0.4628612
50	0xbedcd5f8	-0.43131995
51	0xbe3e577f	-0.18588065
52	0x3ea25c64	0.31711113
53	0xbec5d7cf	-0.3864121
54	0xbeb24893	-0.34820995
55	0xbe3e3718	-0.18575704
56	0xbe933e84	-0.28758633
57	0xbe6897a0	-0.2271409
58	0x3e5bf924	0.21481758
59	0xbe8583a8	-0.26077008
60	0xbe94bcfc	-0.29050434
61	0x3eb90d18	0.36142802
62	0x3e90477a	0.28179532
63	0x3e579f49	0.21056856
64	0x3e8872bb	0.26650032
65	0xbe722c6a	-0.23649755
66	0x3f1663ab	0.5874583
67	0xbecfe33f	-0.40603063
68	0xbe75eac1	-0.24015333
69	0xbe786a2a	-0.24259248
70	0xbed30443	-0.4121419
71	0x3e34653a	0.1761674
72	0x3e2b5b66	0.16734084
73	0x3dfd2fbe	0.12362622
74	0xbeadc7da	-0.33941537
75	0x3e8b44a8	0.27200818
76	0xbea4c335	-0.3218018
77	0x3e854fb6	0.26037377
78	0x3e85e254	0.26149237
79	0xbea00205	-0.3125154
80	0xbe807189	-0.2508662
81	0xbe855e57	-0.26048538
82	0x3e5bea36	0.21476063
83	0xbe65ec63	-0.22453456
84	0xbe72ca9b	-0.237101
85	0xbe44808b	-0.1918966
86	0xbea78d5f	-0.32725045
87	0x3eabfc77	0.33591053
88	0xbedad442	-0.42740065
89	0xbe84d459	-0.25943258
90	0x3e7ec363	0.24879222
91	0xbe87d325	-0.26528278
92	0x3ddf1d2d	0.10894237
93	0xbe9cb510	-0.3060689
94	0xbea35c11	-0.3190618
95	0xbe96e195	-0.2946898
96	0xbe85e5b7	-0.2615182
97	0xbe387577	-0.1801356
98	0x3e9cd220	0.30629063
99	0x3e9943ed	0.29934636
100	0x3eaa1a84	0.33223355
101	0xbeb3b959	-0.35102347
102	0x3e83dce5	0.25754467
103	0xbe845e3f	-0.25853154
104	0xbe905408	-0.2818911
105	0x3ebb571c	0.36589897
106	0x3e9a609a	0.30151826
107	0xbe8a5472	-0.27017552
108	0xbeb60c27	-0.35556147
109	0xbe52bfd3	-0.20580988
110	0xbe3de9bf	-0.18546198
111	0x3e7861a0	0.24255991
112	0xbe8594ba	-0.26090032
113	0x3da82132	0.082094565
114	0xbe38dc51	-0.18052794
115	0x3e87aa50	0.26497126
116	0x3e95f340	0.29287148
117	0xbe988d99	-0.2979553
118	0x3dcf3cd1	0.10119022
119	0x3eac67d1	0.33672956
120	0xbeb28131	-0.3486419
121	0x3e0f8d25	0.14018686
122	0x3e9dad15	0.30796114
123	0xbe8a7865	-0.2704498
124	0x3eae2eeb	0.3402017
125	0x3e506811	0.20352198
126	0x3e996a01	0.29963687
127	0xbe4355db	-0.1907572
