checkpoints/ddpg/214_checkpoint_actor_agents_1_solved.pth (torch_old, 541483 bytes, 6 tensors)

fc1.weight f4 [400, 33]
0	0xbe317b5c	-0.17332214
1	0x3cd89179	0.026436554
2	0xbc06e0f0	-0.00823234
3	0xbd615f8f	-0.055022772
4	0x3dbf6e48	0.09347206
5	0x3e3b043e	0.18263337
6	0xbe7788d5	-0.24173291
7	0x3c859396	0.016305726
8	0xbe270f73	-0.16314487
9	0x3e36abd2	0.17838982
10	0xbda459af	-0.08024918
11	0xbc0fc396	-0.008774659
12	0xbbe272a0	-0.006910637
13	0xbd9e2169	-0.07721216
14	0x3b3abe0b	0.0028494622
15	0xbdb6b301	-0.08920861
16	0xbc7dc48a	-0.015488753
17	0x3c681d0c	0.014167082
18	0x3e734cf6	0.23759827
19	0xbd86077d	-0.06544397
20	0xbc804fe9	-0.015663104
21	0xbcd24e6c	-0.02567216
22	0x3e08056f	0.13283323
23	0x3dd89962	0.105761304
24	0xba3c1e08	-0.0007176106
25	0x3d0bf990	0.03417355
26	0xbda700d8	-0.08154458
27	0xbd34e729	-0.044165764
28	0x3c47179e	0.012151627
29	0x3d4b65c9	0.049657617
30	0x3d25df8a	0.040496387
31	0xbcea4fb7	-0.028602464
32	0x3ef57f3e	0.4794864
33	0xbcf350b7	-0.029701574
34	0xbde6ee9b	-0.11275979
35	0xbd5cc4ae	-0.053898506
36	0x3cefeb65	0.02928705
37	0xbdb3121d	-0.08743689
38	0x3db5d593	0.08878627
39	0x3d92c4e9	0.07166464
40	0xbd80c3e5	-0.06287364
41	0x3e1ac227	0.15113126
42	0x3d5cb8d7	0.053887215
43	0xbc04170f	-0.008062138
44	0x3d8f58ce	0.0699936
45	0xbc449869	-0.011999228
46	0xbc89d8e3	-0.016827052
47	0x3c63d803	0.013906482
48	0xbddaf9aa	-0.10692151
49	0xbcdd03d1	-0.026979359
50	0x3d4060e2	0.046967395
51	0x3d4aca87	0.04950955
52	0x3ea8c772	0.32964665
53	0xbd4f8cf7	-0.050671544
54	0x3deda5c4	0.11603883
55	0xbc84ac68	-0.016195491
56	0x3e220696	0.15822825
57	0x3d943d13	0.072382115
58	0x3d867ddc	0.065669745
59	0x3cb1b13d	0.02169096
60	0xbb0758ad	-0.002065222
61	0xbca44c6f	-0.020055978
62	0xbd28afc3	-0.041183244
63	0x3d30750f	0.043080386
64	0xbc3b03ec	-0.011414509
65	0x3e91702a	0.28405887
66	0x3e1bafe7	0.1520382
67	0xbdd8655a	-0.10566206
68	0xbd247122	-0.040146954
69	0x3dcef864	0.101059705
70	0xbd7427a7	-0.059608128
71	0xbe4d627b	-0.20057099
72	0x3b3e8793	0.0029072508
73	0xbc04fe92	-0.008117335
74	0xbb646b36	-0.0034853942
75	0xbe81dff6	-0.2536618
76	0x3d1d6184	0.038423076
77	0xbd87586d	-0.06608663
78	0x3826506e	3.965239e-05
79	0xbd0070f0	-0.031357706
80	0x3c2d06aa	0.010560671
81	0x3d4ac590	0.049504817
82	0xbe4a1c1a	-0.19737282
83	0x3e0879f2	0.13327768
84	0xbe9f87b4	-0.3115822
85	0xbe5f0e03	-0.21782689
86	0x3dab9b69	0.083792515
87	0xbe012495	-0.12611611
88	0xbd9df1b2	-0.07712115
89	0xbdfa6efe	-0.12228201
90	0x3d557adf	0.052119132
91	0xbb7ff6a4	-0.0039056921
92	0xbd2ff033	-0.04295368
93	0xbdc166f9	-0.094434686
94	0xbb3b1131	-0.0028544182
95	0xbd0bd4ec	-0.034138605
96	0x3d06efce	0.03294354
97	0x3d3cb22b	0.04606835
98	0x3ed3ee40	0.41392708
99	0xbd9bb7dc	-0.07603428
100	0x3da6ee0c	0.081508726
101	0x3b8f6a12	0.0043766582
102	0xbe86932d	-0.2628416
103	0xbe9f19fa	-0.31074506
104	0x3e1c572b	0.15267627
105	0xbd2c03fa	-0.04199598
106	0x3db42097	0.087952785
107	0xbd06b86c	-0.032890722
108	0x3e00b778	0.12569988
109	0xbb78b649	-0.0037950447
110	0xbc1f7b2d	-0.009733957
111	0x3d648010	0.055786192
112	0xbd422f92	-0.047408648
113	0xbb548857	-0.0032429898
114	0x3de22376	0.1104192
115	0xbd8d8874	-0.06910792
116	0x3e407a4a	0.1879665
117	0xbf035fe7	-0.5131821
118	0xbe0617a3	-0.13094954
119	0xbc312c3c	-0.010813769
120	0x3d05a724	0.0326301
121	0x3d7f7ee4	0.06237687
122	0xbd9186c4	-0.07105783
123	0xbd850464	-0.06494978
124	0xbd0fd49f	-0.03511488
125	0xbd3927e1	-0.045204047
126	0x3d4d8429	0.050174866
127	0x3e03a7d7	0.12856995
128	0xb8545800	-5.0626695e-05
129	0xbdb64e2b	-0.08901628
130	0xba080380	-0.000518851
131	0x3eefeda1	0.46860984
132	0xbcf2f66c	-0.029658519
133	0xbd4f9789	-0.050681625
134	0x3c9604e0	0.018312871
135	0xbec6614d	-0.3874611
136	0xbd7a679d	-0.06113397
137	0xbd3a9fec	-0.04556267
138	0x3e6a928a	0.22907463
139	0xbcaf33dc	-0.021387033
140	0xbc29fb58	-0.010374866
141	0xbd84cf6d	-0.06484876
142	0xbd3a37ed	-0.04546349
143	0xbc9de8a2	-0.019275967
144	0x3d4086ee	0.04700368
145	0xbcf2ba5a	-0.029629875
146	0xbe08828a	-0.13331047
147	0xbd0fa42a	-0.03506867
148	0x3da5c5b6	0.08094351
149	0x3e170778	0.14748943
150	0x3eb89415	0.36050478
151	0x3e35f589	0.17769445
152	0x3cb1668e	0.021655347
153	0xbcb7fa5d	-0.02245825
154	0x3d2b93a3	0.041888844
155	0x3d3cffe6	0.04614248
156	0xbdbf18d2	-0.09330906
157	0x3ce54c0d	0.027990365
158	0x3dad4c59	0.08461828
159	0xbd909c6c	-0.07061085
160	0xbd8e33b1	-0.06943453
161	0xbd1b80e0	-0.0379647
162	0x3d39048f	0.045170363
163	0xbc19c468	-0.009385206
164	0x3c605c24	0.013693843
165	0xbd7515f8	-0.059835404
166	0xbd4a175b	-0.04933868
167	0xbd94c0c9	-0.07263333
168	0xbe1f908c	-0.15582484
169	0xbd8350d3	-0.064119
170	0x3d31ace8	0.043377787
171	0xbde7a2ed	-0.113103725
172	0x3dd34ca7	0.10317355
173	0xbde1739a	-0.110083774
174	0xbc3269d5	-0.01088949
175	0xbd9fae87	-0.0779696
176	0x3bbe538d	0.0058083
177	0x3d69a249	0.057039533
178	0xbde87c03	-0.11351778
179	0x3db2b0a7	0.087251
180	0xbcfb3adb	-0.030667713
181	0xbe257b9a	-0.16160432
182	0x3e68adc1	0.22722532
183	0xbeb185b2	-0.34672314
184	0xbde0882d	-0.109634735
185	0xbc9bd9f5	-0.019024828
186	0x3d6bcc1f	0.057567712
187	0xbd97fc52	-0.07421173
188	0xbc46b5b3	-0.012128281
189	0x3d07e1b2	0.033174224
190	0x3b0b36a3	0.0021242283
191	0xbd05a77a	-0.03263042
192	0xba9349c4	-0.0011237194
193	0xbe1193aa	-0.14216486
194	0x3d402789	0.046912704
195	0x3d3ff04c	0.046860024
196	0x3a713ec0	0.0009202771
197	0xbe15de39	-0.14635552
198	0x3c1193ea	0.008885363
199	0xbd6a4433	-0.057193946
200	0x3c2ae87e	0.010431407
201	0x3e0f4ed4	0.13994914
202	0xbd6d1750	-0.05788356
203	0x3c464608	0.012101658
204	0x3d758746	0.05994346
205	0x3db9dcf7	0.09075349
206	0x3e814e69	0.25255135
207	0x3cffb5d1	0.031214627
208	0xbd8e3a26	-0.06944685
209	0xbd43bf86	-0.047790073
210	0x3c5b6795	0.013391395
211	0xbdf0aee9	-0.117521115
212	0xbc65d860	-0.014028639
213	0xbda5bda5	-0.080928124
214	0xbdaffb14	-0.08592811
215	0x3e19984f	0.14999507
216	0x3d552b46	0.052043222
217	0xbe354f2b	-0.17705981
218	0x3baf1d77	0.0053440887
219	0x3dbb5108	0.09146315
220	0xbd93b916	-0.07213037
221	0x3d6f6959	0.058450077
222	0xbd2ea34d	-0.042636205
223	0xbd38171a	-0.044943906
224	0xbdd1ab2e	-0.10237728
225	0x3dc21c5c	0.09478065
226	0xbd8c84dc	-0.068612784
227	0xbd2f707f	-0.042831894
228	0xbdece1cc	-0.11566505
229	0x3c2ce8ac	0.01055352
230	0x3c5aa07f	0.013343929
231	0xbd50da7b	-0.05098961
232	0x3d717e96	0.058958612
233	0x3ca580e0	0.020203054
234	0x3dd6fa0e	0.10496913
235	0xbd272800	-0.04080963
236	0xbe0f5037	-0.13995443
237	0x3df8f4a7	0.12156039
238	0xbe08e50b	-0.13368623
239	0x3c233186	0.009960538
240	0x3df80bb4	0.12111607
241	0xbd4c8d86	-0.049939655
242	0x3bd59c81	0.006518901
243	0xbc48a2bb	-0.012245829
244	0x3d2bcb15	0.04194172
245	0xbd80997c	-0.06279275
246	0x3e4947dc	0.19656318
247	0x3e82b68e	0.25529903
248	0x3e957118	0.29187846
249	0x3d146647	0.03623035
250	0x3ccbfa89	0.024899738
251	0x3b774c30	0.003773462
252	0xbc7bd877	-0.015371433
253	0x3e0e3ed8	0.1389116
254	0x3da39b82	0.07988645
255	0x3df027c7	0.11726337

fc1.bias f4 [400]
0	0xbd6091c3	-0.05482651
1	0xbd46bdf6	-0.048521005
2	0x3e6b1ace	0.22959444
3	0xbd3e60d2	-0.046479054
4	0xbd833ae5	-0.064077176
5	0xbe077f06	-0.1323205
6	0xbe61c575	-0.2204798
7	0xbe1cdf73	-0.15319614
8	0xbd4a6c6c	-0.049419805
9	0xbdbc0127	-0.09179907
10	0x3dbb5c03	0.09148409
11	0x3ad0eb82	0.0015939327
12	0x3e3a5f5c	0.18200439
13	0xbcec9f57	-0.028884573
14	0xbce58948	-0.028019562
15	0x3dbd0100	0.09228706
16	0xbd06577d	-0.03279828
17	0xbd2283e5	-0.039676566
18	0xbe851399	-0.25991514
19	0x3d0c0159	0.034180973
20	0xbe551968	-0.20810473
21	0xbd371502	-0.04469777
22	0xbd5048e7	-0.050850775
23	0xbe1f3194	-0.15546256
24	0xbd99446c	-0.074837536
25	0xbdb74a0a	-0.08949669
26	0xbcb3a992	-0.021931443
27	0x3e56a9e6	0.20963249
28	0x3e38e9e6	0.18057975
29	0x3dabed9f	0.08394932
30	0x3d9e0842	0.07716419
31	0x3e048622	0.12941793
32	0x3e634b5b	0.22196715
33	0xbdad85d6	-0.08472793
34	0x3de5a14d	0.11212406
35	0x3cc6cb36	0.02426682
36	0xbe49f1e0	-0.19721174
37	0x3e18c8c0	0.1492033
38	0x3e0a7b19	0.1352352
39	0x3d245453	0.04011948
40	0x3de554c2	0.11197807
41	0x3d9cc814	0.076553494
42	0x3d5b17f7	0.05348965
43	0x3cd2b4e8	0.025721028
44	0x3e37924f	0.17926906
45	0x3d5ae237	0.05343839
46	0x3b0d93c0	0.0021602958
47	0x3dd42ce1	0.103601225
48	0xbcfb9fa4	-0.030715771
49	0xbdbf552a	-0.09342416
50	0x3d1db1c4	0.03849961
51	0x3e35986c	0.17733926
52	0x3d8e3541	0.06943751
53	0x3df74755	0.120741524
54	0xbd3ee0d6	-0.04660114
55	0x3e4a42a2	0.19751981
56	0xbd3a6d62	-0.04551447
57	0xbda44324	-0.080206186
58	0xbd343b35	-0.044001777
59	0x3dad1759	0.08451719
60	0xbe26ef9f	-0.16302346
61	0xbe68aea9	-0.22722878
62	0x3e0b3eab	0.13598125
63	0xbd52566b	-0.051351946
64	0xbc0e33de	-0.008679358
65	0x3c9b5615	0.018961946
66	0x3e0a6ba8	0.1351763
67	0xbe4c9f82	-0.19982722
68	0xbac2603f	-0.0014829709
69	0x3dcd1c89	0.10015208
70	0x3d4a7791	0.049430434
71	0x3c9d46f1	0.019198867
72	0x3d37c23d	0.044862974
73	0x3d01f1b0	0.03172463
74	0x3e2a04bc	0.16603369
75	0x3dabd4f1	0.08390225
76	0xbe3c944d	-0.18415947
77	0xbd8ffc14	-0.07030502
78	0x3dc7cbd0	0.09755671
79	0xbd778f89	-0.06043962
80	0xbe4c9c43	-0.19981484
81	0xbd8fc318	-0.07019633
82	0xbccb8466	-0.024843406
83	0x3d9f6ad7	0.0778405
84	0xbcf5f19a	-0.030022431
85	0x3c5ee32a	0.013603965
86	0xbd115cc6	-0.035488866
87	0x3d035ffe	0.032073967
88	0x3dfd45b6	0.12366812
89	0xbdfe2cee	-0.124109134
90	0xbe72280c	-0.23648089
91	0xbde9b897	-0.11412161
92	0x3d5607f8	0.052253693
93	0x3d93643b	0.07196852
94	0xbb855bcb	-0.0040697805
95	0xbe28aa85	-0.16471298
96	0x3d101f46	0.035186075
97	0x3e280254	0.16407138
98	0x3d449d07	0.048001315
99	0x3d91c3fb	0.071174584
100	0xbd164134	-0.036683276
101	0x3e36aa1b	0.17838328
102	0xbdf690d3	-0.12039342
103	0x3e006f02	0.12542346
104	0xbd87e46b	-0.06635364
105	0x3dff8983	0.124774
106	0x3dc0c8c0	0.0941329
107	0xbe2d33b7	-0.16914259
108	0x3d0a081a	0.033699133
109	0xbd494953	-0.049142193
110	0xbd5caa4f	-0.053873356
111	0xbdd4b17a	-0.103854135
112	0xbe292d7c	-0.16521257
113	0xbd177ec9	-0.036986146
114	0x3e02de65	0.1278015
115	0x3e116df2	0.14202097
116	0x3d82719b	0.06369325
117	0xbd92667c	-0.071484536
118	0xbe8b538e	-0.27212185
119	0xbe69831e	-0.22803923
120	0xbe14510d	-0.14484043
121	0xbe275f4a	-0.16344944
122	0xbcf994fd	-0.030466551
123	0x3d42afb2	0.047530837
124	0xbe59c19f	-0.21265267
125	0x3e3ccb1a	0.18436852
126	0x3c509307	0.012730367
127	0x3be3cbd6	0.0069517894
128	0x3e117bbe	0.1420736
129	0x3d4c1b80	0.049830914
130	0xbea73f13	-0.3266531
131	0x3e1e4b86	0.15458497
132	0x3db60815	0.0888826
133	0x3e1fab82	0.15592769
134	0xbe1faad2	-0.15592507
135	0x3dfa758e	0.12229453
136	0xbe0afeef	-0.13573812
137	0x3dd4f818	0.10398883
138	0x3e260d58	0.16216028
139	0x3d8472c3	0.064672016
140	0x3d602417	0.054721918
141	0x3b956aba	0.004559842
142	0xbd95bb12	-0.073110715
143	0x3da83ba3	0.082145
144	0xbe0adfcc	-0.13561934
145	0xbc9f54dc	-0.019449644
146	0xbda7b3e0	-0.08188605
147	0xbe43c4cd	-0.19118042
148	0xbe2c10fa	-0.16803351
149	0xbe493b87	-0.19651614
150	0xbd8b8502	-0.068124786
151	0x3d16d851	0.03682739
152	0x3c6f9776	0.014623513
153	0xbdee9f3f	-0.116514675
154	0xbb2c9dc4	-0.0026339153
155	0xbe5a94d9	-0.21345843
156	0x3decf25a	0.115696624
157	0xbe27d46b	-0.16389625
158	0xbc27605b	-0.010215844
159	0xbd064d07	-0.032788303
160	0xbd846db5	-0.064662375
161	0x3e48a414	0.19593841
162	0x3d441f0e	0.04788118
163	0x3df31a89	0.118702956
164	0x3e0e97dd	0.13925119
165	0xbd97c68c	-0.07410917
166	0x3ddad91c	0.106859416
167	0x3e7b84f6	0.2456244
168	0xbced87b9	-0.028995382
169	0xb98db7e5	-0.00027030628
170	0x3c409435	0.011754085
171	0xbe77082b	-0.2412421
172	0xbd0da91f	-0.034585115
173	0xbd95f078	-0.073212564
174	0xbe086fc9	-0.13323893
175	0x3de25814	0.11051956
176	0xbdc26558	-0.09491986
177	0xbc8602f4	-0.01635883
178	0x3d6c9c27	0.057766106
179	0x3e0ac442	0.13551429
180	0xbcaf1cfe	-0.02137613
181	0x3d1cff4d	0.03832941
182	0xbe4021d8	-0.1876291
183	0xbd7c5c52	-0.06161148
184	0xbd5f7f28	-0.054564625
185	0xbd855ba0	-0.06511617
186	0xbe55ce93	-0.20879583
187	0x3c6ef6a4	0.014585171
188	0x3d601b97	0.05471381
189	0x3dd8964d	0.105755426
190	0x3d91a5da	0.07111712
191	0xbe229d1a	-0.15880242
192	0xbdb0b0c5	-0.08627466
193	0x3e1ac233	0.15113144
194	0xbd92a1d5	-0.07159773
195	0x3c095069	0.008380988
196	0xbe204959	-0.1565298
197	0x3d1b4fdf	0.037917968
198	0x3cc3d0e8	0.023903325
199	0x3dbf2e1b	0.09334966
200	0x3cebbcea	0.028776605
201	0xbe180dfe	-0.14849088
202	0xbe45b20c	-0.193062
203	0xbdfb7834	-0.12278786
204	0xbe25733c	-0.1615724
205	0x3e266386	0.16248903
206	0xbcbe4c53	-0.023229754
207	0x3d8f30fd	0.06991766
208	0x3e11cd25	0.14238413
209	0x3de025e2	0.109447256
210	0x3d5ca490	0.053867877
211	0x3dc79730	0.097456336
212	0x3ddadb5a	0.10686369
213	0xbdb6b243	-0.089207195
214	0x3e37ec5b	0.17961256
215	0xbe03bf67	-0.12865983
216	0xbe013806	-0.12619027
217	0xbdfe2b86	-0.12410645
218	0xbb07d953	-0.00207289
219	0x3d83fe80	0.064450264
220	0xbe29572a	-0.16537157
221	0xbd938f77	-0.07205098
222	0xbdc60aa2	-0.09669997
223	0xbe267811	-0.16256739
224	0x3e7fa577	0.24965464
225	0x3a6ff67b	0.0009153855
226	0x3e75f144	0.24017817
227	0x3d2d7408	0.042346984
228	0xbca68ee9	-0.020331817
229	0xbdcd2eb1	-0.10018671
230	0x3dbd51ef	0.09244143
231	0x3d744337	0.059634414
232	0x3ce6c676	0.028170805
233	0xbe381f30	-0.17980647
234	0xbc949974	-0.018139578
235	0x3da586ad	0.08082328
236	0x3c67036e	0.014099939
237	0xbe226016	-0.15856966
238	0xbe063feb	-0.1311032
239	0xbcc090ec	-0.023506604
240	0x3dfc0ffa	0.12307735
241	0xbd082765	-0.033240695
242	0x3e1be433	0.1522377
243	0x3e032684	0.12807661
244	0xbddf995f	-0.10917925
245	0x3d6dac68	0.058025748
246	0x3e3d37c2	0.18478301
247	0x3e24d2fe	0.16096112
248	0xbdf6ea8f	-0.12056457
249	0xbe2ad5a6	-0.16683063
250	0x3e09101b	0.1338505
251	0x3e1a2033	0.15051346
252	0xbd4667a0	-0.04843867
253	0xbdab469d	-0.08363078
254	0x3e779cd2	0.24180916
255	0xbcb318d7	-0.02186243

fc2.weight f4 [300, 400]
0	0xbe2ac735	-0.16677554
1	0x3ce8c85b	0.02841585
2	0x3be94a24	0.007119434
3	0x3dc27e41	0.09496737
4	0xbd6b93bb	-0.057513934
5	0x3dfd0924	0.12355259
6	0x3e18af71	0.14910676
7	0xbd9a2d22	-0.0752814
8	0x3dbff46b	0.09372791
9	0x3e45f1ed	0.19330569
10	0xbd2bc48d	-0.041935492
11	0xbe8d1ee1	-0.2756262
12	0xbc97f4e1	-0.018549385
13	0xbe0c7d4b	-0.1371967
14	0xbc13dda1	-0.009025008
15	0x3deb3261	0.114842184
16	0x3e18d545	0.14925106
17	0x3d83d3f5	0.06436912
18	0xbc392a83	-0.0113016395
19	0x3dd61f03	0.10455134
20	0x3e39018c	0.18066996
21	0xbe6b9617	-0.23006473
22	0xbbad90d4	-0.005296806
23	0xbc12697e	-0.008936284
24	0x3d69fd5e	0.057126395
25	0x3d65cf74	0.056106046
26	0xbdec3024	-0.115326196
27	0xbe049710	-0.12948251
28	0xbd581b4d	-0.05276041
29	0xbe2c626b	-0.16834418
30	0x3d4c6c73	0.049908113
31	0x3d1a07f5	0.037605245
32	0xbdc56d04	-0.09639934
33	0x3d7943d1	0.06085569
34	0x3d2d4ee2	0.042311557
35	0x3d9003b3	0.070319556
36	0xbe721099	-0.23639144
37	0xbe7371d2	-0.23773888
38	0x3d52c495	0.051457006
39	0x3dfd7074	0.12374964
40	0x3bb10dd2	0.005403259
41	0x3dcbf738	0.099592626
42	0x3e41b062	0.18914941
43	0xbd9ffc1e	-0.078117594
44	0x3d859f9a	0.06524582
45	0xbc966199	-0.018357085
46	0xbe83d5b2	-0.25748974
47	0xbe17e7f2	-0.14834574
48	0xbd9f0c20	-0.077659845
49	0x3db148b8	0.08656448
50	0xbda9fe13	-0.08300414
51	0x3d0a5252	0.033769913
52	0xbe3f218b	-0.1866514
53	0xbaf4c6c1	-0.0018674956
54	0x3d56affc	0.052413926
55	0x3d4c1357	0.04982313
56	0xbc60bab3	-0.013716388
57	0x3dd6a7c2	0.10481216
58	0xbcdfcbb3	-0.027318811
59	0x3e3f80c6	0.18701467
60	0xbdbd938d	-0.09256659
61	0x3d885952	0.066576615
62	0xbd9cb1b9	-0.076510854
63	0x3e20b718	0.15694845
64	0xbde71863	-0.11283948
65	0x3de5b696	0.11216466
66	0x3d87f133	0.06637802
67	0x3c19c61c	0.009385612
68	0x3da5a98a	0.08088978
69	0x3e088c17	0.1333469
70	0xbd5b7675	-0.053579766
71	0x3d031d30	0.032010257
72	0x3d0d69af	0.034524616
73	0xbe47e575	-0.19521125
74	0xbbf71304	-0.0075401086
75	0xbe08e0e1	-0.13367034
76	0x3ddccff8	0.107818544
77	0xbe083921	-0.13303043
78	0x3d958b43	0.07301953
79	0x3e99a205	0.30006424
80	0xbda931fb	-0.08261486
81	0x3db3cb4d	0.08779011
82	0xbd9dd330	-0.077062964
83	0xbcc58bf2	-0.024114583
84	0xbe0dd8c4	-0.13852221
85	0xbd3ac2fd	-0.04559611
86	0x3cbcec20	0.023061812
87	0xbe6856e2	-0.22689393
88	0x3af7241f	0.0018855369
89	0xbe613fb8	-0.21996963
90	0x3e50c488	0.2038747
91	0x3cf9eade	0.030507501
92	0x3e37dc09	0.1795503
93	0x3ca5a274	0.020219065
94	0x3c106308	0.008812673
95	0xbe01c4e3	-0.12672763
96	0xbd74b045	-0.059738416
97	0xbe22a635	-0.15883715
98	0xbd9f2b34	-0.07771912
99	0x3d14fd97	0.036374655
100	0xbe3c9d5c	-0.18419403
101	0xbbbf3e89	-0.005836312
102	0xbdf70adf	-0.1206262
103	0x3e20fcac	0.15721387
104	0xbb82df88	-0.003993932
105	0xbe08793d	-0.13327499
106	0xbdb79d49	-0.08965547
107	0x3da72433	0.08161201
108	0x3e1b8b06	0.15189752
109	0x3cfa1275	0.03052638
110	0xbe66da44	-0.22544199
111	0x3becfea1	0.0072325026
112	0xbe262a0b	-0.16226976
113	0x3e231ebb	0.15929691
114	0x3ca66e00	0.020316124
115	0x3d802f40	0.06259012
116	0x3da854cf	0.08219301
117	0xbeaedec1	-0.34154323
118	0xbd3ff8b2	-0.046868034
119	0x3db51f38	0.08843845
120	0x3d190fa4	0.03736843
121	0x3d98e10c	0.07464799
122	0x3dc61587	0.09672075
123	0xbd73458e	-0.059392504
124	0xbcf14738	-0.029452905
125	0xbdca304e	-0.09872495
126	0xbda4b06b	-0.080414616
127	0x3d5fea39	0.05466673
128	0x3d8dbbef	0.06920611
129	0x3da36d99	0.079798885
130	0x3e53adc4	0.20671755
131	0xbd1d9be8	-0.038478762
132	0x3de4adf0	0.111659884
133	0x3d5a0540	0.053227663
134	0xbde5bfe8	-0.11218244
135	0x3db74a29	0.08949692
136	0xbe28a402	-0.16468814
137	0xbd285682	-0.041098125
138	0xbc40f25c	-0.011776533
139	0xbdd30716	-0.10304086
140	0x3dac6b23	0.08418872
141	0xbbe0e42b	-0.0068631372
142	0xbd1b30bc	-0.037888274
143	0x3d01a90e	0.031655364
144	0x3d6f702b	0.05845658
145	0xbd113bbd	-0.03545736
146	0x3d23bc4b	0.039974492
147	0x3c9b610b	0.018967172
148	0x3df6cf9a	0.120513156
149	0xbdea411d	-0.114382006
150	0x3d7eaa49	0.062174115
151	0x3dd59518	0.10428828
152	0x3dc4db50	0.09612143
153	0x3ca17e75	0.01971362
154	0x3df76b8c	0.1208106
155	0x3d553c05	0.052059192
156	0x3c8c1bee	0.017103162
157	0x3e04826a	0.12940374
158	0x3ca9f1f0	0.020745248
159	0xbf1f4c0a	-0.622254
160	0xbc70196d	-0.0146544995
161	0x3de4701f	0.11154198
162	0xbe4c5438	-0.19954002
163	0x3d1fc6e0	0.03900802
164	0xbd8ef916	-0.06981103
165	0xbe23dddb	-0.160026
166	0xbde50efb	-0.11184498
167	0x3e0ee234	0.13953477
168	0x3a3b47a3	0.00071441586
169	0x3d46e8ea	0.048561968
170	0xbc3cdd85	-0.011527424
171	0x3e827d5f	0.25486276
172	0x3dcb67a2	0.09931876
173	0x3d314f37	0.043288436
174	0xbe578d51	-0.21050002
175	0x3d9199ff	0.071094505
176	0xbc8fa342	-0.017533902
177	0x3e1b7325	0.15180643
178	0xbe6939c0	-0.22775936
179	0x3d6054ff	0.05476856
180	0xbd5a92c4	-0.053362623
181	0x3ba97bb2	0.0051722163
182	0xbecfd904	-0.40595257
183	0x3cd946e8	0.026523069
184	0x3d04844e	0.032352738
185	0xbd716849	-0.058937345
186	0xbd865eb3	-0.06561031
187	0xbd5992da	-0.053118564
188	0x3e22fea2	0.15917447
189	0xbd8df72a	-0.069319084
190	0x3dd4e134	0.103945166
191	0xbdac04de	-0.08399366
192	0xbdfedccc	-0.124444574
193	0x3d5a2f8e	0.053268008
194	0x3db159da	0.08659716
195	0x3cbc7396	0.023004334
196	0x3c44ccb7	0.012011698
197	0x3d97c17e	0.074099526
198	0x3d93d52c	0.07218394
199	0x3d8d7097	0.069062404
200	0xbd11e542	-0.035619028
201	0xbd81564a	-0.063152865
202	0xbd4cf22c	-0.05003564
203	0xbdaaab26	-0.08333425
204	0x3c1315b4	0.008977342
205	0xbdc27d05	-0.09496502
206	0x3ca69159	0.020332979
207	0x3d3fdb8d	0.04684024
208	0xbe40bbd2	-0.18821648
209	0x3c518442	0.01278788
210	0xbd80b7f6	-0.06285088
211	0xbb8878c7	-0.0041647884
212	0xbc012364	-0.007881973
213	0xbd857d06	-0.06517987
214	0xbcf93fae	-0.030425873
215	0xbdb4e229	-0.08832199
216	0xbd18cee0	-0.037306666
217	0x3d5dd375	0.05415674
218	0xbcf73c8e	-0.030180242
219	0xbc4d7c4f	-0.0125418445
220	0x3d8ddcb0	0.069268584
221	0xbe3fa8c7	-0.18716727
222	0xbe0d9b5f	-0.138288
223	0xbd43b071	-0.04777569
224	0xbe113593	-0.14180593
225	0x3d4a8148	0.0494397
226	0xbd82fc07	-0.06395727
227	0xbc1a1b87	-0.009405977
228	0x3e604d01	0.21904375
229	0x3da02271	0.07819069
230	0x3d26b6b4	0.040701583
231	0x3c3c6550	0.011498764
232	0x3d42ec93	0.047588896
233	0xbda5478a	-0.080702856
234	0xbc76337c	-0.015026923
235	0xbd91c4ac	-0.0711759
236	0xbe970e00	-0.2950287
237	0xbcab00ef	-0.020874469
238	0x3e4de33d	0.20106216
239	0x3e316a8d	0.17325802
240	0x3de7fbb1	0.11327303
241	0xbea1982e	-0.31561416
242	0x3d20f5ea	0.039297022
243	0xbc6cc7e9	-0.014451959
244	0xbde44fe6	-0.11148052
245	0xbd7c4190	-0.061585963
246	0xbd63076d	-0.055427004
247	0x3dfdd0db	0.12393352
248	0x3c4c62b3	0.012474704
249	0xbe536df9	-0.2064742
250	0x3e2ab8d7	0.16672073
251	0x3da6c559	0.0814311
252	0x3e1b11c2	0.15143493
253	0xbdcf7b7b	-0.10130974
254	0xbcf972f4	-0.030450322
255	0xbd4dc0c9	-0.050232682

fc2.bias f4 [300]
0	0x3cd908da	0.026493479
1	0x3c86b82d	0.016445244
2	0xbd53e7a1	-0.05173457
3	0x3cad8a85	0.021184215
4	0xbcfb4a88	-0.030675188
5	0x3d5db48b	0.054127257
6	0xbd680ab9	-0.05665085
7	0x3d77b319	0.060473535
8	0x3d95aa3c	0.0730786
9	0x3d574e8b	0.05256514
10	0xbccac7f0	-0.02475354
11	0xbcfd2bd6	-0.030904692
12	0xbd4f24ae	-0.05057209
13	0x3d6defa0	0.058089852
14	0x3d434c83	0.04768039
15	0x3bc1b186	0.005911055
16	0x3d20b343	0.039233457
17	0x3cbfdf11	0.023421796
18	0x3d7184a8	0.0589644
19	0xbd34212a	-0.04397694
20	0x3cd27eef	0.025695292
21	0x3d8e08b2	0.06935252
22	0xbad40be4	-0.001617786
23	0xbd803761	-0.06260563
24	0x3cbe74e9	0.023249106
25	0xbc0c343d	-0.008557376
26	0xbc13785c	-0.009000864
27	0x3d05052d	0.03247564
28	0x3d4a160b	0.049337428
29	0x3be1b99a	0.0068885805
30	0x3d253eeb	0.040343206
31	0x3d363eb3	0.04449339
32	0x3c612728	0.013742246
33	0x3d664f5a	0.05622802
34	0xbce2cc4f	-0.027685313
35	0x3c8e9941	0.017407062
36	0x3d9baadf	0.076009504
37	0xbd1d4dbb	-0.038404208
38	0x3bffce4f	0.0078065763
39	0xbbe5c0d0	-0.0070115104
40	0x3d0ebde1	0.03484905
41	0x3d449d9a	0.048001863
42	0xbc95165c	-0.018199138
43	0x3d2d182c	0.04225938
44	0x3d96abc0	0.073569775
45	0x3cd581a0	0.026062787
46	0xbce87af0	-0.028378934
47	0xbd37fca6	-0.04491868
48	0xbc470689	-0.012147554
49	0xbc7f6156	-0.015587172
50	0x3d03e397	0.03219947
51	0x3ca48b1b	0.020085862
52	0x3cc6ff2f	0.024291603
53	0x3c786043	0.015159669
54	0x3d810cfd	0.063013054
55	0xbc8d994d	-0.017285014
56	0xbd4d42f3	-0.050112676
57	0xbcd209b7	-0.025639398
58	0xba8d695d	-0.0010788847
59	0xbd782a87	-0.060587432
60	0x3dade35b	0.0849063
61	0x3d0249e3	0.031808745
62	0x3c11ca87	0.008898384
63	0xbcdf7ca3	-0.027281111
64	0xbca8eb18	-0.020619914
65	0x3cc37be0	0.02386278
66	0x3d69fe5c	0.05712734
67	0xba6dcf2e	-0.00090717047
68	0x3cf1d4df	0.02952045
69	0xbd3caa74	-0.046060994
70	0x3d8d0265	0.06885222
71	0xbce18631	-0.027529808
72	0x3d4fee3d	0.05076431
73	0xbc582849	-0.0131931985
74	0x3d890711	0.06690801
75	0x3bedff66	0.007263112
76	0xbdab79bd	-0.08372829
77	0x3dba03c3	0.09082749
78	0x3cad37f9	0.021144854
79	0xbdb90868	-0.090348065
80	0xbd705ecc	-0.058684155
81	0xbd32c949	-0.04364899
82	0xbca00e9c	-0.019538216
83	0x3d3cdabf	0.04610705
84	0xbd5dde2e	-0.054166965
85	0x3c8dbbf3	0.017301535
86	0x3c805e05	0.015669832
87	0xbd71efc3	-0.059066545
88	0x3c51154d	0.012761426
89	0x3d687322	0.056750424
90	0xbd27fc35	-0.041012008
91	0xbd73a8e1	-0.059487227
92	0x3d838bf8	0.06423181
93	0xbc6c3427	-0.014416731
94	0x3ccedd74	0.025252081
95	0x3d432148	0.04763916
96	0xbcad4416	-0.02115063
97	0x3c39009b	0.011291648
98	0xbb109f3a	-0.0022067563
99	0x3d8a9cdc	0.067682
100	0xbd492b84	-0.049113765
101	0x3b9d929a	0.004808736
102	0x3cf88ced	0.030340636
103	0x3c4fb2ab	0.012676875
104	0x3c8db25b	0.01729696
105	0xbd768810	-0.060188353
106	0x3d512928	0.05106464
107	0xbb2d0454	-0.0026400285
108	0x3db9c3ad	0.09070525
109	0x3d326f1f	0.043563005
110	0xbca917ee	-0.020641293
111	0x3c295dcf	0.010337307
112	0x3d9520ee	0.072816715
113	0xbd8a49d5	-0.067523636
114	0xbb7577b2	-0.0037455377
115	0x3d52d7e1	0.05147541
116	0x3d0f600c	0.035003707
117	0x3d9dbd8e	0.0770217
118	0x3d33a500	0.043858528
119	0x3dd3f85f	0.103501074
120	0x3c961693	0.018321311
121	0xbd1a2196	-0.037629686
122	0x3d741c46	0.059597276
123	0x3dbfed70	0.093714595
124	0xbb97afc6	-0.004629108
125	0x3d06dc6f	0.032925066
126	0x3d497196	0.04918059
127	0x3d05b47b	0.032642823
128	0x3d6b8fe9	0.05751029
129	0x3d4159e8	0.047204882
130	0x3d7aafdc	0.06120287
131	0x3cbc7f1a	0.023009825
132	0x3d71f0b7	0.059067454
133	0xbcd20302	-0.0256362
134	0x3d7fba72	0.062433667
135	0x3ccf8747	0.02533306
136	0x3d07f0e1	0.033188704
137	0x3d2c9425	0.04213347
138	0x3d89032d	0.06690059
139	0xbb8f26de	-0.004368647
140	0x3c835589	0.016031997
141	0xbcae765c	-0.021296673
142	0xbd1dfe3d	-0.03857254
143	0xbcdb5d78	-0.026777968
144	0xbd6a33a7	-0.057178166
145	0x3d440d33	0.04786415
146	0x3bb0d240	0.0053961575
147	0xbcae25fe	-0.02125835
148	0xbd5a5b86	-0.05330994
149	0x3dac8a8a	0.08424862
150	0xb9114475	-0.0001385378
151	0x3c8d1d21	0.017225804
152	0xbc997e33	-0.018736934
153	0x3d2ddf64	0.04244937
154	0xbd00f826	-0.031486653
155	0x3be824c2	0.00708446
156	0x3bd7ea9d	0.0065892474
157	0x3d46685c	0.04843937
158	0xbcb04497	-0.021517081
159	0x3d1d1ed0	0.038359463
160	0x3d04f11f	0.032456513
161	0x3d50faab	0.051020306
162	0xbd892dfb	-0.06698223
163	0x3d0566d4	0.032568768
164	0x3cb6ad80	0.022299528
165	0xbc08f366	-0.008358812
166	0x3d29cc76	0.041454755
167	0x3ca3e6b0	0.020007461
168	0x3d369e02	0.04458428
169	0x3d52897b	0.051400643
170	0x3d6b1380	0.057391644
171	0xbd7c0c4f	-0.061535176
172	0xbd8ce05b	-0.0687873
173	0xbcbcb54a	-0.023035664
174	0x3d75891b	0.059945207
175	0xbd8800e6	-0.06640796
176	0xbd20ca0c	-0.039255187
177	0x3d142a1d	0.036172975
178	0xbc92022b	-0.0178233
179	0x3d9e817b	0.0773954
180	0xbba72111	-0.0051003774
181	0xbceb029e	-0.028687771
182	0x3db70a08	0.0893746
183	0xbca95770	-0.020671576
184	0xbbdf14d5	-0.0068079033
185	0x3c3b1b4f	0.011420085
186	0x3d4e6fdc	0.050399646
187	0xbd7bdbbb	-0.06148885
188	0x3cce9b12	0.025220428
189	0x3d30d518	0.043171972
190	0xbd410b5a	-0.047129966
191	0x3d233135	0.03984185
192	0x3b0349d9	0.002003303
193	0x3cd7f2b5	0.026360849
194	0x3dad62e0	0.084661245
195	0x3d3b67f0	0.04575342
196	0x3b176275	0.0023099456
197	0xbbba5e9b	-0.0056875474
198	0xbc34dbc1	-0.011038722
199	0xbb24f895	-0.002517258
200	0x3d98fb3d	0.07469795
201	0xbd124ff6	-0.035720788
202	0xbcf94947	-0.03043045
203	0x3d22d829	0.039756928
204	0xbc997c5e	-0.01873606
205	0x3cd5f9b9	0.026120054
206	0x3d9fff3b	0.07812353
207	0xba8c2125	-0.001069103
208	0x3cdad98b	0.02671506
209	0x3c89d9a0	0.016827404
210	0x3c94bf8d	0.018157745
211	0x3da58716	0.08082406
212	0xbd4c535f	-0.049884196
213	0xbc325dd2	-0.010886626
214	0xbcc06e36	-0.023490053
215	0x3d9df481	0.07712651
216	0xbc5558ca	-0.013021657
217	0xbc501dbd	-0.012702403
218	0x3d7c6321	0.061617974
219	0x3c742010	0.014900222
220	0xbd9a483f	-0.07533311
221	0xbc08d3e7	-0.008351303
222	0x3d3e4d6a	0.046460547
223	0xbb26d3aa	-0.0025455751
224	0x3d3e8223	0.046510827
225	0xbd05a640	-0.03262925
226	0xbcb194c4	-0.021677382
227	0x3d391fc5	0.045196313
228	0xbdccd379	-0.10001273
229	0xb9669da9	-0.00021993242
230	0x39e1ca80	0.00043066218
231	0xbc4efc12	-0.01263334
232	0x3cd46aa4	0.025929756
233	0x3db5b1cd	0.088718034
234	0x3d5bdc81	0.053677086
235	0x3c90b0ff	0.017662523
236	0xbd88789e	-0.06663631
237	0x3c85659d	0.016283805
238	0xbbb2476c	-0.005440643
239	0xbd822b97	-0.0635597
240	0x3d85e130	0.06537092
241	0x3d78f637	0.060781684
242	0x3bed461d	0.007241024
243	0xbd15fade	-0.0366162
244	0x3d381fc4	0.04495217
245	0xbbb1d842	-0.0054273913
246	0x3da9c63d	0.08289764
247	0x3c0bd93e	0.008535681
248	0x3dce2b72	0.1006688
249	0xbd6eb747	-0.058280256
250	0x3c3f7e2e	0.011687798
251	0xbc343d59	-0.011000955
252	0x3bc1dd87	0.0059163007
253	0x3da13a8d	0.07872496
254	0x3b32b57a	0.0027268813
255	0xbd7ff327	-0.062487748

fc3.weight f4 [4, 300]
0	0xbdd1a990	-0.102374196
1	0x3eaf3869	0.34222725
2	0x3e668516	0.22511706
3	0x3e300503	0.17189412
4	0xbe8cfd6e	-0.27537102
5	0x3dec3b2d	0.115347244
6	0x3c962520	0.01832825
7	0xbe36cf53	-0.17852525
8	0xbe9ba66f	-0.30400416
9	0xbe432662	-0.1905761
10	0x3e234c6e	0.15947124
11	0x3eb65e3f	0.3561878
12	0xbec41d88	-0.3830378
13	0xbcb581cb	-0.022156617
14	0x3e5ebb8c	0.21751231
15	0xbd08d5e3	-0.033407103
16	0xbe09ca78	-0.13456142
17	0x3e057e8d	0.13036557
18	0x3d012bd9	0.031535957
19	0x3e1855a6	0.14876422
20	0x3d715336	0.058917247
21	0xbe179c7b	-0.14805786
22	0xbcd078ba	-0.025448192
23	0x3e871020	0.2637949
24	0xbe01e482	-0.12684825
25	0xbbd5c02e	-0.0065231537
26	0xbf32c0af	-0.6982526
27	0xbe2cf66a	-0.16890875
28	0x3c98fd16	0.018675368
29	0xbe82525f	-0.2545347
30	0x3e30b4b4	0.17256433
31	0x3e9beb09	0.30452755
32	0x3c665868	0.014059164
33	0xbcac434d	-0.021028185
34	0xbd9c514e	-0.07632695
35	0xbe006fcc	-0.12542647
36	0xbe0819ed	-0.1329114
37	0xbe96f625	-0.29484668
38	0xbe179aa8	-0.1480509
39	0xbe3fcc2b	-0.18730228
40	0x3e4c6da4	0.199637
41	0x3d25d647	0.040487554
42	0x3e555f25	0.20837076
43	0x3ddad365	0.106848516
44	0xbd3ec9d0	-0.046579182
45	0xbd5a56a0	-0.05330527
46	0xbea59393	-0.32339153
47	0x3d6abefc	0.057311043
48	0xbe4343f6	-0.19068894
49	0x3ec40d48	0.38291383
50	0xbc8880eb	-0.016663035
51	0xbdcaf1df	-0.099094145
52	0x3f3065a5	0.689051
53	0x3c03d4d1	0.008046345
54	0xbe3d081e	-0.18460128
55	0x3eba83f3	0.36428794
56	0xbd49f452	-0.049305268
57	0x3ee17928	0.44037747
58	0xbde59e13	-0.11211791
59	0x3ef7055d	0.4824628
60	0xbca94131	-0.020660968
61	0x3e8f9397	0.2804229
62	0xbe502789	-0.20327581
63	0xbe97a6b2	-0.29619366
64	0xbed83a68	-0.4223206
65	0x3e88a142	0.2668553
66	0x3e808c48	0.25107026
67	0x3f36b5b2	0.71370995
68	0x3ec0dd8f	0.37669036
69	0x3d8ad0f1	0.06778134
70	0xbedcfe49	-0.43162754
71	0xbe013510	-0.12617898
72	0xbd6ea858	-0.058266014
73	0xbdc104ef	-0.09424769
74	0xbd24fa26	-0.040277623
75	0xbca0e767	-0.019641591
76	0x3e202394	0.15638572
77	0x3e97c82f	0.29644915
78	0x3e6a0bbb	0.22856037
79	0x3e8281a9	0.25489548
80	0xbeafa40d	-0.34304848
81	0x3e5d1dd7	0.21593414
82	0x3e593e9d	0.21215291
83	0x3f15f4e0	0.58576775
84	0x3dff358d	0.12461386
85	0x3eb2cc2d	0.349214
86	0xbbf49fdc	-0.007465346
87	0xbed1e5b3	-0.4099556
88	0xbd376d0e	-0.044781737
89	0xbeafd452	-0.34341675
90	0x3f0de6f6	0.55430543
91	0x3ee934ee	0.45548195
92	0x3ea847d5	0.32867303
93	0x3f09d70f	0.5384378
94	0xbec2d336	-0.38051766
95	0x3f18c22f	0.596713
96	0x3ec07d49	0.37595585
97	0xbe09f900	-0.13473892
98	0x3a934b05	0.0011237568
99	0x3e6219e1	0.22080185
100	0xbe822713	-0.25420436
101	0x3e045b2a	0.12925401
102	0xbe8df544	-0.27726185
103	0xbd6ec9c4	-0.058297887
104	0x3b67556a	0.0035298713
105	0x3e56ba5c	0.20969528
106	0xbe86fc3e	-0.2636432
107	0x3d8a43d8	0.067512214
108	0x3e0df070	0.13861251
109	0x3e10c190	0.14136338
110	0xbe289ce3	-0.16466098
111	0x3f0b8094	0.5449307
112	0x3d0c2e41	0.0342238
113	0xbe6653cc	-0.22492903
114	0xbe290c8c	-0.16508693
115	0x3cce7f63	0.025207227
116	0x3dfab883	0.12242224
117	0xbd6566f6	-0.056006394
118	0x3e99f5b3	0.30070266
119	0xbd568653	-0.052374195
120	0xbe3fc01e	-0.1872563
121	0xbe47a100	-0.1949501
122	0xbf1224f9	-0.57087666
123	0xbd312534	-0.04324837
124	0xbe21e29e	-0.15809104
125	0x3ebac117	0.3647544
126	0x3dc9620b	0.09833153
127	0xbe57b792	-0.2106612
128	0xbe8336fe	-0.25627893
129	0x3da4cae8	0.08046514
130	0xbca842fe	-0.020539757
131	0x3eb8e179	0.36109522
132	0x3ef557b4	0.47918475
133	0xbedc3eb2	-0.43016583
134	0x3d9c531a	0.07633038
135	0xbee33f2c	-0.44384134
136	0x3d8e4efe	0.0694866
137	0x3e9a3d8e	0.30125087
138	0xbd1ef3ff	-0.03880691
139	0x3e6ac8f0	0.22928214
140	0xbe52ebfb	-0.20597832
141	0xbdcef1d3	-0.10104718
142	0xbd7c7e4f	-0.061643895
143	0xbc8d622a	-0.017258722
144	0xbe136b76	-0.14396462
145	0xbe2ea20e	-0.17054006
146	0x3ee660fc	0.44995868
147	0xbe6a97c9	-0.22909464
148	0x3c977bbf	0.018491624
149	0xbd0532eb	-0.032519262
150	0xbdd10e7a	-0.10207839
151	0xbcccddd9	-0.025008129
152	0x3bd7d59b	0.006586743
153	0x3e88509d	0.26624003
154	0xbe1a8dfb	-0.15093224
155	0x3de5f666	0.112286374
156	0xbdb648cd	-0.089006044
157	0x3d28fcca	0.041256703
158	0xbd65457b	-0.055974465
159	0xbe38b40e	-0.18037435
160	0xbe545159	-0.20734157
161	0xbe222fea	-0.1583859
162	0x3f1fa32c	0.62358356
163	0xbdc90b5e	-0.09816621
164	0x3e421559	0.18953456
165	0x3d282dc5	0.041059274
166	0x3daf6406	0.08564
167	0x3dc6fa42	0.09715702
168	0xbcf25077	-0.029579384
169	0xbb118c5c	-0.0022208905
170	0x3c61cdad	0.013781947
171	0xbcbabf71	-0.022796365
172	0xbe275402	-0.1634064
173	0x3e9d7bb8	0.30758452
174	0x3e4b7bc4	0.19871432
175	0x3cee06f2	0.029056046
176	0xbe2fea2e	-0.17179176
177	0x3e88e7c7	0.26739332
178	0x3e423e20	0.18969011
179	0xbe2b0f53	-0.16705064
180	0xbf4859ef	-0.7826223
181	0x3ea06201	0.3132477
182	0x3f19ba21	0.60049635
183	0x3c9ad4fb	0.018900385
184	0xbe13281c	-0.1437077
185	0xbeaf8f3a	-0.3428896
186	0xbe9ce1e4	-0.3064109
187	0x3e7f3d0e	0.24925634
188	0x3f0cac6b	0.5495059
189	0x3c9029ca	0.017598052
190	0xbe655900	-0.22397232
191	0xbe9b3353	-0.30312595
192	0x3eded104	0.4351884
193	0x3ed531e6	0.41639632
194	0xbcd7dcfd	-0.026350493
195	0xbd2bdfec	-0.041961595
196	0x3efbff30	0.4921813
197	0x3e640303	0.22266774
198	0x3ee38b33	0.44442138
199	0x3db8a405	0.09015659
200	0xbd63f4e3	-0.055653464
201	0x3e52cc3a	0.20585719
202	0xbe93e462	-0.2888518
203	0x3e246f52	0.1605809
204	0x3da4f222	0.08053996
205	0xbd4f19fe	-0.050561897
206	0x3de3c9aa	0.11122449
207	0xbe3f1408	-0.18659985
208	0x3f174128	0.59083796
209	0xbd1997e9	-0.03749839
210	0xbdca8ac1	-0.098897465
211	0xbea4579d	-0.32098094
212	0x3e3ad502	0.18245319
213	0xbdae9cf1	-0.08526028
214	0x3e296989	0.16544165
215	0xbca9041d	-0.020631844
216	0x3bfe9e43	0.007770331
217	0x3dd80a28	0.10548812
218	0xbd8d9a95	-0.0691425
219	0xbd8bbaaf	-0.068227164
220	0xbdfd81a5	-0.12378243
221	0xbed4ca04	-0.41560376
222	0xbd208008	-0.0391846
223	0xbb22455d	-0.0024760582
224	0x3c1f023f	0.009705125
225	0xbe10d3c8	-0.14143288
226	0xbeb05df4	-0.3444668
227	0xbe252df2	-0.16130808
228	0x3e0d215b	0.13782255
229	0xbe09db2d	-0.13462515
230	0xbe67512c	-0.22589558
231	0x3ed78f31	0.42101434
232	0xbd7b1a43	-0.061304342
233	0x3ec1bd61	0.37839797
234	0x3cbaa592	0.022784028
235	0xbeceaa0b	-0.40364107
236	0xbe102ac4	-0.14078814
237	0xbdca7ae7	-0.09886723
238	0xbe9d519e	-0.3072633
239	0xbd637642	-0.0555327
240	0xbc722674	-0.014779676
241	0x3e971f78	0.29516196
242	0xbe29b6fb	-0.16573708
243	0xbe2cf972	-0.16892031
244	0xbe9761d2	-0.29566818
245	0xbe81a54b	-0.2532142
246	0xbe1806f2	-0.148464
247	0x3ecb3026	0.39685172
248	0x3dd6edac	0.10494551
249	0xbe4d8ca0	-0.20073175
250	0xbe6aa281	-0.22913553
251	0xbdde14a8	-0.108437836
252	0x3f1b6af0	0.6071005
253	0xbc545e77	-0.012961975
254	0x3e23dbb5	0.1600178
255	0x3e6bc3f1	0.23023964

fc3.bias f4 [4]
0	0xbd48a9cf	-0.048990067
1	0x3d9dd361	0.07706333
2	0x3d8e3069	0.06942827
3	0x3ca8c440	0.020601392
